MCv1e_4000.pt (torch, 12648 bytes, 4 tensors)

fc1.weight f4 [80, 28]
0	0xbccf06c9	-0.02527179
1	0x3d2266c5	0.03964879
2	0xbcce568e	-0.025187757
3	0xbcdd9cc6	-0.027052294
4	0x3c7d1d08	0.015448816
5	0x3b8e2d76	0.0043389155
6	0xbc00c6c5	-0.00785989
7	0x3c35a8b2	0.011087583
8	0x3d1698a8	0.036766678
9	0x3a10e10c	0.00055266987
10	0xbcbc9c71	-0.023023816
11	0xbc876938	-0.016529664
12	0xbbe25147	-0.0069066617
13	0xbd2f29e0	-0.042764544
14	0x3ca641bf	0.020295022
15	0x3cf10fbd	0.02942645
16	0xbccf08cf	-0.025272755
17	0x3c9aa94b	0.018879553
18	0x3d20b90b	0.03923897
19	0x3cead7e2	0.028667394
20	0x3d387d61	0.045041446
21	0x3d1a69b8	0.037698478
22	0x3caa6241	0.020798804
23	0x3d813aa3	0.06310012
24	0x3d554f50	0.05207759
25	0x3d580fcc	0.05274944
26	0xbbc19185	-0.00590724
27	0x3d857162	0.06515767
28	0x3d0549c4	0.03254105
29	0xba96f566	-0.0011517226
30	0xbd121f8e	-0.035674624
31	0xbcc03225	-0.02346141
32	0x3c734fe9	0.014850595
33	0x3c483424	0.012219463
34	0xbc8f3835	-0.017482856
35	0xbd167c78	-0.036739796
36	0xbd485485	-0.04890873
37	0x3be9b89d	0.0071326033
38	0x3cb115d5	0.021616856
39	0x3b9dbbec	0.004813662
40	0x3d091587	0.033467796
41	0xbcf139a6	-0.029446434
42	0x3d14a2f4	0.036288217
43	0xbb4c8cce	-0.0031211856
44	0xbd1ef9d4	-0.038812473
45	0xbd2f7a64	-0.04284133
46	0xbbf03461	-0.007330463
47	0x3bc9602d	0.0061454982
48	0x3c2e5535	0.010640432
49	0xbca70d4c	-0.020392083
50	0x3d036ba3	0.032085072
51	0xbce640c6	-0.028107058
52	0xbc099f0c	-0.008399736
53	0xbc56241b	-0.013070132
54	0xbce5a159	-0.028031038
55	0x3d4d7695	0.050161917
56	0xbd5c15ed	-0.053731848
57	0x3be47027	0.0069713774
58	0x3ba9ad1a	0.005178106
59	0x3c91c442	0.017793778
60	0xbc2414d0	-0.010014728
61	0xbcf28734	-0.029605485
62	0xbacbdc0b	-0.0015553249
63	0xbce48145	-0.027893672
64	0x3c73fceb	0.014891843
65	0x3d1c3540	0.03813672
66	0x3c9ecad2	0.019383822
67	0x3b98b19d	0.004659845
68	0x3cc8460e	0.024447467
69	0x38d2ccc9	0.000100517245
70	0x3ce76163	0.02824468
71	0xbd020798	-0.031745523
72	0xbc71c23a	-0.01475578
73	0x3d469ac7	0.04848745
74	0xbd161aaa	-0.036646523
75	0xbbbf9155	-0.0058461824
76	0xbd339166	-0.043839835
77	0x3d3a1dbf	0.045438524
78	0x3d15beb1	0.03655881
79	0xbc12edea	-0.008967856
80	0x3d741ccf	0.059597787
81	0xbc327566	-0.010892248
82	0x3d773167	0.060349848
83	0x3d7a9dd6	0.06118568
84	0xbb8b7f49	-0.004257117
85	0x3ca6ff8f	0.020385532
86	0xbd076431	-0.033054534
87	0xbc1bca74	-0.009508718
88	0xbd226496	-0.039646707
89	0x3cda8c2b	0.026678165
90	0x3d3952cd	0.04524498
91	0xbcab4fa0	-0.020911992
92	0xbcfdd102	-0.030983452
93	0x3cbe29ba	0.023213256
94	0xbc11555d	-0.00887045
95	0x3c2e5db8	0.0106424615
96	0x3cd4b334	0.025964357
97	0xbcc59a70	-0.024121493
98	0xbbd5a53f	-0.006519943
99	0x3d21a950	0.03946811
100	0x3cf669a1	0.030079665
101	0x3c7870a6	0.015163576
102	0xbca6c485	-0.02035738
103	0xbc60f83d	-0.01373106
104	0x3c1a09d7	0.00940176
105	0xbcf11ad1	-0.029431732
106	0xbd08cd84	-0.03339912
107	0x3c0ab979	0.008467072
108	0x3b496d1f	0.0030735207
109	0x3d161a4c	0.036646172
110	0x3b5e19cd	0.003388989
111	0x3c0fc44b	0.008774827
112	0xbd710be4	-0.05884923
113	0xbc93bea3	-0.018035239
114	0xbc83cd17	-0.016089005
115	0x3d3a0bfa	0.045421578
116	0x3cba3bd8	0.022733614
117	0xbd760cf3	-0.060070943
118	0x3d060413	0.03271873
119	0xbca6edce	-0.020377066
120	0x3d14e653	0.036352467
121	0xbb44581c	-0.0029959744
122	0xbb985ef3	-0.0046499907
123	0xbc200587	-0.009766943
124	0xbb7f9b17	-0.0039002353
125	0x3cdbbc35	0.026823143
126	0xbd2c6616	-0.042089544
127	0x3c87abc3	0.016561395
128	0xbc58bb40	-0.013228238
129	0xbcaa329f	-0.020776091
130	0x3d39f718	0.045401663
131	0xbd4486d7	-0.047980156
132	0xbd3c85f4	-0.046026185
133	0xbd2fab55	-0.042888004
134	0xbbda6b7a	-0.0066656442
135	0x3c56d08c	0.013111245
136	0x3d6a9f29	0.057280693
137	0x3d7c1784	0.061545864
138	0x3d094232	0.033510394
139	0xbb03e431	-0.0020125026
140	0xbd6bc239	-0.057558272
141	0x3c4279f2	0.011869894
142	0x3d397f0a	0.04528717
143	0xbc326299	-0.010887765
144	0x3bf6a702	0.007527233
145	0xbbce05fa	-0.0062873336
146	0x3c9cf87c	0.019161455
147	0xbd442de2	-0.04789532
148	0xbc13e353	-0.009026366
149	0xbc82a309	-0.015946882
150	0xbc1bf594	-0.009519
151	0xbac2a39d	-0.0014849786
152	0x3d01cb5f	0.03168809
153	0xbc86d062	-0.016456787
154	0xbd276cb7	-0.040875163
155	0x3c9d689b	0.019214919
156	0x3d3ec8e5	0.046578307
157	0xbc2ca691	-0.010537759
158	0xbcded403	-0.027200704
159	0xbc90e2fa	-0.017686356
160	0x3ca6b2e1	0.020348968
161	0xbc38d5e0	-0.0112814605
162	0xbd48733c	-0.04893802
163	0x3cdaf84b	0.026729723
164	0x3ca3c9bc	0.019993655
165	0x3c255480	0.010090947
166	0x3c657205	0.014004235
167	0xbcc6b3af	-0.024255602
168	0x3cbe65f6	0.023241978
169	0x3c07e962	0.008295389
170	0xbd331d9c	-0.04372941
171	0x3c1ab3d5	0.009442289
172	0x3a81a285	0.0009890354
173	0xbd1bf6f6	-0.038077317
174	0xbc422cac	-0.011851471
175	0xbd61b437	-0.055103507
176	0x3c9cbc30	0.019132704
177	0xbd235167	-0.039872553
178	0xbc9c4f62	-0.019080821
179	0xbd1bc48f	-0.03802925
180	0x3d0dba1c	0.034601316
181	0xbb632273	-0.0034657985
182	0x3cefd1c8	0.029274836
183	0x3b11b667	0.0022233964
184	0xbd0a61fc	-0.03378485
185	0xbd09eed5	-0.033675034
186	0xbd13a079	-0.03604171
187	0x3d2c2f7c	0.042037472
188	0xbc167579	-0.009183281
189	0xbd2c2b74	-0.042033628
190	0xbd144c6a	-0.036205687
191	0x3d831a2f	0.064014785
192	0x3d4ef0cf	0.05052262
193	0x3ce1fe80	0.027587175
194	0x3d27c2c7	0.04095724
195	0x3d31e375	0.04342981
196	0x3c0a17d6	0.0084285345
197	0x3d3a1165	0.045426745
198	0x3cb5a3d6	0.02217285
199	0x3c895065	0.016761968
200	0xbd3bd5bd	-0.045858134
201	0x3c6428f2	0.013925778
202	0xbd2f8976	-0.042855702
203	0x3d30a6aa	0.043127693
204	0x3b017955	0.0019756157
205	0xbd3ac84a	-0.045601167
206	0xbb9ddcee	-0.0048175966
207	0xbd132a88	-0.035929233
208	0x3ce77438	0.02825366
209	0x3c9ec0dd	0.019379074
210	0x3d181237	0.037126746
211	0xbd16ffb7	-0.036864962
212	0x3af1234c	0.001839736
213	0x3d31ac6c	0.043377325
214	0xbb6cef40	-0.0036153346
215	0xbd1d6445	-0.038425703
216	0x3c01c53e	0.007920561
217	0xbd1b160d	-0.037862826
218	0xbca21d73	-0.019789433
219	0x3d28ee34	0.041242793
220	0xbc6c45b5	-0.014420916
221	0xbce77680	-0.028254747
222	0x3d6f2669	0.05838624
223	0x3d1e4d04	0.038647667
224	0xbbbee27b	-0.0058253384
225	0xbcec21e3	-0.028824752
226	0x3cdd8a2d	0.027043426
227	0x3d36593d	0.044518698
228	0x3d26a14e	0.040681176
229	0xbcc3b31d	-0.023889119
230	0xbd03e9ef	-0.03220552
231	0xbcaa7d91	-0.020811828
232	0x3ae121cc	0.001717621
233	0x3d08eac3	0.03342701
234	0x3c954bcf	0.018224625
235	0x3b68c56b	0.003551806
236	0xbd146edc	-0.036238536
237	0x3d3cdae3	0.046107184
238	0xbd3ec08a	-0.04657034
239	0xbcf40346	-0.029786717
240	0x3cba845e	0.022768196
241	0x3c677dfd	0.014129159
242	0xbc3455c2	-0.011006774
243	0x3cd48261	0.025941076
244	0x3c0ed410	0.008717552
245	0xba028df1	-0.00049802574
246	0xbc28add2	-0.010295348
247	0xbd1aa41f	-0.037754174
248	0x3d464b42	0.048411615
249	0xbcb17a29	-0.021664696
250	0x3d631e8e	0.05544906
251	0x3b9c4e2d	0.0047700615
252	0x3c904245	0.017609725
253	0xbb9c3e66	-0.0047681807
254	0xbcfa54f1	-0.030558081
255	0x3c962111	0.018326314

fc1.bias f4 [80]
0	0x3c9f543e	0.01944935
1	0x3db816fe	0.089887604
2	0x3c2377f4	0.0099773295
3	0x3d6f2bde	0.058391444
4	0xb956d869	-0.0002048925
5	0x3d866435	0.06562082
6	0x3dd26d0b	0.102747045
7	0x3c4c4d7d	0.0124696465
8	0x3b8d8598	0.004318904
9	0x3d201b32	0.039088435
10	0x3dac573d	0.08415077
11	0x3d11e513	0.035618853
12	0x3bb7256d	0.0055891783
13	0x3b873647	0.0041263434
14	0x3d06b49f	0.032887097
15	0x3d9bb7f6	0.07603447
16	0xbc3f4619	-0.011674427
17	0x3d9f6522	0.077829614
18	0x3c2b3d73	0.010451662
19	0x3d3b487c	0.045723423
20	0x3d9e6896	0.07734792
21	0x3ba7d2d1	0.005121567
22	0xbc447919	-0.011991763
23	0x3d193423	0.037403237
24	0x3d9b533c	0.07584235
25	0x3d850bf8	0.064964235
26	0x3d8cc2cb	0.06873091
27	0x3c321dfb	0.010871406
28	0x3d591110	0.052994788
29	0x3dc73442	0.09726764
30	0xbae21951	-0.0017249977
31	0x3ca02202	0.019547466
32	0x3d763db4	0.06011744
33	0x3d139c28	0.036037594
34	0xbc1dbf83	-0.0096281795
35	0x3da57aa4	0.080800325
36	0x3db4cf4b	0.088286005
37	0x3dbb7fd5	0.091552414
38	0x39fc20d2	0.0004808964
39	0x3ce0925c	0.02741354
40	0x3dace368	0.08441812
41	0x3da2d0ec	0.07950005
42	0x3d565aa4	0.052332535
43	0x3c70c7b7	0.014696053
44	0x3d284140	0.041077852
45	0x3d88376e	0.066511974
46	0x3c949374	0.018136717
47	0x3cdd778a	0.02703454
48	0x3d4cb89d	0.04998075
49	0x3da8bfa4	0.082396775
50	0xbbae6844	-0.005322488
51	0x3d9019b5	0.07036153
52	0x3d8c546a	0.06852038
53	0xbb51d6f0	-0.0032018982
54	0x3db24dea	0.08706267
55	0x3dbc2f60	0.091887236
56	0x3ceaa899	0.028644847
57	0x3dc3cff7	0.095611505
58	0x3d8b8613	0.06812682
59	0x3d8e0ee1	0.06936432
60	0x3d823703	0.06358149
61	0x3bebd44a	0.0071969377
62	0x3d9677eb	0.07347091
63	0x3d325acc	0.043543622
64	0x3db739e7	0.08946591
65	0x3d469b95	0.04848822
66	0x3d33f736	0.04393693
67	0x3d78f46a	0.060779966
68	0xbcb5381b	-0.02212148
69	0x3d68bf14	0.05682285
70	0x3d270fdc	0.04078661
71	0x3d1a37b8	0.037650794
72	0x3d98f6ed	0.07468972
73	0xbaaa5a81	-0.0012996943
74	0x3d21e72d	0.039527107
75	0x3d99bab6	0.075063154
76	0x3b309bf4	0.0026948424
77	0x3c44d5ff	0.012013911
78	0x3d981331	0.074255355
79	0x3cc0923a	0.023507226

fc2.weight f4 [4, 80]
0	0x3e27ef47	0.16399871
1	0x3e74c37f	0.23902701
2	0x3e4ca667	0.19985352
3	0x3e37eea4	0.17962128
4	0x3e76f573	0.24117069
5	0x3e67ed1d	0.22649045
6	0x3e81f655	0.2538325
7	0x3e56206c	0.20910805
8	0x3e389e7e	0.1802921
9	0x3e2c2147	0.1680957
10	0x3e6bb123	0.23016791
11	0x3e6f9862	0.23397973
12	0x3e4a5db6	0.1976231
13	0x3e5bc80c	0.2146303
14	0x3e5b9cef	0.21446584
15	0x3e54e439	0.20790185
16	0x3e225f61	0.15856697
17	0x3e6adac7	0.2293502
18	0x3e59282e	0.21206734
19	0x3e445282	0.19172099
20	0x3e3690a0	0.17828608
21	0x3e284199	0.16431274
22	0x3e2176c2	0.15767959
23	0x3e3cf93c	0.1845445
24	0x3e593b2a	0.21213976
25	0x3e749686	0.23885545
26	0x3e3a1303	0.18171315
27	0x3e3230af	0.17401384
28	0x3e706e48	0.23479569
29	0x3e811986	0.25214785
30	0x3e30066b	0.17189948
31	0x3e704bd3	0.23466425
32	0x3e81cd03	0.25351724
33	0x3e5ccfa6	0.21563587
34	0x3e56705e	0.20941302
35	0x3e4ed806	0.20199594
36	0x3e3bc8e0	0.18338346
37	0x3e792a1b	0.24332468
38	0x3e65fcbf	0.22459696
39	0x3e2bc89f	0.1677575
40	0x3e73c194	0.23804313
41	0x3e6061dc	0.2191233
42	0x3e82df4f	0.25560996
43	0x3e5170a4	0.20453125
44	0x3e7ec402	0.24879459
45	0x3e83e16f	0.2575793
46	0x3e6a8fbf	0.22906397
47	0x3e7da7e3	0.24771075
48	0x3e2bbe29	0.16771759
49	0x3e420b7b	0.18949692
50	0x3e4d0851	0.20022704
51	0x3e414b92	0.18876484
52	0x3e5624f4	0.20912534
53	0x3e818153	0.2529398
54	0x3e2dfa2c	0.16989964
55	0x3e3c27c6	0.18374547
56	0x3e4a4a09	0.19754805
57	0x3e780ac6	0.2422286
58	0x3e41fc0e	0.18943807
59	0x3e2e6478	0.17030513
60	0x3e4b32ba	0.1984357
61	0x3e652e84	0.22381026
62	0x3e606933	0.2191513
63	0x3e599ed4	0.21251994
64	0x3e44076d	0.19143458
65	0x3e29130f	0.16511177
66	0x3e40da4c	0.18833274
67	0x3e5330aa	0.20624033
68	0x3e1e436d	0.15455408
69	0x3e508902	0.20364764
70	0x3e65d96a	0.22446218
71	0x3e8844ec	0.26615083
72	0x3e66172b	0.22469775
73	0x3e36f1b4	0.1786564
74	0x3e32cf87	0.17461978
75	0x3e2c5878	0.16830623
76	0x3e1f3c32	0.15550306
77	0x3e60dc16	0.21958956
78	0x3e874a4a	0.26423866
79	0x3e3037ce	0.17208788
80	0x3e645972	0.22299746
81	0x3e6cbc2d	0.23118658
82	0x3e491ce8	0.19639933
83	0x3e494efe	0.1965904
84	0x3e3b4088	0.18286335
85	0x3e7e18c8	0.24814141
86	0x3e862d70	0.2620654
87	0x3e40da01	0.18833162
88	0x3e526821	0.20547535
89	0x3e63a528	0.22230971
90	0x3e4d324c	0.20038718
91	0x3e27f294	0.1640113
92	0x3e7f36fa	0.24923316
93	0x3e808af3	0.2510601
94	0x3e6b6ecd	0.22991486
95	0x3e578e2f	0.21050332
96	0x3e3073f1	0.17231728
97	0x3e74c1cb	0.23902051
98	0x3e2122c9	0.15735926
99	0x3e5cd1a2	0.21564344
100	0x3e6433af	0.2228534
101	0x3e535dda	0.2064127
102	0x3e37eae7	0.17960702
103	0x3e5547fb	0.2082824
104	0x3e457d84	0.19286162
105	0x3e5ae8a5	0.2137781
106	0x3e2f7f9f	0.17138527
107	0x3e5e152c	0.21687764
108	0x3e54698e	0.20743391
109	0x3e8751c2	0.26429564
110	0x3e4e8f14	0.20171767
111	0x3e846a93	0.2586256
112	0x3e30e97f	0.17276572
113	0x3e6a02f3	0.22852688
114	0x3e2aed91	0.16692187
115	0x3e72db57	0.23716484
116	0x3e820ea6	0.254018
117	0x3e577a8e	0.21042845
118	0x3e614bb4	0.22001535
119	0x3e3dcfec	0.18536347
120	0x3e81643a	0.2527178
121	0x3e43e24d	0.19129296
122	0x3e7b5f98	0.24548185
123	0x3e3842e5	0.17994268
124	0x3e4155e5	0.18880422
125	0x3e240a3b	0.16019528
126	0x3e36d2ac	0.17853802
127	0x3e486c71	0.19572617
128	0x3e722a54	0.2364896
129	0x3e5e44c7	0.21705924
130	0x3e726a89	0.23673452
131	0x3e845120	0.25843143
132	0x3e83e32d	0.2575926
133	0x3e237972	0.15964296
134	0x3e444ab4	0.19169122
135	0x3e683975	0.22678168
136	0x3e33e449	0.17567553
137	0x3e7a54f7	0.24446474
138	0x3e3791c8	0.17926705
139	0x3e636e00	0.2220993
140	0x3e2df24b	0.16986959
141	0x3e4572b0	0.19282031
142	0x3e65b3d4	0.2243188
143	0x3e817364	0.2528335
144	0x3e5af046	0.2138072
145	0x3e74f6c6	0.23922262
146	0x3e653985	0.22385223
147	0x3e784161	0.2424369
148	0x3e27ff93	0.16406088
149	0x3e2cd3b9	0.16877641
150	0x3e3f87a0	0.1870408
151	0x3e4c9a1a	0.1998066
152	0x3e5c7339	0.21528329
153	0x3e31a30d	0.17347355
154	0x3e2ec94c	0.17068976
155	0x3e7a9edf	0.24474667
156	0x3e4ae8eb	0.19815414
157	0x3e6eabdf	0.23307751
158	0x3e4ecc9a	0.20195237
159	0x3e3854f0	0.18001151
160	0x3e7fdbc0	0.24986172
161	0x3e5f61e2	0.21814683
162	0x3e7eb0d1	0.24872138
163	0x3e6f6598	0.23378599
164	0x3e7455e3	0.23860888
165	0x3e1ff08a	0.15619102
166	0x3e5ad29b	0.21369402
167	0x3e39793f	0.18112658
168	0x3e3114e4	0.17293125
169	0x3e4ef02c	0.20208806
170	0x3e834059	0.2563503
171	0x3e5d9ea6	0.21642551
172	0x3e75879a	0.23977509
173	0x3e391536	0.18074498
174	0x3e323e95	0.17406686
175	0x3e2d3488	0.1691457
176	0x3e5eed53	0.2177022
177	0x3e7fba81	0.2497349
178	0x3e50045c	0.20314163
179	0x3e4a2af0	0.19742942
180	0x3e32928d	0.17438717
181	0x3e561142	0.20905021
182	0x3e1b6a2f	0.15177225
183	0x3e68c45e	0.22731158
184	0x3e75658f	0.23964523
185	0x3e3af6c3	0.18258195
186	0x3e7ca735	0.2467316
187	0x3e65c57a	0.22438613
188	0x3e4af9db	0.19821875
189	0x3e80a14f	0.2512307
190	0x3e1b4c28	0.1516577
191	0x3e675de3	0.22594409
192	0x3e4a00eb	0.19726913
193	0x3e2f3eca	0.17113796
194	0x3e238a2c	0.15970677
195	0x3e396c6c	0.18107766
196	0x3e27ad13	0.16374616
197	0x3e6e03ee	0.23243687
198	0x3e7ff259	0.24994792
199	0x3e4375f7	0.19087969
200	0x3e8481e0	0.25880337
201	0x3e71bb2a	0.23606554
202	0x3e7b17af	0.24520753
203	0x3e39a94f	0.18130992
204	0x3e5ddaa3	0.21665435
205	0x3e642c18	0.22282445
206	0x3e6539e6	0.22385368
207	0x3e3305da	0.17482701
208	0x3e2fa630	0.17153239
209	0x3e398e5d	0.18120714
210	0x3e751502	0.23933795
211	0x3e4df7a6	0.20114002
212	0x3e345c83	0.17613415
213	0x3e2e4f57	0.17022453
214	0x3e3c4431	0.18385388
215	0x3e60da1a	0.21958199
216	0x3e374777	0.17898355
217	0x3e627fd9	0.22119083
218	0x3e39a471	0.18129136
219	0x3e4487bb	0.19192402
220	0x3e481b6a	0.19541708
221	0x3e25b770	0.16183257
222	0x3e30658d	0.17226239
223	0x3e797618	0.24361455
224	0x3e744044	0.2385264
225	0x3e7a0268	0.2441498
226	0x3e8149bc	0.25251567
227	0x3e67065a	0.22561017
228	0x3e3c6e7a	0.18401518
229	0x3e3c2d0b	0.18376558
230	0x3e7d296f	0.24722837
231	0x3e2c8a1e	0.16849563
232	0x3e2db9c7	0.169654
233	0x3e4f26ae	0.20229599
234	0x3e7c152c	0.24617451
235	0x3e30f9e6	0.17282829
236	0x3e4a5e15	0.19762452
237	0x3e292515	0.16518052
238	0x3e6a2c1d	0.2286839
239	0x3e223bb9	0.15843095
240	0x3e622999	0.22086181
241	0x3e1bf833	0.15231399
242	0x3e704a53	0.23465852
243	0x3e328747	0.17434417
244	0x3e2c81d4	0.168464
245	0x3e733ad6	0.23752913
246	0x3e77a4e0	0.24183989
247	0x3e1bdb04	0.15220267
248	0x3e697315	0.22797807
249	0x3e74c24f	0.23902248
250	0x3e2e7734	0.1703766
251	0x3e3242e4	0.17408329
252	0x3e4affaa	0.1982409
253	0x3e4c2f38	0.19939888
254	0x3e49f8d3	0.19723825
255	0x3e811bee	0.2521662

fc2.bias f4 [4]
0	0x3ecf39e6	0.4047386
1	0x3eee291d	0.46515742
2	0x3ed6c087	0.41943762
3	0x3ed95d48	0.4245398
