MCv1e_35000.pt (torch, 12664 bytes, 4 tensors)

fc1.weight f4 [80, 28]
0	0x3b71cb44	0.0036894837
1	0x3bd16590	0.006390281
2	0x3c845d5c	0.016157798
3	0xbc9b59d7	-0.018963737
4	0xbcfd6706	-0.030932914
5	0xbc7845cb	-0.015153359
6	0x3c586820	0.013208419
7	0xb9b6b99f	-0.00034852044
8	0xbb9b651a	-0.004742277
9	0xbd4256bb	-0.047445994
10	0xbd2998ea	-0.041405596
11	0xbcf6c724	-0.030124255
12	0x3cc8cec8	0.024512663
13	0x3c1bf607	0.009519107
14	0x3d4c4680	0.04987192
15	0x3d2a3c54	0.04156144
16	0xbad40871	-0.0016176832
17	0xbc2303c0	-0.009949625
18	0x3d84d700	0.064863205
19	0x3d337d98	0.043820947
20	0x3c6d41f9	0.014481061
21	0xbd402059	-0.04690585
22	0x3cf24922	0.029575888
23	0xbb4d744a	-0.0031349831
24	0x3d3438e5	0.04399957
25	0x3cfb3b58	0.030667946
26	0x3d7da2cf	0.061922844
27	0xbca00e3c	-0.019538037
28	0xbb45178e	-0.0030073854
29	0xbd4483fb	-0.04797743
30	0x3cd2de53	0.025740778
31	0xbd038202	-0.032106407
32	0xbd3be84e	-0.04587584
33	0x3becffab	0.0072326264
34	0xba89345d	-0.0010467876
35	0xbc2a2b41	-0.010386289
36	0xbc98aa46	-0.01863588
37	0xbc885c11	-0.016645463
38	0xbd025a1d	-0.03182422
39	0x3d10aefa	0.03532312
40	0xbd7365ce	-0.05942326
41	0x3d1c7f7a	0.03820751
42	0xbd1f5dd6	-0.03890785
43	0x3cc43fa4	0.023956127
44	0xbcc9b710	-0.024623424
45	0xbc807f36	-0.015685659
46	0xbac61b48	-0.0015114332
47	0xbc77dbf7	-0.015128127
48	0xbb6ec87f	-0.0036435423
49	0xbd055b89	-0.032557998
50	0xbc438314	-0.011933107
51	0xbd0f6e8c	-0.035017535
52	0x3d3451d1	0.04402334
53	0x3d4a287d	0.04935502
54	0xbc6a228d	-0.014290464
55	0x3d6ae283	0.057344925
56	0x3d3e66d1	0.046484772
57	0xbd75a01c	-0.059967145
58	0xbc041ce6	-0.008063531
59	0x3b8d1c40	0.004306346
60	0x3d0dec0e	0.034648947
61	0x3d01a8c8	0.031655103
62	0x3c9dc55f	0.019259153
63	0xbd0657a9	-0.032798443
64	0xba98910a	-0.0011639905
65	0xbc992b77	-0.018697483
66	0x3cc0c306	0.023530494
67	0xbd30b15c	-0.043137893
68	0xbd3e17da	-0.046409465
69	0x3c7451f9	0.014912122
70	0xbd1ff5cc	-0.03905277
71	0xbd3f15a4	-0.046651497
72	0x3d174963	0.03693522
73	0x3d15f5bc	0.036611304
74	0xbcd1722d	-0.025567139
75	0xbce21fe8	-0.027603105
76	0xbd391b46	-0.045192026
77	0xbd1b4c88	-0.037914783
78	0x3ca392fa	0.019967545
79	0x3c830320	0.015992701
80	0x3cc8f0fb	0.024528971
81	0x3d7987d9	0.06092057
82	0xbc123cca	-0.008925626
83	0x3d5118d2	0.05104906
84	0xbd24a371	-0.040194932
85	0xbd80125c	-0.06253502
86	0x3d274bd9	0.04084382
87	0xbcf7fc9a	-0.030271817
88	0xbd16a8c4	-0.03678204
89	0x3c7f0868	0.015565969
90	0xbc1c2c41	-0.009532035
91	0xbd3cfefe	-0.046141617
92	0x3cb19e81	0.021682026
93	0x3d0af0a4	0.0339209
94	0x3cecd938	0.028912172
95	0x3cbb7e24	0.022887297
96	0xbc600250	-0.013672426
97	0xbd393a3e	-0.04522156
98	0x3ca30031	0.019897552
99	0xbcf44fa1	-0.029823126
100	0xbc18ba7d	-0.009321806
101	0x3d2d8ec0	0.042372465
102	0x3c979c8a	0.01850726
103	0x3b343ce5	0.0027502116
104	0x3ce00588	0.027346388
105	0xbc9306f4	-0.017947651
106	0x3d301f7e	0.042998783
107	0x3b533df6	0.0032232977
108	0x3cb6b983	0.022305256
109	0xbc895753	-0.016765272
110	0x3d325329	0.04353634
111	0x3d1ec636	0.038763247
112	0xbc88299e	-0.016621407
113	0xbcc60400	-0.02417183
114	0xbc44847a	-0.0119944755
115	0xbd467256	-0.048448883
116	0xbd3f0d11	-0.04664332
117	0x3cccc836	0.024997812
118	0x3cf2e33a	0.029649366
119	0xbce9c14b	-0.028534552
120	0xbd1eb657	-0.03874811
121	0x3b505ab7	0.0031792352
122	0x3d0e2337	0.034701552
123	0x3d2ef448	0.042713434
124	0xb96dbb58	-0.00022671872
125	0x3d00d8b8	0.03145668
126	0xbc950496	-0.018190663
127	0x3c375404	0.0111894645
128	0xbc26ac32	-0.0101728905
129	0xbb0b09d7	-0.0021215582
130	0x3d43f36d	0.04783957
131	0xbcd9d4c7	-0.026590718
132	0xbcb0f02a	-0.021598894
133	0xbd1b0cbd	-0.037853945
134	0xbcc1a7dc	-0.023639612
135	0x3c65f3a1	0.014035136
136	0xbc0c18bd	-0.00855082
137	0x3d8b90c2	0.0681472
138	0x3d1a604c	0.037689492
139	0x3d6bcf99	0.057571027
140	0xbcabeab1	-0.020985933
141	0xb9f15ced	-0.00046036337
142	0x3cc7dd06	0.024397384
143	0x3ba6b6be	0.0050877025
144	0xbd314e60	-0.043287635
145	0x3cd9b703	0.026576525
146	0x3cb334e3	0.021875804
147	0x3d0cc586	0.03436806
148	0xbc0d9565	-0.008641575
149	0x3bab6042	0.0052299807
150	0x3d2ced93	0.042218756
151	0x3c004c4d	0.0078306915
152	0xbb32edd8	-0.002730241
153	0xbc2da609	-0.010598668
154	0x3bb18ce6	0.0054184077
155	0xbca18a1b	-0.019719174
156	0xbc8797de	-0.016551908
157	0x3d01c17f	0.031678673
158	0x3b5659fe	0.0032707448
159	0xbd3ce2ea	-0.04611484
160	0x3d3eaf3f	0.046553846
161	0xbcacd45a	-0.02109735
162	0x3c2f488d	0.01069845
163	0xbce21550	-0.027598053
164	0xbc6231fb	-0.013805862
165	0x3cc494d2	0.023996744
166	0xbc10d4d2	-0.008839803
167	0x3d9f5427	0.07779723
168	0x3d4a30eb	0.049363058
169	0x3b90c220	0.0044176728
170	0x3ce279e0	0.027646005
171	0xbc7eadc9	-0.015544363
172	0xbbb76a89	-0.005597417
173	0x3d159c42	0.036525972
174	0x3cfaf49b	0.030634215
175	0xbc96e9bb	-0.018421998
176	0xbbede9a7	-0.0072605195
177	0xbc7da1e4	-0.015480492
178	0x3d4a8e8d	0.049452353
179	0xbbd0f84c	-0.0063772555
180	0x3d0df777	0.03465983
181	0x3cd925e3	0.026507324
182	0x3ca4af5e	0.020103153
183	0xbc94cd9e	-0.018164452
184	0x3b27538a	0.002553197
185	0x3c891364	0.016732879
186	0x39905bb2	0.0002753414
187	0x3bb8b631	0.0056369533
188	0x3d0fbcfe	0.035092346
189	0xbd4f9b17	-0.050685015
190	0xbca33aba	-0.019925464
191	0xbd2849c2	-0.041085966
192	0xbb840927	-0.0040294114
193	0x3c4ea947	0.012613601
194	0x3c9c65e4	0.019091554
195	0x3d0ee7e8	0.03488913
196	0x3c9d760c	0.019221328
197	0x3c7da2ba	0.015480692
198	0x3b5ed051	0.0033998678
199	0x3ce19b05	0.02753974
200	0xbcdaa4b1	-0.02668986
201	0x3d169d79	0.03677127
202	0xbccd27be	-0.025043365
203	0xbb78056c	-0.0037845029
204	0x3cc03885	0.02346445
205	0xbcb807a6	-0.022464585
206	0xbca67772	-0.020320628
207	0x3cc4eed4	0.024039663
208	0xbd3606b2	-0.04443998
209	0x3cdbe5b9	0.026842939
210	0xbc6fa1dd	-0.014625994
211	0x3c6986c1	0.014253319
212	0x3c74795f	0.014921515
213	0x3cec076f	0.028812138
214	0x3b54cd27	0.0032470913
215	0x3c387edc	0.011260714
216	0x3b94dbba	0.004542795
217	0x3c80693f	0.015675185
218	0xbcd00270	-0.025391787
219	0xbd08d15f	-0.033402797
220	0x3cd4f19b	0.025994113
221	0xbc6dca75	-0.014513602
222	0x3cce990f	0.025219468
223	0x3cacbc73	0.021085953
224	0xbc8b2446	-0.01698507
225	0xbd2ab93f	-0.04168057
226	0x3c914c19	0.017736482
227	0xbb04ff12	-0.0020293635
228	0x3d2b024c	0.041750237
229	0xbd10450a	-0.03522209
230	0x3cdb3cd3	0.026762402
231	0xbd403526	-0.046925686
232	0x3c0055f0	0.007832989
233	0x3d15f093	0.036606383
234	0x3d184173	0.037171792
235	0xbcf48a24	-0.029851027
236	0xbcec449c	-0.02884131
237	0xbd30c1f8	-0.043153733
238	0x3c1cc5bd	0.009568629
239	0x3d48d057	0.049026813
240	0xbcf20479	-0.029543148
241	0x3d625430	0.05525607
242	0x3c6f8e2d	0.0146213
243	0x3d417950	0.047234833
244	0xbcd82e21	-0.026389183
245	0xbd1a94b3	-0.037739467
246	0xbd183bfa	-0.037166573
247	0x3cef6151	0.029221209
248	0x3d91732d	0.07102046
249	0x3d250bb1	0.040294353
250	0x3d38e28a	0.04513792
251	0x3cfdc21c	0.030976348
252	0xbcb30444	-0.02185262
253	0xbcb7a03c	-0.022415273
254	0xbd3b7ede	-0.045775287
255	0x3c9586f6	0.018252831

fc1.bias f4 [80]
0	0x3dbf3775	0.093367495
1	0x3d9266af	0.071484916
2	0x3d45f3d7	0.048328247
3	0x3d202c17	0.039104547
4	0x3d05f76d	0.032706667
5	0x3d9b97b1	0.07597292
6	0x3db4f7c4	0.0883632
7	0x3d46c9e6	0.04853239
8	0x3dd9da74	0.1063737
9	0x3d978180	0.07397747
10	0x3cfef102	0.03112078
11	0x3dbec447	0.09314781
12	0x3dcf97d5	0.101363815
13	0x3dd2c0f6	0.10290711
14	0x3db65a3e	0.08903931
15	0x3d6b7914	0.057488516
16	0x3d4997cb	0.049217027
17	0x3d1148be	0.035469763
18	0x3d892d0a	0.06698044
19	0x3d002f10	0.031294882
20	0x3c6c2f0c	0.014415514
21	0x3db9acb5	0.090661444
22	0x3dbee688	0.09321314
23	0x3d672ea2	0.056440957
24	0x3da3fa92	0.08006777
25	0x3cb435ea	0.021998364
26	0x3dd90ee6	0.10598545
27	0x3d9c5ed2	0.07635273
28	0x3d7e74ff	0.062123295
29	0x3dab0e82	0.083523765
30	0x3c9570ce	0.018242266
31	0x3da0cf2b	0.07852014
32	0x3d581b9b	0.0527607
33	0x3dc4c206	0.096073195
34	0x3d2d11e1	0.04225338
35	0x3d968429	0.07349426
36	0x3d69cb3d	0.05707859
37	0x3d532432	0.05154819
38	0x3d7bae9b	0.061445814
39	0x3ddccf42	0.10781719
40	0x3dc977e0	0.098373175
41	0x3da452c7	0.08023601
42	0x3cd8b617	0.026454015
43	0x3dadc9c5	0.0848575
44	0x3d57c8dd	0.052681793
45	0x3dc8961b	0.09794255
46	0x3dba4c79	0.09096617
47	0x3ccdad2d	0.02510699
48	0x3da2a678	0.07941908
49	0x3d482cb7	0.04887077
50	0x3cbaad75	0.022787789
51	0x3d6ae285	0.057344932
52	0x3b7151e8	0.0036822502
53	0x3d2efa65	0.042719264
54	0x3d0faacc	0.035074994
55	0x3d6aeb16	0.0573531
56	0x3d8cc940	0.06874323
57	0x3dd05035	0.10171548
58	0x3d63ad9e	0.055585496
59	0x3cfba1a0	0.030716717
60	0x3dca18ea	0.09868033
61	0x3d27e852	0.040993042
62	0x3da9d6ea	0.08292945
63	0x3dbae43d	0.09125564
64	0x3d80c484	0.062874824
65	0x3d943222	0.072361246
66	0x3d8f5ccf	0.07000124
67	0x3d378df4	0.04481311
68	0x3dadc50b	0.084848486
69	0x3d687148	0.05674866
70	0x3d7b692e	0.061379604
71	0x3d27290e	0.040810637
72	0x3c6311c9	0.013859221
73	0x3dba6e45	0.091030635
74	0x3d9fa149	0.077944346
75	0x3dbfe512	0.093698636
76	0x3cfc7c75	0.030821064
77	0x3d087e3c	0.03332351
78	0x3cea9eaa	0.02864011
79	0x3dddd6a7	0.10831957

fc2.weight f4 [4, 80]
0	0x3e694bd2	0.2278283
1	0x3e96b2ff	0.29433438
2	0x3e5327d3	0.2062066
3	0x3e82f866	0.25580138
4	0x3e839d36	0.2570588
5	0x3e73a58e	0.23793623
6	0x3e5b24c6	0.21400747
7	0x3e4cf53f	0.20015429
8	0x3e8b8bf2	0.27255207
9	0x3e8c7e23	0.27439985
10	0x3e6f48d4	0.23367625
11	0x3e62d3b6	0.22151074
12	0x3e73a11f	0.23791932
13	0x3e60d03d	0.21954437
14	0x3e95ad58	0.29233813
15	0x3e8808d1	0.26569226
16	0x3e6e13dc	0.23249763
17	0x3e947c67	0.2900116
18	0x3e777998	0.24167478
19	0x3e8afbba	0.27145177
20	0x3e571ea4	0.21007782
21	0x3e74b612	0.2389758
22	0x3e545173	0.20734195
23	0x3e769643	0.24080758
24	0x3e6e392f	0.23264001
25	0x3e954016	0.29150456
26	0x3e8c1e72	0.27366978
27	0x3e75a032	0.23986891
28	0x3e53a9d6	0.20670256
29	0x3e7e6968	0.24844897
30	0x3e5dccc8	0.21660149
31	0x3e800000	0.25
32	0x3e85672e	0.26055282
33	0x3e765d28	0.24058974
34	0x3e80fa90	0.25191164
35	0x3e8b664b	0.2722648
36	0x3e637897	0.2221397
37	0x3e6094a5	0.21931703
38	0x3e563560	0.20918798
39	0x3e78b85a	0.24289075
40	0x3e8e023b	0.27736077
41	0x3e963214	0.29335082
42	0x3e563943	0.20920281
43	0x3e800000	0.25
44	0x3e8a036a	0.2695573
45	0x3e61f8ed	0.22067614
46	0x3e7fda38	0.24985588
47	0x3e6ee5ac	0.233298
48	0x3e89600e	0.26831096
49	0x3e926b96	0.28597707
50	0x3e8a5729	0.27019623
51	0x3e6ac558	0.22926843
52	0x3e4d48cf	0.20047306
53	0x3e5d2f30	0.21600032
54	0x3e5a0dfa	0.21294394
55	0x3e719301	0.23591234
56	0x3e6c1426	0.23054561
57	0x3e88d13c	0.26722133
58	0x3e81e558	0.25370288
59	0x3e67ae16	0.22625002
60	0x3e581ac2	0.21103957
61	0x3e911a42	0.28340346
62	0x3e5ae4de	0.21376368
63	0x3e5f280c	0.2179262
64	0x3e54cbb3	0.2078083
65	0x3e8b1c2c	0.2716993
66	0x3e72ac1f	0.23698471
67	0x3e7f3ef1	0.24926354
68	0x3e98a1b1	0.2981086
69	0x3e66847f	0.22511481
70	0x3e8791ea	0.2647851
71	0x3e946e93	0.2899061
72	0x3e53d1a9	0.20685448
73	0x3e8c9a03	0.27461252
74	0x3e803da5	0.2504703
75	0x3e8d2aef	0.27571818
76	0x3e5abb40	0.21360493
77	0x3e5e20dd	0.21692224
78	0x3e81fc17	0.25387642
79	0x3e800000	0.25
80	0x3e66674a	0.22500339
81	0x3e87e234	0.26539767
82	0x3e8eaed7	0.27867767
83	0x3e5fd315	0.21857865
84	0x3e800000	0.25
85	0x3e8b72a9	0.27235916
86	0x3e800000	0.25
87	0x3e8c684f	0.2742333
88	0x3e922089	0.28540447
89	0x3e73a17a	0.23792067
90	0x3e4c93ef	0.19978307
91	0x3e7800bf	0.24219035
92	0x3e7487ae	0.23879883
93	0x3e800000	0.25
94	0x3e6ee793	0.23330526
95	0x3e5c1d2c	0.21495503
96	0x3e94f2d1	0.29091504
97	0x3e5d2a02	0.21598056
98	0x3e7c404d	0.24633904
99	0x3e7e353b	0.24824993
100	0x3e45e66d	0.19326182
101	0x3e5f7103	0.21820454
102	0x3e59f21f	0.21283768
103	0x3e814774	0.25249827
104	0x3e81c234	0.25343478
105	0x3e5dbcf7	0.21654116
106	0x3e800000	0.25
107	0x3e6952ce	0.22785494
108	0x3e7b97ce	0.24569628
109	0x3e853c21	0.26022437
110	0x3e55ae14	0.20867187
111	0x3e9437ef	0.28948924
112	0x3e58ffc9	0.21191324
113	0x3e800000	0.25
114	0x3e800000	0.25
115	0x3e8fa16f	0.28052852
116	0x3e74c85b	0.23904555
117	0x3e800000	0.25
118	0x3e856161	0.26050857
119	0x3e92d681	0.28679278
120	0x3e97743e	0.29580873
121	0x3e8b0d63	0.2715865
122	0x3e855fb3	0.26049575
123	0x3e8955fa	0.26823407
124	0x3e80000c	0.25000036
125	0x3e800000	0.25
126	0x3e8d72cf	0.27626655
127	0x3e80047b	0.25003418
128	0x3e85d342	0.2613774
129	0x3e910ee9	0.28331688
130	0x3e82820c	0.25489843
131	0x3e6e3a52	0.23264435
132	0x3e5da1b9	0.21643724
133	0x3e8b2e4f	0.27183768
134	0x3e7f3faf	0.24926637
135	0x3e6b8d77	0.23003183
136	0x3e86eee4	0.26354134
137	0x3e7737b4	0.24142343
138	0x3e93bb45	0.28853813
139	0x3e887681	0.2665291
140	0x3e7249ec	0.23661011
141	0x3e7289c8	0.23685372
142	0x3e800000	0.25
143	0x3e800000	0.25
144	0x3e6fefdb	0.23431341
145	0x3e4b8b3d	0.19877334
146	0x3e98a7d0	0.2981553
147	0x3e7b9b2b	0.2457091
148	0x3e6df546	0.23238096
149	0x3e863b8a	0.262173
150	0x3e8b4e35	0.27208105
151	0x3e83271f	0.25615785
152	0x3e5a5543	0.21321587
153	0x3e8cf39d	0.27529612
154	0x3e72a7e2	0.23696855
155	0x3e55c5f1	0.2087629
156	0x3e72d39f	0.2371354
157	0x3e6d8991	0.23197009
158	0x3e95627a	0.29176694
159	0x3e8276cf	0.2548127
160	0x3e65c62c	0.22438878
161	0x3e800000	0.25
162	0x3e800000	0.25
163	0x3e800000	0.25
164	0x3e800000	0.25
165	0x3e8f8d6b	0.2803758
166	0x3e563259	0.20917644
167	0x3e6714a1	0.22566463
168	0x3e97203f	0.2951679
169	0x3e711b1c	0.23545498
170	0x3e4451f5	0.19171889
171	0x3e8c57f8	0.27410865
172	0x3e88ab90	0.26693392
173	0x3e77bff3	0.24194317
174	0x3e7a84dd	0.24464746
175	0x3e592025	0.21203668
176	0x3e771d5c	0.24132293
177	0x3e64dd66	0.22350082
178	0x3e8fe82b	0.28106818
179	0x3e745084	0.2385884
180	0x3e800000	0.25
181	0x3e8295c3	0.25504884
182	0x3e8c4f9e	0.27404493
183	0x3e7d10a0	0.24713373
184	0x3e87a12d	0.26490155
185	0x3e800000	0.25
186	0x3e92eec2	0.28697783
187	0x3e624f24	0.22100502
188	0x3e646863	0.22305445
189	0x3e5996c7	0.21248923
190	0x3e82a442	0.25515944
191	0x3e80d669	0.25163582
192	0x3e8911ee	0.26771492
193	0x3e856547	0.2605383
194	0x3e65ea2b	0.22452609
195	0x3e4f9b27	0.2027403
196	0x3e8233c2	0.25430113
197	0x3e800000	0.25
198	0x3e719b3e	0.23594376
199	0x3e61a87b	0.22036926
200	0x3e5cd37b	0.21565048
201	0x3e7febcc	0.24992293
202	0x3e8de97b	0.27717194
203	0x3e8f122c	0.27943552
204	0x3e6985c7	0.22804938
205	0x3e800000	0.25
206	0x3e782b54	0.24235278
207	0x3e6587a1	0.2241502
208	0x3e800002	0.25000006
209	0x3e9254f8	0.2858045
210	0x3e65eae1	0.2245288
211	0x3e800000	0.25
212	0x3e45525f	0.19269703
213	0x3e49be03	0.1970139
214	0x3e8a36d0	0.26994944
215	0x3e833323	0.25624952
216	0x3e91e7f4	0.2849728
217	0x3e7970b5	0.243594
218	0x3e56ae05	0.2096482
219	0x3e8ddb4d	0.27706376
220	0x3e9065d2	0.28202683
221	0x3e8880e3	0.26660833
222	0x3e75d45f	0.24006794
223	0x3e8787db	0.26470837
224	0x3e59bd6a	0.21263662
225	0x3e8c1f6d	0.27367726
226	0x3e800000	0.25
227	0x3e852ff3	0.26013145
228	0x3e6cd791	0.23129107
229	0x3e86251e	0.26200193
230	0x3e9330d8	0.28748202
231	0x3e7bd473	0.24592762
232	0x3e8f0f02	0.27941138
233	0x3e7e5c3e	0.24839875
234	0x3e81a3e1	0.25320342
235	0x3e803a99	0.25044706
236	0x3e87046d	0.26370564
237	0x3e80000b	0.25000033
238	0x3e6bbb8e	0.23020765
239	0x3e521536	0.20515904
240	0x3e7384be	0.23781106
241	0x3e749c65	0.23887785
242	0x3e800000	0.25
243	0x3e6b2828	0.22964537
244	0x3e802106	0.25025195
245	0x3e564df4	0.20928174
246	0x3e80044f	0.25003287
247	0x3e85a21a	0.26100236
248	0x3e800000	0.25
249	0x3e800000	0.25
250	0x3e62af79	0.2213725
251	0x3e6edc41	0.23326208
252	0x3e7f6097	0.2493919
253	0x3e6f5d6f	0.23375486
254	0x3e914d2d	0.28379193
255	0x3e82cf8d	0.25548974

fc2.bias f4 [4]
0	0x3f000000	0.5
1	0x3ee835c7	0.4535353
2	0x3f000000	0.5
3	0x3f055fe9	0.5209947
