TD0v1e_10000.pt (torch, 12672 bytes, 4 tensors)

fc1.weight f4 [80, 28]
000000 92 80 8c 3c 26 07 2d bd e1 97 16 bb 45 8d 62 3b
       0.01715115 -0.042243145 -0.002297871 0.0034569066
000010 0e 73 4d 3d 0e ec 03 bb f7 84 2f bc 29 1d 11 3c
       0.050158553 -0.0020129713 -0.010712854 0.00885705
000020 22 a7 f0 bc d9 f7 ee 3c 6b a4 3a bd 71 d8 f6 bc
       -0.02937657 0.029170917 -0.045566957 -0.030132504
000030 0c 26 35 3d 7e 19 16 bd 39 7d 00 3d bd c6 e2 bc
       0.044225737 -0.036645405 0.03136942 -0.027682656
000040 3d e2 ae 3c 4c cf 45 bd b1 05 02 3d de 1f bc 39
       0.021348113 -0.048293397 0.03174371 0.00035881897
000050 d6 95 50 bd c7 18 12 3d b0 de 02 bd f9 ff 6a 3b
       -0.050924145 0.03566816 -0.031950653 0.0035858138
000060 d3 51 79 be 71 fe 5e 3e 07 24 76 be 2b 97 8f 3e
       -0.2434762 0.21776749 -0.24037181 0.2804502
000070 51 a6 eb 3c d9 5c 93 3c e7 f6 cf bb 35 d2 b2 3c
       0.02876583 0.01798861 -0.0063465717 0.02182875
000080 47 99 85 bb 50 1b 48 3c 8b 1a c3 3c 07 e1 71 bc
       -0.00407711 0.012213543 0.023816368 -0.014763123
000090 63 ac 27 3d 4c 32 ce 3c de e7 04 3d 87 31 2d 3c
       0.040935885 0.025170468 0.03244769 0.01057089
0000a0 76 40 0c bd 02 f2 11 bd fe 49 25 3d 64 63 04 3d
       -0.034241162 -0.035631187 0.040353768 0.03232135
0000b0 eb 44 06 bc 4f 5b 59 3c 41 34 1f bd 57 e6 b4 3c
       -0.008195142 0.013266399 -0.038868193 0.02208249
0000c0 ac a9 0c bd 9a a4 1e 3c c0 66 f6 3b d7 6b 0c 3c
       -0.0343415 0.009682799 0.007519573 0.008570633
0000d0 23 35 8d be f0 e0 77 3e 08 e7 64 be e8 e9 87 3e
       -0.27579603 0.242069 -0.22353756 0.26545644
0000e0 1f 95 2e bc fa f0 00 3d ba 1b f6 3c fe e8 3b 3d
       -0.01065567 0.031479813 0.030042518 0.045876496
0000f0 9d eb 0a bb 28 0a 26 bc 5c 26 30 3d 95 67 45 3d
       -0.0021197565 -0.010134257 0.043005332 0.048194487
000100 00 6a ae 3c d7 99 f1 3c 39 74 e8 bb 0f d3 60 bb
       0.02129078 0.029492302 -0.007093933 -0.0034305488
000110 7c 4f 22 3c 66 fe 24 bd 3f 6a 11 bd 0b b7 3b 3d
       0.009906646 -0.040281676 -0.035501715 0.04582886
000120 2a b4 6b bc 8c e4 1c bd 78 2f a3 3c 71 13 8f 3c
       -0.014386216 -0.038303897 0.019920096 0.017465325
000130 7e 10 b9 bb 7f fd 03 bd 24 d1 f2 3b 9d f1 8a bc
       -0.005647718 -0.032224175 0.0074101854 -0.016960913
000140 8a 2c 85 be fa f9 75 3e 57 e9 45 be ba 1c 60 3e
       -0.26010543 0.2402114 -0.19327293 0.21885958
000150 77 b4 3d 3d 69 09 14 bd a6 ee e9 3a a6 2e 1a bd
       0.046314683 -0.036141787 0.0017847612 -0.037642144
000160 e9 a6 9a 3c 69 97 19 bb e6 b8 eb 3c c8 62 0c 3d
       0.018878417 -0.0023436195 0.02877469 0.034273893
000170 99 6c 19 bd dd b9 23 3d 5f 6a 3a bd 17 68 15 3d
       -0.037457082 0.039972175 -0.0455116 0.03647622
000180 4d d3 9d 3c f8 b0 da 3c d8 10 06 3d ed cf 1d bc
       0.019265795 0.026695713 0.032730907 -0.009632093
000190 e9 bd 82 3c 59 7c 1d 3d d1 9c e4 bc 1a 40 ae bb
       0.015959697 0.038448665 -0.027906807 -0.0053177
0001a0 9b d4 8f 3c 1b d7 19 3d cd 65 1b 3d 71 74 cb 3c
       0.017557433 0.037558656 0.03793888 0.024835797
0001b0 ef c0 1e be 90 3b 02 3e 46 12 07 be 7d d3 14 3e
       -0.15503286 0.12718034 -0.13190565 0.14533801
0001c0 26 55 1e bd d6 97 a0 3c 13 a7 c3 3c 53 07 83 3c
       -0.038655423 0.019603651 0.023883378 0.015994703
0001d0 e7 e1 41 bd 35 92 97 3c 4e 01 2d 3b 0e d2 c4 bc
       -0.047334578 0.018502334 0.0026398483 -0.024025943
0001e0 c4 c6 03 3d 3c e2 4e bc ce 0a 47 bc d9 f5 fb 3a
       0.03217198 -0.012627181 -0.012148572 0.0019223049
0001f0 6b 44 47 3d fc c1 0e bd 01 64 d9 bc d1 75 23 3d
       0.048649233 -0.034852967 -0.026536943 0.03990728
000200 ba 55 d5 bc ea 93 2d 3d 00 15 2f 3c 02 7a 30 3d
       -0.026041854 0.04237739 0.010686159 0.043085106
000210 59 4b 53 bd 3d f9 5d bd 27 72 3a bd a2 36 17 bb
       -0.05158553 -0.05419277 -0.04551902 -0.0023073335
000220 14 7d 6a be 3a 08 79 3e fe e9 5d be fa 5d 53 3e
       -0.22899276 0.24319544 -0.21671292 0.20641318
000230 6e 31 c7 3c 53 b6 22 3d 79 06 1f 3c 4b 70 ec bc
       0.024315562 0.03972466 0.009706133 -0.02886214
000240 d5 2d 05 3c 29 db c1 3c 5f 34 9b bc d1 35 4c 3d
       0.008128603 0.023664074 -0.01894587 0.04985601
000250 62 60 0c 3c 13 71 64 3c ea 28 26 3d 5c ba 27 bd
       0.008567901 0.013942975 0.040566362 -0.04094921
000260 2d 7c 75 3c 6e 7e 1d 3d 4a 1e 97 bc 86 02 5a bc
       0.014983219 0.03845065 -0.01844706 -0.013306266
000270 be 48 39 3c 8f 3d 18 bd d0 79 70 3c c1 c6 c5 bc
       0.011308847 -0.03716808 0.01467748 -0.024142625
000280 78 de 69 3c 10 14 59 bd 51 33 29 3d 0e 21 10 3d
       0.014274232 -0.05299765 0.041308705 0.035187773
000290 45 88 58 be 67 38 71 3e db 1a 84 be 33 68 75 3e
       -0.21145733 0.23556672 -0.2580174 0.2396553
0002a0 eb d5 e7 3c 2b ca 8c bc 71 cc b6 3c f4 75 27 3d
       0.028300246 -0.017186245 0.022314282 0.040883973
0002b0 01 c2 9c bc 90 38 53 3d 5b bd 1f bd 24 e4 d3 3c
       -0.019135477 0.051567614 -0.038998943 0.025865622
0002c0 dd f3 8c bc ac dc 1b bd 77 e1 33 3c 4f 4c 31 3a
       -0.017206127 -0.038052246 0.010979048 0.0006763385
0002d0 00 92 1d 3d 45 ec 15 3d 15 6a 4b 3c 3f 2a 1d bd
       0.038469315 0.036602277 0.012415429 -0.038370367
0002e0 2e 47 27 3b aa cb 2a bd 04 92 54 3c ce 53 f1 3c
       0.0025524604 -0.041698135 0.012974266 0.029458907
0002f0 22 29 29 bc 07 a9 f4 bc 8b 00 52 bc 2f 75 11 bd
       -0.010324748 -0.029865755 -0.012817512 -0.035512146
000300 2a 21 73 be ab 84 7b 3e 8d 17 96 be 69 e8 99 3e
       -0.2374312 0.24562328 -0.29314843 0.30060127
000310 43 aa 05 3d 24 0a ef bc d6 92 9d bc 4f fb 24 3c
       0.032633077 -0.02917964 -0.019235056 0.010069682
000320 1c 3a 36 bd ca 90 2c bd ca 55 d7 bc f0 19 01 bd
       -0.04448901 -0.04213027 -0.026286025 -0.031518877
000330 91 69 07 3d d3 62 53 bc f1 84 1f bc 22 1b f8 3c
       0.03305966 -0.0129019795 -0.009736286 0.030286375
000340 e5 76 2f bd 54 50 2c bd ce dd 48 bd c0 5f 93 3b
       -0.042837996 -0.042068794 -0.049039654 0.0044974983
000350 2d ca ed bc 5d 18 d0 bb 43 24 07 bd 4d 8a 47 bd
       -0.029027069 -0.0063505606 -0.032993566 -0.04871588
000360 92 7f 0d bd b2 eb 1e 3d 1d 56 24 bd b6 25 0e bd
       -0.03454549 0.038798995 -0.040121187 -0.034703933
000370 3c 64 95 be f2 57 8d 3e ca 72 86 be 29 53 92 3e
       -0.29178035 0.2760616 -0.26259452 0.2857907
000380 cf 9f 4f 3d f7 c7 4c bc c2 bf 26 bd b4 d6 c8 bc
       0.050689515 -0.012498847 -0.04071022 -0.02451644
000390 f6 89 2b 3d 3b ad ba bb 53 77 3f 3d 50 0c 64 3b
       0.041879617 -0.00569692 0.046744656 0.0034797378
0003a0 13 67 41 3c ef 71 41 bd 64 70 44 bc 68 0b 8a bc
       0.01180436 -0.047227796 -0.011989687 -0.016851142
0003b0 2d 9b 27 37 cb 41 8d bc be 5f 24 3d 41 c4 36 3b
       9.990105e-06 -0.017243287 0.04013037 0.0027887973
0003c0 ff 9e f7 bc c2 b6 97 bc b1 9e ae bc c8 69 19 3c
       -0.030227182 -0.018519763 -0.021315904 0.009363599
0003d0 57 6c da 3b 73 53 01 bc 0e d3 5d bc 3a dc 46 bd
       0.006665747 -0.007893431 -0.013539089 -0.04854987
0003e0 63 fc 5a be b3 81 84 3e 6b e9 58 be 94 76 33 3e
       -0.2138534 0.25880203 -0.21182792 0.17525703
0003f0 c8 9f 4d 3c ef 0f 35 bd f2 8b f8 3c 5d 92 f3 bb
       0.012550302 -0.04420465 0.030340169 -0.0074332193

fc1.bias f4 [80]
000000 7e 62 81 bd 0b b9 be bc e6 de 64 ba dc 1c 63 bc
       -0.06317614 -0.023281595 -0.0008730724 -0.013861861
000010 18 a7 fa ba 43 a0 4e bc a1 75 7b bd 1e 8c 91 3b
       -0.0019123284 -0.012611452 -0.061391477 0.004441752
000020 0c 25 c9 bc 1e 60 06 bd 39 a6 17 bd f7 2e 92 3d
       -0.024553798 -0.03280651 -0.037023757 0.07137864
000030 af a9 58 bd 3f cd c6 3c 74 7a 77 3b da 23 2b bc
       -0.052896198 0.02426779 0.0037762197 -0.010445559
000040 07 6f b6 bc b4 08 5c 3d 6d 34 3d bb 65 e7 fa 3c
       -0.022269739 0.053719237 -0.002887036 0.030627916
000050 75 70 81 3c 97 2b 7b bc 94 05 84 bd 6c 1e 0a bd
       0.015800694 -0.015330217 -0.064463764 -0.03372042
000060 bb 3f 83 bd 8b 52 21 3d 0c a7 7f bd 71 ec 3b 3d
       -0.0640864 0.03938536 -0.062415168 0.045879785
000070 1e ba 00 3c a1 17 75 3d 59 39 8c bd 31 e5 12 3c
       0.007856874 0.059836987 -0.06846876 0.008965776
000080 34 73 91 3d b5 a7 97 bc 6f a0 6e 3d 56 32 9a bc
       0.071020514 -0.018512586 0.05825847 -0.01882283
000090 46 44 0c bd 50 3a ba 3c 13 54 c5 3c ac 21 81 bd
       -0.034244798 0.022732884 0.024087941 -0.063052505
0000a0 cb 13 41 3d b7 c1 53 bc 0a bd 55 3d ef 40 45 3c
       0.047138017 -0.012924603 0.052182235 0.012039407
0000b0 4a 71 f3 3b 22 73 9b bd ae 01 8d 3c bb 2c e8 3c
       0.0074292766 -0.07590319 0.017212715 0.028341642
0000c0 88 48 ad bd e0 98 65 bc 2c e2 e4 bc c5 76 b3 3d
       -0.084611 -0.014013499 -0.027939878 0.08762888
0000d0 7b f1 f1 3a b1 e3 38 3c c1 cd 1a 3c 84 a9 65 bd
       0.0018458808 0.011284755 0.00944847 -0.056069866
0000e0 a3 5a 71 ba 9a 1b 2f 3d 47 11 6f bc 50 95 70 3c
       -0.00092069263 0.042750932 -0.014591522 0.014684036
0000f0 3f 9d 8e bc 94 9f 84 3c 7c d3 3e ba ef ea 11 3d
       -0.017408965 0.016189374 -0.00072794384 0.03562444
000100 25 03 8b bc 1d 50 cd bc c6 95 16 bd 24 c9 5d 3d
       -0.016969273 -0.025062615 -0.03676393 0.0541469
000110 76 d9 57 3d a7 5c 87 3d 74 35 0a bc 6c 3f 0a 3d
       0.05269762 0.06609469 -0.008435596 0.03375189
000120 88 25 b6 3d b5 ae 66 3c 29 e1 58 3b b2 27 00 bd
       0.08893877 0.014079739 0.003309319 -0.031287856
000130 82 56 66 3c 3d 4c cc bb a1 66 1d bd 05 ab f2 3b
       0.014058711 -0.0062346742 -0.038427953 0.007405641

fc2.weight f4 [4, 80]
000000 98 72 8c 3e d0 f2 28 3e 66 eb 73 3e 41 66 cd 3d
       0.27431178 0.16498876 0.23820266 0.10029269
000010 d6 f4 61 3e 69 d8 2e 3e 06 64 70 3e e7 b6 96 3e
       0.22066054 0.17074741 0.23475656 0.29436418
000020 17 02 3e 3e 6d 33 62 3e d3 2f 7c 3e 0d 01 0f bf
       0.18555485 0.2208993 0.24627618 -0.5586098
000030 5f f2 8f 3e a1 7b 7b be f7 38 43 be 91 15 0d 3e
       0.28114602 -0.2455888 -0.19064699 0.13777758
000040 4a 9b ff 3d ee 1c 69 be 2a 36 b3 be 8e 34 fd 3c
       0.12480791 -0.22764942 -0.3500226 0.03090885
000050 5b ea aa bd ca ec 7e 3e 94 67 69 3e c4 c6 4d 3e
       -0.08345481 0.24895015 0.22793418 0.20095354
000060 4e 74 98 3e d3 68 d8 be 3e 13 50 3e f7 4f 83 be
       0.29776233 -0.42267475 0.2031984 -0.25646946
000070 8e 55 57 3e 64 c4 14 bf aa db af 3e e1 1d 86 3e
       0.2102873 -0.5811217 0.34347278 0.2619467
000080 56 48 c0 be 7a 93 74 3e 5d 8c 39 be 0c 83 36 3e
       -0.37555188 0.23884383 -0.1811995 0.17823428
000090 83 4f 24 3d e8 1d ff be cb 1b a3 bc e9 7b 5f 3d
       0.04011489 -0.49827504 -0.019910714 0.05456153
0000a0 a8 24 db be dc 3f a2 bd 5a 81 0b be 7c 03 99 3e
       -0.42801404 -0.079223365 -0.13623562 0.2988547
0000b0 3b 8d 94 be c1 d6 85 3e 93 e8 e1 be d9 f0 db bd
       -0.29014 0.26140407 -0.44122753 -0.107392974
0000c0 0c 09 d4 3e 7d 7e 55 3e 67 2d b5 3e ea a5 1d bf
       0.41413152 0.20849033 0.35386202 -0.6158129
0000d0 8e 61 b5 be 5f 30 42 3d 4c 67 ce 3d 4f 81 40 3d
       -0.3542599 0.04740941 0.10078296 0.04699832
0000e0 64 99 79 3e cb 27 f9 bc 75 6a b5 be 3f 8e e8 3d
       0.2437492 -0.030414483 -0.35432783 0.11355256
0000f0 7a 05 b4 3e b9 74 09 3e 8c f2 27 3e 4b be 89 be
       0.35160428 0.13423432 0.16401118 -0.26902995
000100 f4 f9 48 bd f2 bc 11 3e 68 10 9e 3d 74 27 5d be
       -0.0490665 0.14232233 0.07717973 -0.21597081
000110 44 ac 94 bd d4 33 a5 be 52 26 24 be da 95 3c 3b
       -0.072594196 -0.32266104 -0.16030243 0.0028775842
000120 bc 6a 0c bf 6d be 86 be 51 0e 8f 3e 34 9d 9e 3e
       -0.54850364 -0.26317158 0.2794061 0.3097931
000130 49 84 6d 3e cf 2c c8 be e1 8e 72 3e 7a e6 97 3e
       0.23194994 -0.39096686 0.23687316 0.29668027
000140 cb 85 ff 3d 16 a8 7c 3e 8e e4 0a 3e 05 fb e5 3d
       0.12476691 0.24673495 0.13563749 0.11229519
000150 fd 13 23 3e 26 bd 34 3e 0e 54 5a 3e 53 8b 48 3e
       0.15925594 0.1765028 0.21321127 0.19584398
000160 79 00 30 3e 8b eb 57 3e 1e 2c 20 3e d2 dc c5 be
       0.1718768 0.21085946 0.1564183 -0.38645035
000170 6a a1 6a 3e 8c 32 37 be 04 aa 57 be 40 18 49 3e
       0.22913137 -0.17890376 -0.2106095 0.19638157
000180 4e d5 15 3e e3 4e 31 be 38 f4 a9 be db 66 f0 3d
       0.1463215 -0.17315249 -0.33194137 0.11738368
000190 f3 24 03 be a8 04 3c 3e 0c bc 2c 3e 8a 81 68 3e
       -0.12807064 0.18361151 0.16868609 0.22705665
0001a0 ec e7 31 3e df b9 c4 be 6d f9 59 3e a1 fe 8c be
       0.17373627 -0.38423058 0.21286555 -0.27538016
0001b0 24 1c fa 3d b4 37 cd be 36 b1 56 3e f4 23 50 3e
       0.12212399 -0.4008156 0.20966038 0.20326215
0001c0 32 4b 9b be 45 e6 10 3e 92 65 0f be a3 86 58 3e
       -0.30330807 0.14150341 -0.1400359 0.2114511
0001d0 3f 0a 1b 3d e9 61 c9 be 6a ee 95 3c 49 3c ce 3d
       0.03785157 -0.39332512 0.018302161 0.10070092
0001e0 91 7e b8 be 3b 32 c0 bd 56 8f 62 bd ab 36 58 3e
       -0.36034063 -0.09384581 -0.055312477 0.21114604
0001f0 f8 09 8a be 33 6e 76 3e 1a 5a a4 be 51 b7 3b bd
       -0.2696073 0.24065475 -0.32099992 -0.04582912
000200 92 c6 94 3e f0 aa f2 3d 00 3b 71 3e c8 cd ef be
       0.29057747 0.1184901 0.23557663 -0.46836686
000210 9b 2f 91 be ed 2b f1 3d 57 9b df 3d e0 31 a1 3d
       -0.28356633 0.11775956 0.109183006 0.07870841
000220 70 7d 2f 3e 4d 86 9d bd a2 c0 99 be 63 3e f5 3d
       0.17137694 -0.076916315 -0.3002978 0.1197479
000230 65 16 98 3e 17 d3 d2 3d 2d c1 33 3e ea 5b 1b be
       0.29704586 0.102941684 0.1755416 -0.15171781
000240 9f 41 b6 bd 8b a4 ab 3d 70 87 a7 3d bb 38 3d be
       -0.08899235 0.083809935 0.081801295 -0.18478672
000250 ed 10 cb bc 5a 8d b2 be 81 33 23 be 69 77 9a 3d
       -0.024788344 -0.34873468 -0.15937616 0.07542307
000260 ac d5 bc be 64 34 8b be 7f cb 90 3e 3d 20 31 3e
       -0.3688177 -0.27188408 0.28280255 0.17297454
000270 10 1c 2a 3e 07 88 aa be a0 56 1e 3e 07 15 40 3e
       0.16612267 -0.33306906 0.15462732 0.18758021
000280 12 69 7d 3e 10 7d 71 3e 25 d4 55 3e 6d fc af 3d
       0.24747112 0.23582864 0.20881708 0.08593068
000290 5e f6 53 3e 9e 5b 6e 3e b7 de 97 3e 91 4e 94 3e
       0.2069945 0.23277137 0.29662105 0.2896619
0002a0 45 b3 50 3e 41 74 4d 3e ee 18 51 3e b0 bf 01 bf
       0.20380886 0.20063879 0.20419666 -0.50683117
0002b0 73 88 9d 3e aa 48 86 be 44 16 44 be 98 10 07 3e
       0.30768165 -0.26227313 -0.19149119 0.13189924
0002c0 b2 d2 53 3e 84 28 3f be 37 b9 c2 be 5a d2 54 3c
       0.20685843 -0.18667799 -0.38031933 0.012989605
0002d0 85 81 b7 bd 7d 69 82 3e 43 71 4e 3e 05 1d 80 3e
       -0.08960251 0.25471106 0.20160393 0.2502214
0002e0 42 70 8f 3e db bf ee be 85 5c 65 3e 02 a2 b1 be
       0.28015333 -0.4663075 0.22398575 -0.34693915
0002f0 23 75 7b 3e 99 25 13 bf 00 37 a9 3e 10 de 82 3e
       0.24556403 -0.57479244 0.33049774 0.25560045
000300 94 2c d0 be e9 26 40 3e 9c a2 06 be 23 6a 68 3e
       -0.4065901 0.18764843 -0.13147968 0.22696738
000310 4f 84 a4 3c d3 36 d0 be e0 01 14 bb 0a 18 78 3d
       0.02008262 -0.40666828 -0.0022584125 0.0605698
000320 84 12 dc be 21 67 f2 bd ba 76 75 bd 9a e4 76 3e
       -0.42982876 -0.118360765 -0.05992768 0.24110642
000330 a9 86 b7 be da 07 39 3e 87 8e bc be 8f a8 c5 bd
       -0.35844925 0.18069401 -0.3682749 -0.096512906
000340 23 2e bf 3e 97 bb 1e 3e 80 41 aa 3e 9c e5 1a bf
       0.37339887 0.15501247 0.33253098 -0.60506606
000350 c3 a1 aa be b0 2c de 3d 05 fd 09 3e c9 9f 80 3c
       -0.3332654 0.10848367 0.13475426 0.015701191
000360 55 1f 48 3e 2f d9 31 bd bb 44 b5 be 9e 90 22 3e
       0.19543202 -0.043420013 -0.35404 0.1587548
000370 87 a1 a7 3e 31 38 50 3e 51 12 df 3d 44 42 8f be
       0.32740423 0.20333935 0.108921655 -0.27980244
000380 46 52 ce bd 12 19 3d 3e f0 d7 d3 3d d3 96 3c be
       -0.10074286 0.18466595 0.10343921 -0.1841691
000390 7d f0 7f bd 9e ae b0 be d2 7d 28 be e2 46 f3 3c
       -0.062485207 -0.34508222 -0.16454247 0.029696885
0003a0 03 e1 f2 be 7d f8 73 be e5 d9 a9 3e 32 e7 a0 3e
       -0.47437295 -0.2382526 0.33174053 0.31426388
0003b0 e3 73 45 3e 10 13 b8 be a9 4d 2e 3e 74 9b 50 3e
       0.19282489 -0.35952044 0.17021812 0.203718
0003c0 ec 22 18 3e fc b2 72 3e f7 41 0d 3e b9 c9 e8 3c
       0.14857072 0.2370109 0.13794695 0.028416501
0003d0 0d e9 f4 3d 37 69 4f 3e e7 11 4f 3e 35 76 4d 3e
       0.119585134 0.2025498 0.20221673 0.20064624
0003e0 47 ae e0 3d 14 05 78 3e 41 a4 20 3e 65 e4 e3 be
       0.10970741 0.24220687 0.15687658 -0.4451019
0003f0 86 68 4f 3e 89 82 6d be 1a 31 3d be ae e2 47 3e
       0.20254716 -0.23194326 -0.18475762 0.19520065

fc2.bias f4 [4]
000000 30 3f 84 be 46 70 08 be 0d 02 9f be 19 c6 0e be
       -0.25829458 -0.13324079 -0.31056252 -0.13942756
