TD0v2e_35000.pt (torch, 17210 bytes, 6 tensors)

fc1.weight f4 [60, 28]
-0.029126313 -0.050027546 0.009057076 -0.021462876 0.03178592 -0.04162402 -0.005618498 0.040446848
0.031797796 -0.020907909 -0.022975177 -0.047618028 -0.019452762 -0.010068637 -0.032878596 -0.04549688
0.04023203 -0.021199822 -0.023954922 -0.01743 -0.049673203 -0.049819782 -0.016910663 0.03870868
0.039192993 0.002998529 0.0056921677 0.06696719 -0.044946313 0.041814014 -0.0071628583 -0.006852575
0.03256617 0.041295193 -0.022433287 0.030582886 -0.00790719 -0.047334317 0.039364256 0.006761093
0.011130414 -0.011144661 0.007837458 0.01605167 -0.0480335 -0.028034689 -0.008631473 0.011504124
-0.028895857 -0.041988336 0.045664627 -0.027193192 -0.0009549497 0.07106978 -0.010676409 0.021407142
-0.047544394 -0.016318046 -0.001548991 0.0036465097 0.033016536 0.02927012 -0.0072458736 -0.023101471
0.021547677 0.031547192 0.020401945 -0.017794255 -0.04663734 0.017165184 0.01024251 -0.024069212
0.044094477 0.0020619815 -0.048857883 -0.00039010678 -0.01315027 -0.027892204 -0.00081694825 0.04966426
-0.005678277 0.0656585 -0.024204725 -0.025327949 -0.02100624 -0.0054295007 -0.029661471 0.04815658
-0.041520763 -0.048789572 -0.026279252 0.02884125 -0.034104545 -0.045534663 0.010182842 -0.010175988
-0.008358212 -0.010972711 -0.034417648 0.026924629 0.039873376 -0.0060987715 -7.8670724e-05 -0.03014528
0.034326814 -0.0114924535 0.011015455 0.039580278 0.008687019 0.06376857 0.030298261 0.03463673
-0.049548388 0.0369526 0.003539707 0.047572847 -0.0019122199 -0.011386429 -0.044596918 0.021733437
-0.041726355 -0.044629928 -0.009065873 0.009163611 0.030042699 -0.040535573 0.02530786 0.027576098
0.04519963 -0.000668189 -0.009926176 -0.036059648 0.0056305565 -0.0050238934 0.050085776 -0.020761326
0.067134514 0.036399256 0.037544563 0.038995128 -0.03273285 -0.025092212 -0.024475867 -0.0011561344
-0.034904502 -0.028456075 0.020907875 -0.020816116 0.04653584 -0.03258426 0.031675704 0.0040266747
0.044956695 -0.0184858 0.04190655 0.01582215 -0.034770362 0.049326424 -0.04526296 -0.0032589328
0.046283834 0.036011387 0.002505463 0.03557568 0.001592831 0.007068408 0.012650488 -0.022325689
-0.046197582 0.042618584 -0.006646673 0.032790303 -0.022528417 0.04671114 -0.022429297 0.0034359412
0.02277201 0.015542376 0.01989786 -0.040937275 0.04014115 -0.018345622 0.036192924 -0.03583637
0.04398404 -0.033190098 -0.0080485605 0.027815616 -0.0054208543 0.0072916215 -0.01373209 0.0045384984
0.031935927 0.005988963 0.03287092 -0.0047603073 0.02581249 0.026279496 -0.00017813382 0.0022831953
-0.041011337 -0.014516992 -0.01159329 -0.032527875 -0.008262728 0.045966096 0.037202623 0.035950966
0.0066181314 -0.044505626 -0.015175946 0.031741682 -0.030932935 -0.018844226 -0.008689393 0.015936023
0.005832064 0.010621347 0.014471233 0.012308552 0.03285758 0.015058728 0.029243408 0.07344485
0.044945724 0.016455477 0.0020569866 0.04323389 0.0032427923 0.007989603 -0.012324612 0.02251973
-0.041621953 0.010382969 0.013265639 0.028725147 0.035108022 0.023876594 -0.032385256 0.037462067
0.024670167 -0.04232951 0.019508665 0.012641615 -0.047433723 -0.027385827 0.007628127 0.021585861
0.018891208 0.03208088 0.048586752 0.062297378 0.046665117 -0.023936652 -0.04962405 0.013892025
00000000: 4e9a eebc afe9 4cbd 2164 143c ead2 afbc
00000010: f431 023d f37d 2abd 611b b8bb 98ab 253d
00000020: 683e 023d 1047 abbc 7036 bcbc 1f0b 43bd
00000030: 665b 9fbc edf6 24bc b5ab 06bd f05a 3abd
00000040: 57ca 243d 40ab adbc 1d3d c4bc 5cc9 8ebc
00000050: 2176 4bbd d40f 4cbd 3b88 8abc fe8c 1e3d
00000060: d588 203d f882 443b 5d85 ba3b 1826 893d
00000070: a019 38bd 2c45 2b3d 69b6 eabb 918b e0bb
00000080: 1b64 053d 2625 293d 03c6 b7bc f688 fa3c
00000090: 298d 01bc a1e1 41bd 6a3c 213d 298c dd3b
000000a0: 575c 363c 1998 36bc ae68 003c cb7e 833c
000000b0: c6be 44bd 01a9 e5bc 066b 0dbc cb7b 3c3c
000000c0: 01b7 ecbc f6fb 2bbd d50a 3b3d 42c4 debc
000000d0: 9755 7aba 088d 913d 1bec 2ebc 085e af3c
000000e0: e9bd 42bd 6cad 85bc 8307 cbba 48fa 6e3b
000000f0: 593c 073d e4c7 ef3c cb6e edbb 4c3f bdbc
00000100: c184 b03c a137 013d fb21 a73c 42c5 91bc
00000110: cc06 3fbd 009e 8c3c 33d0 273c cc2c c5bc
00000120: 699c 343d 4f22 073b 341f 48bd 3f87 ccb9
00000130: 3b74 57bc 317e e4bc 7828 56ba c06c 4b3d
00000140: d710 babb f777 863d fd48 c6bc 8f7c cfbc
00000150: 4715 acbc f4e9 b1bb 9dfc f2bc d63f 453d
00000160: ad11 2abd 93d7 47bd 9647 d7bc 7c44 ec3c
00000170: 35b1 0bbd 8e82 3abd efd5 263c 30b9 26bc
00000180: e2f0 08bc e3c6 33bc 85f9 0cbd 0a91 dc3c
00000190: 4452 233d 34d8 c7bb 06fc a4b8 3cf3 f6bc
000001a0: 469a 0c3d d84a 3cbc 2b7a 343c ee1e 223d
000001b0: 0054 0e3c 1999 823d 0f34 f83c 3edf 0d3d
000001c0: 40f3 4abd 9c5b 173d 6efa 673b bfdb 423d
000001d0: 74a3 faba 258e 3abc 42ab 36bd 520a b23c
000001e0: 41e9 2abd dfcd 36bd 0789 14bc f822 163c
000001f0: 1b1c f63c a108 26bd 6e52 cf3c 45e7 e13c
00000200: 3f23 393d 6829 2fba 66a1 22bc 48b3 13bd
00000210: 8880 b83b 799f a4bb be26 4d3d a813 aabc
00000220: d27d 893d 6317 153d 54c8 193d 5bb9 1f3d
00000230: e212 06bd 2f8e cdbc 9d81 c8bc 6f89 97ba
00000240: 06f8 0ebd b71c e9bc fe46 ab3c 8f86 aabc
00000250: 5d9c 3e3d 1377 05bd 62be 013d 32f2 833b
00000260: 8324 383d 886f 97bc 34a6 2b3d 749d 813c
00000270: 5e6b 0ebd 810a 4a3d a765 39bd d293 55bb
00000280: 1e94 3d3d ad80 133d b232 243b ceb7 113d
00000290: 8ac6 d03a 1b9e e73b fe43 4f3c 5de4 b6bc
000002a0: ad39 3dbd d390 2e3d 56cc d9bb 204f 063d
000002b0: 848d b8bc 2e54 3f3d a5bd b7bc 872d 613b
000002c0: 5e8c ba3c 73a5 7e3c d600 a33c d8ad 27bd
000002d0: 0c6b 243d 8f49 96bc 083f 143d 28c9 12bd
000002e0: 9c28 343d 57f2 07bd 1cde 03bc 93dd e33c
000002f0: 6ca1 b1bb 8eee ee3b 8ffc 60bc afb7 943b
00000300: 3fcf 023d 103f c43b a8a3 063d 5afc 9bbb
00000310: b774 d33c 1948 d73c 6fc9 3ab9 a9a1 153b
00000320: 81fb 27bd add8 6dbc c8f1 3dbc f33b 05bd
00000330: 6560 07bc f246 3c3d c761 183d 5241 133d
00000340: e9dc d83b 884b 36bd 88a4 78bc 9103 023d
00000350: 1167 fdbc 355f 9abc f55d 0ebc 438c 823c
00000360: e61a bf3b 2905 2e3c c018 6d3c cfa9 493c
00000370: ab95 063d e2b8 763c df8f ef3c 416a 963d
00000380: 0219 383d a3cd 863c 82ce 063b 0516 313d
00000390: 0785 543b d3e6 023c 2bed 49bc 4c7b b83c
000003a0: c87b 2abd 541d 2a3c 1f58 593c 0051 eb3c
000003b0: 6ecd 0f3d d998 c33c 67a6 04bd d371 193d
000003c0: 1719 ca3c b561 2dbd a3d0 9f3c c71e 4f3c
000003d0: dd49 42bd 3e58 e0bc 5ef5 f93b d5d4 b03c
000003e0: bcc1 9a3c 3e67 033d e702 473d 892b 7f3d
000003f0: ec23 3f3d cc16 c4bc 9642 4bbd 609b 633c

fc1.bias f4 [60]
0.030051075 0.03261386 -0.016796801 -0.04368163 -0.020833164 0.047592293 -0.0035699753 -0.03284167
0.0084120985 -0.009005374 0.02797932 0.03443732 -0.01669795 -0.0065267915 0.026202902 0.010551067
0.029042006 0.009274257 0.039671194 0.04874416 -0.02303712 -0.012202148 -0.012021397 0.02840003
-0.008078831 0.046837874 0.023943955 -0.019701539 0.04232068 -0.015006693 0.006709181 0.037796814
0.009552632 0.047000904 0.0479904 -0.027608303 -0.040781252 -4.7387334e-06 0.0011396364 0.013113653
-0.003470551 -0.032821883 -0.00026175872 -0.04473675 0.0014799576 0.038941875 -0.022706827 -0.012095102
0.03133361 -0.020950017 -0.015948772 -0.0228807 0.015975086 0.020395594 -0.011330703 0.045140974
0.012418432 0.025516614 -0.025895894 -0.03546476
00000000: ac2d f63c 1c96 053d 7299 89bc 82eb 32bd
00000010: 50aa aabc 23f0 423d 3ff6 69bb fd84 06bd
00000020: e6d2 093c 478b 13bc e334 e53c 260e 0d3d
00000030: 24ca 88bc b2de d5bb 78a7 d63c 62de 2c3c
00000040: 80e9 ed3c 0ef3 173c 437e 223d f5a7 473d
00000050: 58b8 bcbc 85eb 47bc 65f5 44bc 2ea7 e83c
00000060: 135d 04bc 12d9 3f3d 1d26 c43c 1f65 a1bc
00000070: 7358 2d3d a2de 75bc b0d8 db3b d5d0 1a3d
00000080: a582 1c3c 0584 403d 9591 443d cf2a e2bc
00000090: 3e0a 27bd 6901 9fb6 da5f 953a a6da 563c
000000a0: 2f72 63bb 3d70 06bd a93c 89b9 e23d 37bd
000000b0: 23fb c13a 8481 1f3d ab03 babc 892a 46bc
000000c0: ac57 003d 5f9f abbc 00a7 82bc 4e70 bbbc
000000d0: 2fde 823c a914 a73c 6aa4 39bc bee5 383d
000000e0: ae76 4b3c 3808 d13c a023 d4bc 7f43 11bd

fc15.weight f4 [30, 60]
0.024086075 -0.017169258 0.05471078 0.023486812 0.06890537 0.061462082 -0.017922197 0.06688254
0.056648005 0.05528361 -0.0035402535 -0.021685863 0.062497463 -0.011683206 -0.016750455 0.06934974
0.03631791 -0.009071221 0.03523539 0.04422605 0.023489304 0.035216358 0.02152062 0.021084378
-0.024467858 0.050814375 0.05624545 -0.018060429 0.053895295 0.042091876 -0.0055983695 0.0728477
0.05485797 -0.022471849 -0.030441705 0.0034436316 0.009808817 0.013445245 0.06375808 0.06279018
0.060319852 0.04578188 0.07768952 -0.0041061635 0.0201813 0.013035238 -0.037447028 0.0076124948
0.017307617 0.02567022 -0.026950248 0.066327155 -0.03573429 -0.006728471 -0.0035162745 0.045746535
0.012952125 0.06318697 0.0039910516 0.06453597 0.03819419 0.05346419 0.026622586 0.05184365
0.06647312 -0.014604728 -0.017532464 -0.02419231 0.0678358 0.041236527 0.04962014 -0.007133349
0.0075690425 0.002102561 -0.019010568 0.033315618 0.055435084 0.03316996 -0.012629655 0.04659101
-0.020997882 0.056488004 0.061039247 -0.020296615 0.06831948 0.038164303 0.06266446 -0.031686984
0.044390567 0.012205656 -0.031367153 -0.02275625 -0.029180657 0.009098093 0.028977288 0.046560757
0.03851811 0.037064552 0.01009232 -0.008580575 0.046824787 0.060544807 0.07053453 0.023392553
-0.015892103 0.017430566 0.041279208 -0.02022388 -0.022591827 0.024883771 0.00919947 0.007763504
-0.0067794546 0.034062456 0.00759057 0.02578549 -0.011567942 0.02504151 -0.007335313 0.022060728
0.048172314 0.024794493 -0.034497764 0.004938621 0.026833495 -0.010691042 0.0332306 0.041330244
0.048655104 -0.0279979 -0.011429316 -0.0044471775 0.023872083 0.065825745 -0.011908216 -0.019683165
-0.025280623 0.024760082 0.036762755 -0.040148005 -0.023305131 0.056936584 -0.000761966 0.026422344
0.006179072 0.05592136 -0.026053153 0.038080156 0.003623928 -0.00593972 -0.0030856004 0.05723222
-0.015547055 0.05698874 0.008290992 0.011796449 0.03377676 -0.011232877 -0.004679725 0.036818556
0.025575532 0.026922477 0.037281815 0.035812385 -0.015178921 0.011575127 -0.042534303 0.019786023
-0.008431841 -0.022081912 0.007914813 -0.0013435129 0.033930242 -0.002240809 0.020602552 0.048473254
0.0187404 -0.020014267 -0.02603303 0.045199342 -0.0028907156 0.031027948 -0.009589914 -0.008335829
-0.024146935 -0.03553339 -0.0039634155 0.050554696 0.054162037 0.039387766 0.031380408 -0.02129623
-0.014851914 0.013550137 0.054278273 0.03826396 -0.009017327 0.016487412 0.021363737 0.030766841
-0.023381917 0.043457482 0.03661006 0.066359796 0.029643346 -0.02029806 0.05499967 -0.021703
0.038365234 0.061417643 0.013218277 0.0026646298 0.05666015 0.046672326 -0.034392834 0.048516702
-0.0010828627 -0.020012029 -0.004668848 0.02129506 -0.012668034 0.0018128523 -0.0004223111 2.4839264e-05
-0.018686995 -0.019424958 -0.044017684 0.032399654 0.034850128 0.021906437 0.03956672 -0.016620819
0.053360716 0.044019308 0.055877224 0.0068130037 0.05918424 0.0062693483 0.01989055 -0.024229301
0.0076854457 0.063163534 0.035270445 0.06439433 0.06270445 0.039368436 0.021210566 0.048924495
0.02373482 0.036613304 -0.022006407 0.01501205 0.05214002 0.0692326 -0.02376161 0.080926254
00000000: 2950 c53c 8ba6 8cbc 6918 603d 6a67 c03c
00000010: 421e 8d3d aabf 7b3d 92d1 92bc b7f9 883d
00000020: bd07 683d 1171 623d 9903 68bb 8da6 b1bc
00000030: 57fd 7f3d eb6a 3fbc 4038 89bc 3d07 8e3d
00000040: 17c2 143d 759f 14bc fc52 103d 6026 353d
00000050: a46c c03c 073f 103d 034c b03c 25b9 ac3c
00000060: d170 c8bc bc22 503d a161 663d 77f3 93bc
00000070: 50c1 5c3d 8868 2c3d 8772 b7bb 2d31 953d
00000080: c0b2 603d e216 b8bc e260 f9bc 8dae 613b
00000090: 29b5 203c 7249 5c3c 9993 823d 2398 803d
000000a0: f311 773d c885 3b3d af1b 9f3d ff8c 86bb
000000b0: 4153 a53c c091 553c 0e62 19bd 3c72 f93b
000000c0: b4c8 8d3c 5a4a d23c c4c6 dcbc 88d6 873d
000000d0: 1e5e 12bd 817a dcbb 4c71 66bb b860 3b3d
000000e0: 2635 543c 2c68 813d 5ec7 823b 6f2b 843d
000000f0: 8371 1c3d 44fd 5a3d 9c17 da3c 025a 543d
00000100: 0f23 883d ab48 6fbc 3ea0 8fbc f42e c6bc
00000110: 7fed 8a3d a2e7 283d 7d3e 4b3d debe e9bb
00000120: bb05 f83b 1fcb 093b 0dbc 9bbc f575 083d
00000130: e60f 633d 39dd 073d 9dec 4ebc 37d6 3e3d
00000140: c003 acbc f75f 673d 4a04 7a3d 1645 a6bc
00000150: 15eb 8b3d 2c52 1c3d 3956 803d 36ca 01bd
00000160: e2d2 353d 3bfa 473c d87a 00bd 516b babc
00000170: 460c efbc 2b10 153c c761 ed3c 7eb6 3e3d
00000180: 2ac5 1d3d 00d1 173d 425a 253c 8a95 0cbc
00000190: 59cb 3f3d d5fd 773d 6874 903d bda1 bf3c
000001a0: 2830 82bc 8cca 8e3c 6314 293d 8dac a5bc
000001b0: 7f12 b9bc 0dd9 cb3c 60b9 163c fe64 fe3b
000001c0: 3026 debb 1385 0b3d 51ba f83b 183c d33c
000001d0: 7787 3dbc da23 cd3c 115d f0bb b3b8 b43c
000001e0: 5550 453d d21d cb3c 874d 0dbd 28d4 a13b
000001f0: ebd1 db3c 7b29 2fbc cf1c 083d e749 293d
00000200: 934a 473d da5b e5bc 0742 3bbc a1b9 91bb
00000210: 638f c33c a6cf 863d ae1a 43bc 973e a1bc
00000220: 4f19 cfbc a8d5 ca3c 8b94 163d 3c72 24bd
00000230: 67ea bebc 5636 693d acbe 47ba ac73 d83c
00000240: d079 ca3b cc0d 653d 6c6d d5bc f0f9 1b3d
00000250: 6c7f 6d3b fca1 c2bb c937 4abb 556c 6a3d
00000260: 13b9 7ebc 066d 693d f1d6 073c e545 413c
00000270: 8059 0a3d 1a0a 38bc 6158 99bb 0ecf 163d
00000280: c783 d13c 878c dc3c d1b4 183d 02b0 123d
00000290: 02b1 78bc 9aa5 3d3c 7338 2ebd 4c16 a23c
000002a0: b425 0abc 20e5 b4bc 22ad 013c d018 b0ba
000002b0: 70fa 0a3d 89da 12bb afc6 a83c e48b 463d
000002c0: 7885 993c f6f4 a3bc 3943 d5bc f222 393d
000002d0: 2972 3dbb 532e fe3c 041f 1dbc 0093 08bc
000002e0: cbcf c5bc 768b 11bd 8adf 81bb 7112 4f3d
000002f0: 03d9 5d3d 1155 213d be88 003d 6e75 aebc
00000300: 7155 73bc 6501 5e3c e552 5e3d acba 1c3d
00000310: 69bd 13bc 9c10 873c 0103 af3c be0a fc3c
00000320: 6f8b bfbc 7900 323d 6ef4 153d a5e7 873d
00000330: 9ad6 f23c 1e48 a6bc 5547 613d 7dca b1bc
00000340: dd24 1d3d 1191 7b3d 7991 583c 12a1 2e3b
00000350: 7914 683d 7b2b 3f3d 80df 0cbd 73b9 463d
00000360: d8ee 8dba 44f0 a3bc 23fd 98bb fa72 ae3c
00000370: 968d 4fbc 3b9d ed3a a369 ddb9 ea5d d037
00000380: 7815 99bc 1721 9fbc e34b 34bd 80b5 043d
00000390: 02bf 0e3d 2175 b33c b710 223d 6228 88bc
000003a0: c490 5a3d 974d 343d 84df 643d 9e3f df3b
000003b0: 2c6b 723d 1b6f cd3b 82f1 a23c 877c c6bc
000003c0: 31d6 fb3b e25b 813d be77 103d 2de1 833d
000003d0: 316b 803d cc40 213d c8c1 ad3c 0d65 483d
000003e0: 866f c23c d5f7 153d c846 b4bc 1af5 753c
000003f0: c690 553d d2c9 8d3d b5a7 c2bc aabc a53d

fc15.bias f4 [30]
0.005072936 0.016334431 -0.0023576254 0.035261195 0.04979797 0.038580842 0.032573164 0.013314141
-0.02290625 0.062667824 -0.012598286 0.058748595 0.06332876 -0.0013147519 0.05962457 0.024778746
0.036878165 0.024943965 0.02427573 -0.0027373482 0.001257735 0.047807414 0.08463266 0.03896953
0.002337448 -0.014263039 -0.006418732 0.012222379 0.038627148 0.0770092
00000000: df3a a63b c9cf 853c 6482 1abb 0b6e 103d
00000010: f5f8 4b3d f206 1e3d 706b 053d 8e23 5a3c
00000020: e3a5 bbbc fd57 803d 0b69 4ebc 5ea2 703d
00000030: 82b2 813d c153 acba e538 743d ccfc ca3c
00000040: 8f0d 173d 4957 cc3c e5dd c63c 1565 33bb
00000050: 95da a43a b5d1 433d e353 ad3d 849e 1f3d
00000060: df2f 193b 86af 69bc 3a54 d2bb 6040 483c
00000070: 8037 1e3d 00b7 9d3d

fc2.weight f4 [4, 30]
0.19702238 0.20686066 0.20161076 0.16393398 0.23427166 0.24531968 0.2515443 0.2426869
0.23253503 0.23430829 0.19472001 0.26733187 0.22592895 0.22999151 0.19159025 0.15460171
0.16211173 0.17644203 0.25830662 0.18440288 0.23410061 0.22066498 0.2648664 0.24076813
0.23792873 0.21921739 0.15673919 0.25420725 0.21027072 0.18027373 0.1824313 0.15240757
0.1256949 0.123317346 0.2308498 0.17433217 0.13321596 0.19099545 0.147936 0.11772991
0.21779317 0.17056724 0.15072827 0.18735993 0.11895046 0.16664675 0.1755452 0.2224476
0.21400249 0.18460947 0.16668683 0.14294542 0.18264945 0.13412654 0.18144181 0.214301
0.11495285 0.20846187 0.22363198 0.17281328 0.26169804 0.20435616 0.17176789 0.25559816
0.2717741 0.22119565 0.20150764 0.2347021 0.18968357 0.17476721 0.2133925 0.18984184
0.25076082 0.23422599 0.16267025 0.18234195 0.2620246 0.2021533 0.26701823 0.2166902
0.17112036 0.2230644 0.23445965 0.26289895 0.21990626 0.21379928 0.18876463 0.23366253
0.22603042 0.17965887 0.24962854 0.22290047 0.15316768 0.18787256 0.20895201 0.19140159
0.25187513 0.17109384 0.13735303 0.14356816 0.18566114 0.19092397 0.21051466 0.24180432
0.16838752 0.16751099 0.15138927 0.2084425 0.23297365 0.1577418 0.19028924 0.18918823
0.1950407 0.17243046 0.22941113 0.15787432 0.19070789 0.19893922 0.21209109 0.23196763
00000000: 3cc0 493e 48d3 533e 0d73 4e3e 4fde 273e
00000010: e9e4 6f3e 1535 7b3e 6aca 803e ea82 783e
00000020: aa1d 6e3e 83ee 6f3e af64 473e b9df 883e
00000030: eb59 673e e582 6b3e 3c30 443e e94f 1e3e
00000040: 9e00 263e 38ad 343e c440 843e 1cd4 3c3e
00000050: 12b8 6f3e 00f6 613e 929c 873e ec8b 763e
00000060: 97a3 733e 867a 603e 3d80 203e 7427 823e
00000070: 3551 573e ad99 383e 45cf 3a3e bb10 1c3e
00000080: 2ab6 003e ce8d fc3d e463 6c3e 2284 323e
00000090: c469 083e 5094 433e 897c 173e 611c f13d
000000a0: 2c05 5f3e 2ea9 2e3e 8358 1a3e 48db 3f3e
000000b0: 4c9c f33d 72a5 2a3e 1fc2 333e 4ec9 633e
000000c0: 7823 5b3e 440a 3d3e f4af 2a3e 4960 123e
000000d0: 7508 3b3e 7858 093e e2cb 393e b971 5b3e
000000e0: 666c eb3d 0777 553e c8ff 643e f7f5 303e
000000f0: 49fd 853e be42 513e ece3 2f3e c3dd 823e
00000100: fa25 8b3e 1d81 623e 0558 4e3e bf55 703e
00000110: 693c 423e 2df6 323e 9083 5a3e e665 423e
00000120: b963 803e f0d8 6f3e 0893 263e d9b7 3a3e
00000130: 1728 863e 4601 4f3e 9db6 883e 09e4 5d3e
00000140: 2d3a 2f3e fe6a 643e 3116 703e b19a 863e
00000150: 1b2f 613e 33ee 5a3e 844b 413e 3b45 6f3e
00000160: 8574 673e 7ff8 373e a09e 7f3e 0540 643e
00000170: fdd7 1c3e aa61 403e 84f7 553e c7fe 433e
00000180: c7f5 803e 3933 2f3e 46a6 0c3e 8803 133e
00000190: f41d 3e3e 9381 433e 2891 573e 8d9b 773e
000001a0: c76d 2c3e 0088 2b3e ca05 1b3e f371 553e
000001b0: a590 6e3e 1187 213e 2fdb 423e 8fba 413e
000001c0: c0b8 473e 9c91 303e c0ea 6a3e cea9 213e
000001d0: ee48 433e b9b6 4b3e 682e 593e ec88 6d3e

fc2.bias f4 [4]
0.37393862 0.31880903 0.43586797 0.31924003
00000000: e274 bf3e f03a a33e 162a df3e 6e73 a33e
