TD0v1_10000.pt (torch, 12656 bytes, 4 tensors)

fc1.weight f4 [80, 28]
000000 36 a9 ef bc f2 4f 31 3d a7 3e ec ba e7 3a 52 3c
       -0.02925549 0.043289132 -0.0018024043 0.012831426
000010 70 8a 0f 3d 66 a0 49 3c 5b 00 29 3d 23 f6 91 bc
       0.035044134 0.012306308 0.041260105 -0.017817562
000020 73 6c 3f 3d d4 da 3d bd e4 2f fa bc ee d9 b3 bc
       0.046734285 -0.04635127 -0.030540414 -0.021954503
000030 f7 14 2f 3d 0b ac 4c 3d 59 5f 44 bd 5f ff bf 3c
       0.042744603 0.04996876 -0.047942493 0.0234372
000040 d6 d6 2b 3c c1 19 22 bb 96 91 de 3c c0 9b 46 3d
       0.010488233 -0.0024734589 0.02716903 0.04848838
000050 94 96 0f 3c 4e cb 3f bb e0 fb 69 bc 2b c1 13 bc
       0.008763928 -0.0029265466 -0.014281243 -0.009018223
000060 2d 5e 65 bd 24 83 9b 3d 06 29 22 bd 93 a9 f5 3c
       -0.055998016 0.075933725 -0.039589904 0.029988086
000070 59 80 05 bd 51 1e 42 bd a6 17 36 bd 8f 51 43 bd
       -0.032593105 -0.047392193 -0.044456147 -0.047685202
000080 89 45 ca bc b7 58 f8 3c 16 30 dd ba 01 6b 3b bd
       -0.02469136 0.03031574 -0.0016875293 -0.045756344
000090 02 1a 18 3d c9 7c e3 3c 38 b7 d2 bb de 5c af bc
       0.037134178 0.027769463 -0.006430533 -0.021406587
0000a0 79 2d d7 3c c3 7d 8b 3c 1c 80 4b bc b1 d7 a0 3b
       0.0262668 0.017027741 -0.01242068 0.004908525
0000b0 37 10 60 ba bc 5a 50 bc 84 4a ac bb dc dc 29 bd
       -0.0008547338 -0.012716945 -0.0052579064 -0.041470394
0000c0 10 96 e6 3b 2c 0f 96 bc 36 41 1d 3d 1d b6 44 3d
       0.007036932 -0.018317781 0.038392268 0.04802524
0000d0 16 ae f3 bc 29 9d ca 3d 6c 5d fd bc 62 e9 42 3d
       -0.029746097 0.09893257 -0.030928336 0.047585852
0000e0 5f 93 a4 bc bd 54 43 bc 95 89 91 bc d5 02 68 3c
       -0.020089803 -0.011922059 -0.0177658 0.014160831
0000f0 e7 48 46 bd c3 9e e5 3b f4 18 22 bd 23 f4 76 3c
       -0.04840937 0.0070074513 -0.03957458 0.015072855
000100 a1 47 4c 3c e1 61 32 bd 7f 17 4a bc 5f b2 21 3d
       0.01246825 -0.043550376 -0.0123347035 0.03947675
000110 25 54 01 bb e5 66 54 3c 7d 57 16 3c e0 c4 36 3d
       -0.0019733992 0.012963985 0.009176132 0.04462135
000120 a5 db 54 bc e5 06 12 bd b2 02 ec 3c da b6 39 bd
       -0.01299182 -0.035651106 0.028809879 -0.045340396
000130 3b ac 95 3c 41 ff 2d bc fe 20 82 bb 97 90 20 3d
       0.018270602 -0.010619939 -0.003971218 0.03920039
000140 bc dd cb bc bd 33 68 3d 68 e2 8b bd de a7 08 3e
       -0.024886005 0.056689966 -0.06830293 0.13345286
000150 c2 84 14 3d db d7 16 bd 65 98 ae bc 1a 17 58 3c
       0.03625942 -0.03682695 -0.021312902 0.013189102
000160 ac 46 f4 bc dc 69 db 3c ac 51 f9 3c 59 f4 f5 3c
       -0.029818855 0.026783876 0.030434452 0.03002374
000170 94 cd ca bc 97 66 21 bd e4 cd fe 3c f7 44 24 3c
       -0.02475623 -0.039404478 0.031104036 0.010026208
000180 f9 6e b8 bc 6f f9 ee 3c f9 5d 06 3d bc 43 1d bd
       -0.022513853 0.029171674 0.032804463 -0.038394675
000190 a7 da bb 3c e2 94 62 bc a0 1f 10 3c 46 23 c9 3b
       0.02293141 -0.013829442 0.0087966025 0.006138238
0001a0 0d 8b 45 bd 31 eb 00 3b a5 5d ad 3c db 65 a0 bb
       -0.048228312 0.0019671435 0.021162817 -0.0048949546
0001b0 a4 e6 47 bd 74 08 b3 3d e0 f6 7f bd e2 6a ed 3d
       -0.04880394 0.08741847 -0.062491298 0.11592652
0001c0 cc 17 fb bb 09 b7 f3 3c e5 76 67 3c b6 d3 26 3d
       -0.007662749 0.029750364 0.014127468 0.040729247
0001d0 08 7a f4 3c 75 63 6d bc d9 eb 32 3d 9b 57 29 3d
       0.029843345 -0.014489044 0.043681953 0.041343313
0001e0 59 03 26 bd f3 84 b9 bc 7f 4e 2e bd 58 bd 4b 3d
       -0.040530536 -0.022646403 -0.04255533 0.04974112
0001f0 24 27 9e 3b 1a 91 c6 3c 5f 63 2c 3b 8d 94 10 3d
       0.0048264433 0.024239112 0.0026304347 0.03529792
000200 6e 63 d0 3b 10 22 f2 3c 00 d2 1c 3d f7 a6 3d 3d
       0.006359509 0.029557258 0.03828621 0.04630181
000210 bc 9b fe 3c 71 64 8c bc a9 3c ec 3b fe e9 d6 b9
       0.03108012 -0.017137738 0.0072093797 -0.00040991599
000220 1b 25 49 3b a5 e9 f8 3d f1 9c 9c bd f0 5f 80 3d
       0.0030692283 0.12153939 -0.07647122 0.062682986
000230 6c 6a 15 bd da 87 b6 3b 8e 29 16 bd 98 b9 c4 bc
       -0.036478445 0.005570394 -0.036660723 -0.02401428
000240 d0 6d 6b 3c 5a 06 4a 3a 06 32 13 bc c4 33 6a 3c
       0.014369443 0.0007706635 -0.0089840945 0.014294568
000250 66 a0 fd bc f9 9e 05 bc 51 29 fb bc 62 57 b3 3c
       -0.030960273 -0.008155578 -0.03065935 0.021892253
000260 54 a8 14 3d 43 de 67 bc 61 42 ae 3c 8f 1d 27 3d
       0.036293343 -0.014152112 0.021271886 0.040799674
000270 d4 0d 26 bd 62 71 43 bd af 71 e0 3c 5f 5c 1a 3d
       -0.04054053 -0.047715552 0.027397959 0.03768575
000280 8a d5 a6 3c 06 41 92 3c 89 82 95 bc ab d5 0a 3c
       0.020365495 0.017853271 -0.01825072 0.008473794
000290 b2 d9 61 bd 15 b3 10 3d 8e 8d 07 3d 7d ed 66 3d
       -0.05513925 0.035327036 0.03309398 0.05637883
0002a0 ea 62 af bc 3d 7b 3a 3d bd 7f 68 3c cd d9 25 bd
       -0.02140947 0.045527685 0.014190611 -0.040490914
0002b0 12 10 b7 bc 5c fa 3f bd 07 89 24 3b 5e 68 e0 bc
       -0.02234653 -0.04686962 0.0025106089 -0.027393516
0002c0 44 aa 19 3d 72 07 3f bd 56 90 8d bc e0 f4 e7 3a
       0.037515894 -0.04663796 -0.017280739 0.001769688
0002d0 1e 9c 24 bd 5c b7 46 3d 8c bf 1a 3c 0f 6f e7 3c
       -0.040187947 0.04851471 0.009445082 0.028251199
0002e0 33 b1 28 3d 72 4e 08 bd 85 f0 e3 3b 08 b4 0d 3d
       0.041184615 -0.033277936 0.0069561624 0.03459552
0002f0 91 cd 14 bd 7b ab eb 3c 4e 0c be bb 06 32 44 3c
       -0.036328856 0.028768292 -0.0057998067 0.011974817
000300 a8 db 47 bc 4d 8e 08 bd de 7c 1f 3d 8b ee 8d bd
       -0.012198366 -0.033338834 0.038937442 -0.06930264
000310 db 8e 27 3d 36 ad 3a 3c 37 0d e4 3c 98 b4 16 3d
       0.040907722 0.011393836 0.027838333 0.03679332
000320 bf 13 1a 3d ef eb d0 3b 2b 50 b3 3b 8e 85 dd 3b
       0.037616488 0.0063757817 0.0054722033 0.0067603057
000330 07 05 2a 3d 29 81 27 bd 72 6f 91 3c 1c de 1c bd
       0.0415087 -0.04089466 0.017753337 -0.038297758
000340 5f 57 19 3d 7e 81 40 bc 97 e8 34 bd 1a ae 47 3d
       0.03743684 -0.011749623 -0.044167127 0.04875002
000350 cb ab be bc 9f 76 db bc 2e 64 9e bc d1 c6 a6 3c
       -0.023275277 -0.026789961 -0.019334879 0.020358475
000360 53 99 b4 bc 96 dd 18 bb ee 47 84 3a 2a 36 75 3c
       -0.022045767 -0.0023325435 0.0010092237 0.014966527
000370 40 01 fd 3b 24 b4 89 3d 60 11 23 bd 9e 03 2e 3b
       0.0077210963 0.06723812 -0.039811492 0.002655245
000380 b6 a6 43 3d e9 a9 07 bd 15 69 da 3c fd 47 c2 bc
       0.04776641 -0.033121023 0.026661435 -0.023715967
000390 7e d9 f2 bc af 98 51 3b 8b 90 5b bc 9e 0c 4f 3c
       -0.029644724 0.0031981876 -0.013401161 0.0126372855
0003a0 3f 85 b0 3c b9 b3 21 3b 22 02 e4 3c 78 e4 19 3d
       0.021547912 0.0024673773 0.027833048 0.0375714
0003b0 ac ab 48 bd cf 2b 21 3d a0 0d 0e bd 25 2e 3b bd
       -0.048991844 0.03934842 -0.034680963 -0.045698304
0003c0 09 26 0a 3d 15 27 07 bd 2b 87 02 bb c4 6d fa 3b
       0.03372768 -0.032996256 -0.0019916992 0.0076424796
0003d0 ce 59 ef 3c d7 c1 c3 3b 61 e8 1a bd 46 6d 06 3d
       0.029217627 0.0059740352 -0.03781927 0.032819055
0003e0 ae 5a a8 bc 8d 94 bd 3d 74 c7 2f bc 46 7b 93 3d
       -0.020551052 0.092568494 -0.010728706 0.07201247
0003f0 f9 be 3e 3d f3 83 33 3d 42 04 3b 3d b0 57 99 3b
       0.046568844 0.04382701 0.045658357 0.0046796426

fc1.bias f4 [80]
000000 8b 70 17 bd d2 05 0c 3c b3 af 05 3a 61 f5 c4 3b
       -0.036972564 0.00854631 0.00050997286 0.0060106968
000010 50 4d 94 3c 65 e0 a3 3c c2 cf f4 3c 24 c7 2c bd
       0.018103272 0.02000446 0.029884223 -0.042182103
000020 18 32 1b 3d f7 fc 98 bc 20 71 c0 3b 2f 29 80 3c
       0.03788957 -0.01867531 0.0058728606 0.015644638
000030 a6 c2 07 bc 41 d1 ab 3c cb 0a 7c bc 50 a7 b1 bc
       -0.008286154 0.020973803 -0.015383433 -0.021686226
000040 7a d8 24 3d aa 33 f2 3c b2 6c bf 3c f3 ea e9 bb
       0.04024551 0.029565651 0.02336726 -0.007138604
000050 01 49 80 bc ed 09 be 3c 97 35 90 b9 33 90 fc bc
       -0.015659811 0.023198092 -0.00027505748 -0.030830478
000060 39 a5 a9 bb 28 56 9a bc df 41 e9 bc bc 76 2f bd
       -0.005177167 -0.01883991 -0.028473793 -0.042837843
000070 53 33 3f 3d c4 dd 05 bd 16 ec ce bc 84 d0 e8 3c
       0.046679806 -0.032682195 -0.025259059 0.02841974
000080 12 73 11 bd 60 94 3d 3d f3 a5 47 bd e5 2d b1 3c
       -0.03551013 0.04628408 -0.048742246 0.02162833
000090 17 96 17 bd b8 b3 f0 3a e8 e7 db 3a 45 1f ef bc
       -0.03700837 0.0018364107 0.0016777487 -0.029189715
0000a0 cc 1d f6 3c 18 ac 5d 3c e9 02 b5 bc b4 f4 e6 bc
       0.030043505 0.0135298 -0.022096114 -0.028192855
0000b0 28 8d 44 bd 88 f8 d4 3c 02 4f 30 bd fa 7f a6 bc
       -0.04798618 0.025997415 -0.043044098 -0.020324696
0000c0 bc 54 a8 3b 26 63 52 bb 39 87 18 3d 6e 7c a0 bc
       0.0051370542 -0.0032102554 0.037238333 -0.019590583
0000d0 c5 1a 84 bc df e0 05 bd c9 a1 0d bc 65 3d 15 bd
       -0.016126046 -0.032685157 -0.00864453 -0.036435504
0000e0 1f fe 6d 3c a7 b0 45 bb 8c 9f 31 bd aa 2b 89 bc
       0.014525919 -0.0030165107 -0.043365046 -0.016744453
0000f0 5b 02 46 3d a2 69 9b 3c 87 b0 3c bd 4f 81 b1 bc
       0.04834209 0.018971268 -0.046066787 -0.021668104
000100 3b 50 0f bd 05 9a 92 3c 44 95 68 bc 75 19 55 bd
       -0.034988623 0.017895708 -0.014195744 -0.05202623
000110 92 43 94 3c b6 4e b8 3b 71 59 19 3d 21 dd 8f bc
       0.018098626 0.0056246174 0.037438814 -0.017561497
000120 d2 24 0a bd cd ca 40 3d 43 c6 a1 bc 9b 4b 5b bc
       -0.03372652 0.047068406 -0.019747859 -0.013384725
000130 9e 0b 1b 3d ea 46 c9 bc 18 7c c2 bc f3 b8 2c 3d
       0.037852876 -0.024569947 -0.023740813 0.04216857

fc2.weight f4 [4, 80]
000000 ad 3f 8c 3c 47 d3 ec 3d 88 08 0b 3e a8 f1 04 3e
       0.017120207 0.115637355 0.13577473 0.1298281
000010 15 79 db 3d 8d bc bd 3d 40 18 b9 bc 79 6a 36 3d
       0.10716454 0.09264479 -0.022594571 0.044535134
000020 a3 69 ff 3d 08 29 10 3d 5d 93 16 3d ff 4d 0d 3d
       0.124713205 0.03519538 0.03676163 0.03449821
000030 68 79 06 3d a6 6e 97 3d fb f9 1a 3d 3a fc d3 3d
       0.032830626 0.073941514 0.037836056 0.10350843
000040 16 0c fa 3c b6 06 35 3d 68 b4 8d 3d c6 a6 a3 3d
       0.030523341 0.044195853 0.069191754 0.07990794
000050 fd 18 47 3d 03 53 54 3d b2 37 e5 3d 80 f2 f9 3d
       0.048607815 0.05183698 0.11192264 0.12204456
000060 d6 cd f6 3d 93 7e 8d 3d 47 1f f7 3d 26 ce 87 3d
       0.12050979 0.06908908 0.120665126 0.066311166
000070 d3 46 2a 3d 97 b6 9e 3d 04 b9 10 3e 60 7d 04 3e
       0.04157145 0.0774967 0.14133078 0.12938452
000080 de 1d ae 3d 31 05 02 3d 2e 57 22 3e d4 1d 0f 3d
       0.085017905 0.031743232 0.15853569 0.034940556
000090 95 1a d0 3c f3 e8 c3 3d b0 ee 77 bc 84 c1 02 3e
       0.0254033 0.09565916 -0.015132591 0.12769133
0000a0 15 d5 d1 3d e3 db b7 3d 72 6b 03 3e 72 f8 ac 3c
       0.1024572 0.08977487 0.12833956 0.021114562
0000b0 37 de d6 3d 7a 0c db 3d 04 89 02 3e 34 a5 ec 3d
       0.10491603 0.10695739 0.1274758 0.115549475
0000c0 2f cc c5 3d f8 64 74 3d 4a c5 4c 3d 1d e7 68 3d
       0.096580856 0.059666604 0.049992837 0.05686103
0000d0 2a 76 ec 3c af fb a2 3d 02 a9 c8 3d 03 12 05 3e
       0.028864939 0.07958161 0.09797861 0.12995152
0000e0 0e df ba 3d 4a b8 3a 3c 51 e6 00 3e c8 81 c3 3d
       0.091245756 0.011396477 0.12587859 0.09546238
0000f0 ec 0d cc 3d ad 56 26 3e 2f 49 35 3d b9 5f 62 3d
       0.09963593 0.16244002 0.044259246 0.05526707
000100 64 f2 ba 3c bc 0b c8 3d 7c 53 07 3e 9d 03 1a 3e
       0.022820659 0.09767863 0.1321544 0.15040441
000110 48 14 a0 3c 95 48 b9 bc 91 c5 fb 3d c0 7a 90 3d
       0.01954092 -0.022617618 0.12293542 0.07054663
000120 6b 7f 90 3d 98 e0 77 3d 62 5a ba 3d 5a dd 94 3d
       0.07055553 0.060516924 0.090992704 0.07268782
000130 90 23 8a 3d e7 54 45 3d c0 c5 20 3d bc 71 39 3d
       0.06745064 0.048176672 0.03925109 0.04527448
000140 df f8 cd 3d 36 17 88 3d e7 e9 d9 3d 61 90 9f 3d
       0.10057234 0.06645052 0.106403165 0.0779121
000150 d7 1b f4 3d 0f 97 58 3d b8 e4 89 bd f0 2f e1 ba
       0.119193725 0.052878436 -0.06733078 -0.0017180424
000160 77 c0 e3 3d 79 27 11 bc 26 b1 ac 3d 79 26 9d bb
       0.11120694 -0.008859509 0.08432226 -0.004795846
000170 c0 70 72 ba 2a 87 38 3d e3 27 5d 3d fe 35 fd 3d
       -0.00092483684 0.045050777 0.053993117 0.12363814
000180 e6 6c 86 3d 9a e3 a2 3d 2a 6e 5b 3d c3 bf d9 3c
       0.065637395 0.07953568 0.053571858 0.026580697
000190 d4 83 45 3d 94 39 21 3d b4 2a ea 3d d0 c0 39 3d
       0.048221424 0.03936155 0.11433926 0.045349896
0001a0 98 8d 1a 3e 07 e7 81 3c f0 9a 2d 3d 7f 6b 9e 3d
       0.15093076 0.015857233 0.042384088 0.07735347
0001b0 18 17 ef bb 76 4b ea 3d 5b 0b cf 3d e0 7f c0 3d
       -0.007296454 0.11440174 0.10109588 0.0939939
0001c0 38 95 c8 3d 6c 57 ea 3d 38 a8 e7 3d 42 f5 db 3b
       0.09794086 0.11442456 0.11311382 0.0067125866
0001d0 92 ed b7 bc db d2 23 3d 6e 94 c4 bc 49 64 93 3d
       -0.02245215 0.03999601 -0.023996558 0.07196862
0001e0 dd f9 f5 3d 5f 78 40 3d 4c 7f 8a 3d 0c fc 20 3d
       0.12010548 0.046989795 0.06762561 0.03930287
0001f0 b2 d8 9d 3d e4 4c c3 3d 49 e1 45 3c 1e 6d e6 3d
       0.07707347 0.0953615 0.012077638 0.11251281
000200 22 d5 af 3d 84 29 9b 3d f5 d0 95 3c a7 0d bf 3d
       0.08585574 0.07576278 0.018288115 0.09328776
000210 0b e9 c4 3b 90 fa b0 3d ca 52 d3 3d 4d 0d af 3d
       0.006009226 0.08641541 0.10318525 0.08547459
000220 4f 52 54 3d 6f fa a3 3c 5d 3d a8 3d fb b5 a5 bb
       0.051836308 0.020016877 0.08214829 -0.005057094
000230 69 6f a2 3d d9 56 07 3e 2a 4e 5b bb f0 49 81 3d
       0.07931406 0.13216724 -0.0033463337 0.063129306
000240 db 9c 48 bc 6d fb 2c bc d8 f0 88 3d 33 c0 f2 3d
       -0.0122444285 -0.010557991 0.06686562 0.11853065
000250 dd fe 24 3d 7c 4f 57 bc b7 7e 89 3c bd ac 57 3d
       0.04028212 -0.013141509 0.016784055 0.05265497
000260 91 82 cc 3c 03 47 3e 3d 37 68 ba 3d a5 1e 4d 3d
       0.024964603 0.04645444 0.09101909 0.050078053
000270 4b c4 46 3d 16 f3 8c 3d d9 28 29 3a 78 1f dc 3c
       0.048527043 0.068823025 0.0006452925 0.026870474
000280 f9 3d a6 3c 66 53 7c 3d 99 ed 09 3e cf 79 0f 3e
       0.020293223 0.061602972 0.13469543 0.1401131
000290 af e3 07 3e 34 83 d7 3b 94 43 2d bc 9d 82 b4 3d
       0.13270448 0.00657692 -0.010575194 0.08813975
0002a0 9d d8 e9 3d 41 93 1f 3c 80 1b c8 3d 7b 1e 15 bd
       0.11418269 0.009739698 0.0977087 -0.03640602
0002b0 f0 ae 80 3d cf 7b 5f 3c e4 47 50 3c cd a9 f6 3d
       0.06283367 0.013640358 0.012712453 0.12044106
0002c0 e6 f2 59 3d 42 a9 7f 3c ce 48 ec 3c 28 ad f9 3d
       0.05321016 0.015604319 0.02884331 0.1219123
0002d0 8f 2c 20 3d 42 33 4c 3d 20 e2 78 3d b0 c4 b0 3d
       0.039104994 0.04985357 0.060762525 0.08631265
0002e0 f9 08 14 3e 67 a9 90 3d 9b 43 18 3d b6 2c 00 3e
       0.14456548 0.07063561 0.03717385 0.12517056
0002f0 b6 3c eb 3d 62 74 ba 3d eb 2e 2c 3e be f8 ef 3d
       0.11486189 0.091042295 0.16814773 0.11717366
000300 c1 1a b9 3d 3b 4f 6b 3d 35 82 25 3e c3 1e d7 3c
       0.09038306 0.057448607 0.16162951 0.026259786
000310 a1 69 06 bd fe cd 81 3c 88 38 63 bd 95 b3 08 3e
       -0.03281558 0.015845295 -0.055473834 0.13349755
000320 29 45 9c 3d 41 81 30 3d 0d 5b bb 3d 67 1e 2b 3d
       0.07630379 0.043092016 0.09148226 0.04177704
000330 bb 99 8b 3d 20 6c 44 3d ff aa b0 3d ae a1 3b 3d
       0.06816431 0.04795468 0.08626365 0.045808487
000340 20 ff 01 3e 95 f5 42 3d 1e 85 d7 3d d7 cb c5 3d
       0.12694979 0.047597487 0.10523437 0.0965802
000350 d3 20 b0 3c 20 f8 04 3e 5c 2a 01 3e a0 5d c0 3d
       0.021500027 0.12985277 0.12613815 0.093928576
000360 0f 34 9c 3d 59 38 b1 3c 0b 0e c4 3d 19 38 8c 3c
       0.07627117 0.021633314 0.09572991 0.017116593
000370 bf af 8b 3d f0 f6 d1 3d fc 96 03 3d 01 8f fe 3d
       0.0682063 0.10252178 0.03212641 0.124296196
000380 7e 2e 91 bc 39 56 56 3d 3c 96 f4 3d 83 d1 59 3d
       -0.017722365 0.052328322 0.119427174 0.05317832
000390 e1 f6 8f bc f9 ce 88 bc 69 08 92 3d a5 5b 18 3e
       -0.017573776 -0.016700255 0.0713051 0.1487871
0003a0 7b a5 50 3d 56 b9 b8 3c fb 22 ae 3d c4 9d 95 3b
       0.050939064 0.022549313 0.08502766 0.0045659263
0003b0 e2 87 ef 3d 89 a8 de 3d 9b 60 2b 3d e5 19 c8 3c
       0.116958395 0.10871989 0.041840177 0.02442641
0003c0 86 cb 06 3d 72 2b 6b 3d 30 fa 72 3d 6b bb ff 3d
       0.03290894 0.05741448 0.05932063 0.12486919
0003d0 9d ba 9d 3d a3 f6 4b 3d 3e 18 a8 bc 6b 22 ae 3a
       0.07701609 0.049795758 -0.020519372 0.0013285404
0003e0 04 41 42 3d 96 cc 67 3c d4 99 b0 3d 0c 81 89 bd
       0.047425285 0.014147898 0.086230904 -0.06714067
0003f0 04 25 26 bd 24 93 31 3d 14 51 7c bc d8 d9 81 3d
       -0.040562645 0.043353215 -0.01540019 0.063403785

fc2.bias f4 [4]
000000 7f a3 c7 3d 55 0d 85 3d 78 ad 0a 3e 8c d6 89 3d
       0.09747981 0.064966835 0.13542736 0.06730375
