TD0v2e_10000.pt (torch, 17210 bytes, 6 tensors)

fc1.weight f4 [60, 28]
000000 2c 56 46 3b 16 35 c0 bc c9 2f 2b bd 67 5d 0a bd
       0.0030263765 -0.023462813 -0.04179362 -0.03378048
000010 21 90 10 3d 9b 94 09 3d 0e 32 e7 3c 22 3e 40 bb
       0.035293702 0.033588987 0.02822211 -0.002933391
000020 05 de 33 bd 9a f7 f5 bc 12 7d df bc e0 6f ad bc
       -0.043912906 -0.030025292 -0.027281318 -0.02117151
000030 3c 92 e8 3c 12 44 1a 3d 2a 17 e5 39 da f5 0c bd
       0.028390042 0.037662573 0.00043695542 -0.03441415
000040 3b 36 03 bd 65 28 48 3d 4a 51 4a bc d1 fa cc 3b
       -0.03203414 0.04886665 -0.012348482 0.0062554856
000050 cd 41 1c bd ce 38 5f bc 81 e9 4b 3d c0 ca a0 3c
       -0.03814869 -0.013624383 0.049783234 0.019627929
000060 0b 63 ac bb 5d 98 fe bc fa ef 0b 3d 4a e0 1a 3d
       -0.0052608303 -0.031078512 0.034164406 0.037811555
000070 99 54 1c 3d 5b 4a 03 3c 12 05 23 3d 29 24 1a 3d
       0.038166616 0.008013333 0.039799757 0.03763214
000080 30 30 9d 39 e5 fc a5 bc 97 55 47 3d 93 db cd 3c
       0.00029981276 -0.020262191 0.04866561 0.025129115
000090 25 92 48 bd 11 2c 38 3d b4 6a 45 b8 a8 9a 26 bc
       -0.0489675 0.0449639 -4.7067835e-05 -0.010168709
0000a0 1c d1 73 ba 88 6d 02 3d 80 6e 03 bb 2e f8 f5 3c
       -0.0009300874 0.03184274 -0.0020054877 0.030025568
0000b0 3e e8 34 3d ec 1d 2e bd b9 dc 06 bd 53 3f 86 3c
       0.044166796 -0.042509004 -0.03292534 0.016387617
0000c0 9b 13 0f bc 9c 5e 34 3d c2 be f4 bc 78 bb 04 3d
       -0.008732702 0.04403554 -0.029876117 0.032405347
0000d0 72 9a ef 3b ba 47 7a 3d c0 42 65 bc 30 14 19 3d
       0.0073121125 0.06110356 -0.013992965 0.037372768
0000e0 68 3d 60 3c 5d 78 1e bd 9b 1f 9d bc 28 c7 36 3d
       0.013686515 -0.038689006 -0.01918011 0.044623524
0000f0 25 70 9f 3c 6b 18 e6 bc 6e 42 3c 3c f3 4d 2a 3d
       0.019462654 -0.028087815 0.011490447 0.041578244
000100 33 09 c4 3b 9f dd 14 3c 3c 3d 4c bd b6 04 10 3c
       0.005982542 0.009086042 -0.049863085 0.008790186
000110 70 da d6 bb 16 2a 83 3b af 9c fb bc be 86 e3 3c
       -0.0065568015 0.00400282 -0.030714361 0.027774211
000120 6b 79 2a 3d bf 86 92 bc 51 92 ff 3c 5e 73 2d 3b
       0.0416197 -0.017886518 0.031197699 0.002646647
000130 60 a4 18 bd 78 8e fb bc 75 fb 0f 3d c2 a2 98 bc
       -0.037266135 -0.030707583 0.035151917 -0.018632296
000140 1e d9 14 bd 28 72 13 bd 1d bf e8 bb 83 0e 94 3c
       -0.03633987 -0.03599754 -0.0071028606 0.018073326
000150 91 d0 79 bc ba 06 11 bd 1f ab 0e bd 44 e8 76 bc
       -0.01524748 -0.035406806 -0.034831163 -0.015070025
000160 18 c7 14 bd 01 c1 a8 3c 15 5e 49 bc 5f 86 24 3d
       -0.036322683 0.020599844 -0.012290497 0.04016721
000170 c5 a6 eb 3c 18 f7 c8 3c 2b e0 5c bc 12 37 80 3c
       0.028766045 0.024531886 -0.01348118 0.01565126
000180 71 bb 2b ba 72 e9 19 3d ae 0b 0b 3d 33 3e 85 3c
       -0.0006551063 0.037576146 0.033946685 0.01626501
000190 51 39 2c bd 56 ca 1a 3d a8 a7 34 bd 73 77 e8 bc
       -0.04204685 0.03779062 -0.044105202 -0.02837727
0001a0 a6 79 09 bc 36 27 63 bb d1 40 24 3d 4a 33 0f 3d
       -0.00839082 -0.0034660823 0.040100876 0.034961022
0001b0 01 8a ad 3a 9f 3d ab 3b f1 f4 ab 3c fe 7e 1b 3d
       0.0013239981 0.0052258517 0.02099082 0.037962906
0001c0 cc b4 c1 3c 14 c6 39 3d b5 0d 1b bd c0 64 e3 bc
       0.023645781 0.045354918 -0.03785487 -0.027758002
0001d0 29 98 a6 3c 80 80 4b bd e9 2d 32 3d 0b 01 1f 3d
       0.020336227 -0.049683094 0.043500815 0.038819354
0001e0 8e 5e 70 bc e5 85 2f 3c 37 b9 94 bc 27 bd 48 3c
       -0.014670981 0.010713075 -0.018154724 0.012252129
0001f0 3c 2f 34 bd d3 92 14 3d 01 35 1a 3c 99 fb 4c 3b
       -0.04399036 0.036272835 0.009412051 0.0031277894
000200 e1 9b f6 3c ea 42 e2 3c 2d a9 1d bd a5 8d c8 3b
       0.030103626 0.027619798 -0.038491417 0.006120401
000210 f5 8c e1 bc d4 95 04 bd a9 1e b4 b9 3f 0d 2a bd
       -0.027533034 -0.03236945 -0.0003435512 -0.04151654
000220 ae c0 64 bc b5 48 23 bd e6 49 33 3c 63 68 05 bd
       -0.013961954 -0.03986426 0.010942912 -0.032570254
000230 0f f9 91 3c a6 1c 0d bd 0d 6e 41 3d d6 f6 03 bc
       0.017818956 -0.03445115 0.047224093 -0.008054456
000240 32 03 4b bd a1 ef 52 3c 2e 16 05 bc 17 fe a5 bb
       -0.049563594 0.012874515 -0.008122964 -0.0050656903
000250 bc 4d 33 3d db 16 d2 3a 2a c6 4f bb be 5b 02 3d
       0.043775305 0.001602854 -0.0031703808 0.031825773
000260 6f c5 a2 39 06 6e 41 3d fe 95 11 bc 41 5a 40 3c
       0.00031046147 0.047224067 -0.008885859 0.011740268
000270 ed 24 13 bd 69 85 a7 3b 21 5e 4a 3d bf dd 1f 3d
       -0.035923887 0.0051123393 0.049406175 0.039029833
000280 58 9f 45 3d f5 e3 dd bb 83 ab 0c 3d c7 54 dc 3c
       0.048247665 -0.0067715594 0.034343254 0.026895894
000290 95 3f e9 38 b6 8b 3a bc 08 4d 38 3d a6 f6 9b ba
       0.00011122149 -0.011385849 0.044995338 -0.0011899068
0002a0 22 1c 19 3d bc 93 2b bd e3 b6 e9 bb 8a 63 e7 ba
       0.037380345 -0.041888937 -0.0071323975 -0.0017653566
0002b0 92 a4 1f bd 7c 91 13 bd 49 d7 b1 3c 61 a3 2d 3d
       -0.038975306 -0.036027417 0.021709101 0.04239214
0002c0 80 72 b5 3c a4 ee 1b bd 4d 41 07 bd 80 d6 41 bd
       0.022149324 -0.038069382 -0.03302126 -0.047323704
0002d0 04 f9 95 3c d4 4c a7 3c 8a 03 cc bc e5 15 37 3d
       0.018307216 0.020422377 -0.024904031 0.044698615
0002e0 67 da a7 bc 10 59 04 3d 9b 1d 52 3b cb 43 03 3c
       -0.020489885 0.0323115 0.0032061103 0.008011769
0002f0 04 a1 23 3d 14 9c 10 3d 02 35 61 bc 7b 3f d5 3c
       0.03994848 0.035305098 -0.013745548 0.026031246
000300 72 70 91 bc 99 db 56 3d 24 e9 e4 bb fc 75 87 bc
       -0.017753813 0.05245552 -0.0069858003 -0.016535752
000310 67 e6 bc bb 6b 8a 66 bc ed 76 59 bc df 30 f6 bc
       -0.005764771 -0.014071087 -0.013272983 -0.0300526
000320 33 b5 c5 3c 05 f8 2c 3c 8f 08 d5 3c af c2 2c bd
       0.024134254 0.010557179 0.026005058 -0.042177852
000330 2a 27 19 3d 9f 76 14 bd f8 97 1d bd f6 b3 43 3d
       0.037390865 -0.03624594 -0.038475007 0.047779046
000340 41 c5 2c bd a5 c6 93 bc 8a bb 1d bd ce 88 9c 3c
       -0.042180303 -0.018039057 -0.03850893 0.019108202
000350 3a 8a 17 bd 46 8c 3a bd 3f 03 f6 ba 45 4f fe bc
       -0.036997057 -0.04554393 -0.0018769278 -0.031043658
000360 25 0f 23 bd 70 7a d5 bc 77 dc c0 3c 08 5f 5e bc
       -0.039809365 -0.02605936 0.023542626 -0.013572462
000370 29 b2 7a 3c 41 11 60 3d fd 8b 90 3c f1 57 69 3d
       0.015301266 0.054703955 0.017644877 0.056968633
000380 8a 54 47 bc 07 77 4c bd 07 ca 29 bd 54 c9 ee 3c
       -0.012166152 -0.0499182 -0.041452434 0.029148735
000390 58 b7 18 3c 41 06 21 3d 23 46 35 3d 05 8a 1e 3d
       0.009321056 0.039312605 0.04425634 0.038705844
0003a0 29 3f 41 bd c0 75 0b 3d e1 c0 8b ba 00 cd 23 3d
       -0.047179375 0.034047842 -0.0010662341 0.039990425
0003b0 6d 72 49 bd 67 55 e7 bc 08 47 b1 3b 07 78 1a bb
       -0.04918139 -0.028238965 0.005410079 -0.0023570077
0003c0 b8 b6 38 bd 19 c5 b3 3c 6a 37 f1 bb dd 2b 01 ba
       -0.04509613 0.02194457 -0.007361342 -0.00049274956
0003d0 9c 81 46 3d 5c 6f b9 3b 11 ff aa bc 9d 63 69 bb
       0.04846345 0.005659027 -0.020873578 -0.0035612353
0003e0 ce f5 20 3c 2c 89 e6 3c 96 8f 88 bc bf 45 4c 3d
       0.009824229 0.02814158 -0.01667003 0.049871203
0003f0 51 e2 b4 3c 20 31 43 bd 6b 98 20 bd 73 a7 25 3d
       0.022080572 -0.04765427 -0.039207857 0.040442895

fc1.bias f4 [60]
000000 b6 2a 38 bd 8c 3b 26 bd 55 f9 01 3c c5 ed b6 3c
       -0.044962607 -0.040584132 0.007932981 0.022330174
000010 08 4f b8 bc fb 68 3d bd e7 f5 0d bd 1e f4 fd bc
       -0.022498623 -0.046242695 -0.03465834 -0.031000193
000020 a4 70 aa 3b 32 9e f4 3c ae 95 07 3d 60 ba 24 bc
       0.005201416 0.02986059 0.03310173 -0.010054201
000030 0d c6 66 3b 43 63 1d bd 85 fa 12 3d 41 18 93 bc
       0.0035213262 -0.03842474 0.035883445 -0.017955901
000040 af 7c fe bc e8 41 e2 3c 5c bd 8e 37 0d 91 4d 3d
       -0.031065313 0.027619317 1.7015896e-05 0.05018716
000050 9e 3e e8 bc 6e fc b6 ba 34 18 27 bb 64 4e 4d bd
       -0.02835017 -0.0013960728 -0.0025496604 -0.050123587
000060 6a f6 1d bd 77 e8 2c bd 1f 73 3d 3d 91 37 ce bc
       -0.038565077 -0.042213883 0.046252366 -0.02517298
000070 76 44 5b bc 81 d3 22 bd 5d 41 29 3d 65 8b af bc
       -0.013383022 -0.039752487 0.0413221 -0.021428773
000080 d2 b2 13 3d c9 21 0d bd e7 ee f8 bc 3a 90 1a 3d
       0.03605921 -0.03445605 -0.030387355 0.0377352
000090 69 cc 81 3c ce 40 25 3d 40 1a 46 3c 03 be a6 bc
       0.01584454 0.040345006 0.012091219 -0.020354277
0000a0 2d 49 72 bc 9c 51 b5 bc cf e9 4e 3d b3 67 71 bc
       -0.014787954 -0.022133641 0.050515946 -0.0147341965
0000b0 47 9d 4c 3d 9e c9 3c bd 19 be 37 bd a4 61 21 bd
       0.04995468 -0.046090715 -0.044859026 -0.039399758
0000c0 d4 5c 83 bc 46 53 03 3d 25 7d e4 3c 74 c7 18 bd
       -0.016035475 0.032061838 0.027891705 -0.03729959
0000d0 70 e1 ae 3c 95 7f b8 bc 30 7a 3a bd 1c 39 42 bd
       0.021347731 -0.022521773 -0.045526683 -0.047417745
0000e0 ef d3 e5 bc d5 b5 98 3c eb d2 3e 3d 5a 64 f1 bc
       -0.02805516 0.018641392 0.046587866 -0.029466797

fc15.weight f4 [30, 60]
000000 ba c3 ce 3c 1f 15 b7 3b c1 e9 cc 3c 03 06 44 bc
       0.025239814 0.0055872346 0.025013806 -0.011964324
000010 99 f3 a5 bc f4 70 14 bd 0d 26 c3 bb 9f b3 c1 3c
       -0.020257758 -0.036240533 -0.0059554637 0.02364522
000020 49 1f 89 bc 5d 4f 18 bc 34 bd 13 39 cf 54 d2 bc
       -0.01673855 -0.009296265 0.00014089496 -0.025675206
000030 82 42 30 3c 5e cf a4 bc 2c 83 bd 3c 9b f5 ee 3b
       0.010758044 -0.020118412 0.023133837 0.007292462
000040 31 4e 13 3d 1f 2e f1 3c 5e d3 a3 bc e6 05 bc bc
       0.03596324 0.029440938 -0.019998249 -0.022952031
000050 74 60 2c 3d dd 38 4c 3d bd 49 25 3c 5d e3 af bc
       0.042084172 0.049858917 0.010088381 -0.02147072
000060 b4 ee 22 bd f9 80 fa bc c4 4c 9a 3c eb e5 89 bb
       -0.039778426 -0.030579077 0.018835433 -0.0042083166
000070 13 48 bf bc 73 1c 49 3c 14 05 f7 3c 18 8d 53 3d
       -0.023349797 0.012274849 0.030153789 0.05164823
000080 4b c3 e2 bc 96 d2 53 3c fe a3 08 bd f4 1c 9f bc
       -0.027681014 0.012928626 -0.03335952 -0.019422986
000090 dd 30 c1 3c 76 6e a5 3c 64 56 16 bc d2 20 ea 3c
       0.02358287 0.020194273 -0.009175871 0.028580103
0000a0 9f 8c 86 3a 80 51 f5 3c 1f 78 8a bc 14 55 ff 3c
       0.0010265297 0.029946089 -0.016902981 0.031168498
0000b0 33 a0 a2 ba b1 74 2d 3d 27 83 06 bd fb 07 3b 3b
       -0.0012407362 0.042347614 -0.03283992 0.0028538692
0000c0 70 90 cf 3b 60 52 02 3d e8 4b 70 bb bc d3 dc 3c
       0.006334357 0.03181684 -0.0036666337 0.026956432
0000d0 e8 f3 98 bc d7 5e 48 3d 0f fa 1c 3b f9 6a 80 3c
       -0.018670991 0.04891857 0.0023952757 0.015676009
0000e0 ab 52 f8 bb 1e 7b fd ba 2a 74 ed 3c 7d 35 d4 bb
       -0.007578214 -0.001933906 0.028986055 -0.006476103
0000f0 33 db 96 3b 00 68 7c 3d 11 f6 0c 3c a5 98 d7 bc
       0.0046037673 0.06162262 0.008603589 -0.026317904
000100 ed b0 b1 3c c8 46 d5 bc 3a 09 8e 3b 7d ab 43 bb
       0.02169081 -0.026034728 0.004334596 -0.0029856854
000110 5e 99 37 bb 6f f1 83 3c a8 25 32 3d 62 6d 1a 3d
       -0.0028014998 0.016106335 0.043492943 0.03770197
000120 62 6e aa 3c 0a 04 fa 3c 4c 54 17 3c 88 9b 64 3c
       0.020804588 0.030519504 0.009236407 0.013953097
000130 1c 81 16 3d cb d6 17 bd fd f4 1b 3d 39 ca 7c 3d
       0.036744222 -0.037070077 0.038075436 0.061716292
000140 ad 76 61 3d 6e 33 5c 3d 1a 1c 53 bc 7b c5 20 bd
       0.05504482 0.053759985 -0.012885118 -0.039250832
000150 bc 26 41 3d 5f 1d a8 3c bc 50 1c 3d 9e 10 1a bd
       0.04715608 0.020521818 0.03816293 -0.037613504
000160 72 bc 58 3d 47 f8 3a bc 0d bd 22 3c d0 5f bb bc
       0.05291409 -0.011411733 0.0099327685 -0.022872835
000170 d6 51 fc bc eb 83 27 3d 80 46 69 3d 1b 20 a4 bc
       -0.030800741 0.04089729 0.056952 -0.02003484
000180 9b 49 9b 3b 88 00 eb 3c 09 36 2b 3d 60 22 34 3c
       0.004738999 0.028686777 0.04179958 0.010994524
000190 64 c2 d8 bc 0b 57 12 bc 28 20 4a 3d d2 89 00 bc
       -0.02645988 -0.0089318855 0.049347073 -0.007845359
0001a0 00 7f 68 3d bb 33 a2 3c 2d 9e b5 3a a2 4a a6 bc
       0.05676174 0.019800058 0.0013856344 -0.02029926
0001b0 9d da 25 bc e2 78 e3 bc 04 8f 1d bd 3f 2b af bc
       -0.010122922 -0.027767602 -0.03846647 -0.021382926
0001c0 54 97 2e 3d 2d 93 84 3d 53 e7 21 3d 56 5e 0d 3d
       0.042624786 0.06473384 0.03952725 0.034513794
0001d0 39 83 18 3d 88 05 1b 3c f6 ad aa bc 8c 87 33 bc
       0.03723452 0.009461768 -0.020834904 -0.01095761
0001e0 8c 60 ea bc e3 92 01 3d 21 f9 08 bd 53 73 7f 3d
       -0.02861049 0.031634223 -0.033440713 0.06236584
0001f0 14 bf 2a bc 94 d1 4d 3d 1d 54 2d 3d 27 38 58 3d
       -0.010421533 0.050248697 0.042316545 0.052787926
000200 51 66 3c 3c 25 df 25 3d 23 52 63 3d 74 c0 c2 3c
       0.0114990035 0.04049601 0.055498254 0.02377341
000210 ac 8e 06 3d 1a 25 c0 3b 22 55 a5 bc 52 e4 43 3c
       0.032850906 0.005863798 -0.020182196 0.011956291
000220 66 9a d5 3c af a6 33 bd 2e 0c de 3c 05 3d be 3b
       0.0260746 -0.043860134 0.027105417 0.005805614
000230 66 7a 9e bc 90 47 d9 3b d0 f3 4d 3a d6 c9 06 bd
       -0.019345473 0.0066308454 0.000785646 -0.03290733
000240 ee 42 47 3d e9 4e 52 3b 9f b6 15 bd 75 d4 4c 3c
       0.048647813 0.003209049 -0.036551114 0.012501826
000250 a3 23 5e 3d e3 7c 37 3d 5c 96 bc bc c0 8b 5c 3d
       0.054233205 0.044796836 -0.023020916 0.053844213
000260 ff 1f 25 bb 3c 9d e7 3b f6 65 2c 3d c2 7a 5a bc
       -0.0025196073 0.0070683043 0.042089425 -0.013334932
000270 d2 82 2f 3d cd ff 9f 3c 08 5d 2c 3d e2 0d 55 3d
       0.04284937 0.019531155 0.04208091 0.052015193
000280 d1 95 d2 bc fc 3a 0d bb 15 20 2e 3d ab d5 1b 3d
       -0.025706204 -0.002155005 0.042511065 0.038045567
000290 43 fc 60 3d 4e 87 69 bc 21 79 c1 3c 44 aa 0c 3d
       0.054928076 -0.014253451 0.02361733 0.034342065
0002a0 f4 04 1b 3d 68 5b 44 3d f1 18 f1 3c 1f 3f 7d bc
       0.03784652 0.047938734 0.029430838 -0.015456944
0002b0 7c f8 81 3d 47 2b 67 3d d9 be 53 3a fd 92 1d 3d
       0.06346223 0.056437757 0.000807745 0.038470257
0002c0 64 66 83 ba cb bd ac bb 25 6c 71 3d a0 c2 dd 3c
       -0.0010025022 -0.0052716485 0.058941025 0.027070343
0002d0 45 98 7d bc 36 23 64 3d 51 78 0c bd b6 12 49 3d
       -0.015478198 0.055697642 -0.03429443 0.04909011
0002e0 c3 3a ff 3c 48 ed 21 3d 59 6c e2 3c af 8e 76 3d
       0.03115595 0.03953293 0.027639555 0.060194667
0002f0 34 89 2e 3d 91 61 51 3c 6a 44 dc 3b 20 36 4d 3c
       0.042611316 0.012779609 0.006722023 0.012525111
000300 c3 ef 8b bc a2 e5 dc 3c cb 1f 55 3d fa c3 96 bc
       -0.0170821 0.026964966 0.052032273 -0.018403996
000310 b6 e8 17 3a ed e9 11 3d de c1 67 3c 6d c6 66 3d
       0.00057948695 0.03562348 0.014145343 0.056341577
000320 70 a9 fd bc f8 e2 64 3d 0c d6 99 3c 76 78 03 3d
       -0.030964583 0.055880517 0.018778823 0.032097302
000330 d2 cd 18 3d 0a a9 ba bc c0 65 55 3b a7 e1 20 bd
       0.03730566 -0.022785682 0.0032561868 -0.0392777
000340 58 37 ba 3c 26 6b c2 3c 56 84 af 3c 4a 88 e2 3b
       0.022731468 0.023732733 0.021425407 0.0069132196
000350 1f 6e 5c bc 83 27 f3 ba be ba 7c 3c 7a 0a 36 3d
       -0.013453989 -0.0018551204 0.015425382 0.044443585
000360 7f 83 88 bc 30 b9 15 bd f6 b8 5b 3c 8c f5 7b 3c
       -0.016664265 -0.03655356 0.013410797 0.015378367
000370 b0 38 2c 3d 71 03 57 3d f5 70 4b bc 56 ba d9 bc
       0.04204625 0.052493516 -0.012417068 -0.02657811
000380 b1 f8 5d 3d a0 b1 c2 3c 00 e9 12 3d fa fd dc 3a
       0.05419225 0.023766339 0.035866737 0.0016860359
000390 3a 3e 52 3d 4c 8e 8e bb c3 38 48 3d 89 88 a8 3c
       0.051328875 -0.004350459 0.048882257 0.020572918
0003a0 5c bd 9e 3c 0a 29 3d 3d c4 21 39 3d 28 fe 28 3c
       0.019377403 0.046181716 0.045198217 0.010314502
0003b0 c7 e8 5d 3d 02 5f bf bc 7c b8 e4 bc 97 63 43 3d
       0.054177072 -0.023360733 -0.02792 0.0477024
0003c0 a2 5a 59 3c 57 c6 3b 3d cb ce 84 3c bf 96 a4 3c
       0.013266237 0.04584345 0.016211888 0.020091413
0003d0 ea e5 cc 39 85 2f af bc 77 79 06 3d 05 3f 71 3d
       0.0003908121 -0.021384964 0.03283068 0.05889799
0003e0 da 91 1b 3d 39 da 07 3d 87 07 e4 bc 60 b1 f9 bc
       0.03798089 0.033167098 -0.02783562 -0.030480087
0003f0 a3 cb 0b bd a3 d8 35 3d 9e f8 8d 3c 55 3c f9 bc
       -0.03412975 0.044396054 0.017330464 -0.030424276

fc15.bias f4 [30]
000000 7f dc b3 bc e4 70 1d 3d 5d 22 f2 bb 09 37 b6 ba
       -0.021955727 0.03843774 -0.0073893503 -0.00139019
000010 20 1a d6 3c c5 fe 2d 3d 1c 10 4d 3c 20 05 bb 3c
       0.026135504 0.042479295 0.012516048 0.022829592
000020 07 7b 44 bc 73 e9 93 3d 90 0d 6d 3d 57 68 8d 3d
       -0.011992223 0.07222261 0.057874262 0.06904667
000030 70 c7 4e 3d a1 d5 48 3c ce a6 82 3d e2 5b e9 3c
       0.050483167 0.012257964 0.06379472 0.028486196
000040 cd 63 8a bc 09 69 0e 3d 57 90 b4 bc 21 25 01 bc
       -0.016893292 0.034768138 -0.022041483 -0.007882387
000050 96 27 dc ba 71 cb 37 3b 37 41 65 3d 38 45 08 bd
       -0.0016796465 0.0028044845 0.055970397 -0.033269137
000060 51 19 d2 3c 99 f4 9f 3c 00 4f 25 3d db ac 69 3c
       0.025646837 0.019525813 0.040358543 0.014262403
000070 9a 1b 80 3d 62 e6 cf 3c
       0.062552646 0.02537841

fc2.weight f4 [4, 30]
000000 a7 47 94 3d 4c 6b 0c 3e 1c 61 0d 3e 3b ca 1e 3e
       0.07240229 0.13712806 0.13806576 0.15506832
000010 00 28 29 3e ed 9f 29 3e 15 fb fb 3d 5e 3e 02 3e
       0.16519165 0.16564913 0.123037495 0.12719104
000020 9f 76 f4 3d b9 69 d8 3d 0f b7 07 3e 8e e6 1f 3e
       0.11936688 0.1056704 0.13253425 0.15615293
000030 e7 b7 2b 3e 9e 25 e0 3d 60 cd d7 3d 2e 4f 32 3d
       0.16769372 0.10944675 0.10537219 0.043532543
000040 14 5d e6 3d a6 72 d9 3d db 8a b5 3d 58 70 ea 3d
       0.11248222 0.106175706 0.08864375 0.11447209
000050 cd 08 0c 3e cb 16 16 3e 13 cd 22 3e 50 4b f7 3d
       0.13675232 0.14657132 0.15898542 0.120749116
000060 79 e2 d0 3d e6 8d 10 3e cd 1d d5 3d 7c 69 19 3e
       0.10199446 0.1411663 0.10406075 0.14981645
000070 f4 e1 2c 3e f6 e5 0f 3e 66 a5 50 3e d1 e4 2a 3e
       0.1688307 0.14052567 0.20375594 0.16688849
000080 62 df 56 3e 9b 3c 5f 3e 2a 92 69 3e 37 e9 4d 3e
       0.20983651 0.21800463 0.22809663 0.20108496
000090 db 0a 19 3e c0 37 fc 3d b9 1f 37 3e 8f d0 64 3e
       0.14945547 0.12315321 0.17883195 0.22345184
0000a0 01 84 47 3e 2f 94 5d 3e 1e f0 27 3e 41 1d 1f 3e
       0.19483949 0.21638559 0.16400191 0.15538503
0000b0 d0 77 11 3e b1 ea b0 3d 15 a7 5b 3e 83 b8 11 3e
       0.14205861 0.08638514 0.21450455 0.14230542
0000c0 cb 2f 28 3e 37 88 5d 3e 39 15 16 3e 6d 9b 58 3e
       0.16424482 0.21633993 0.14656533 0.2115304
0000d0 36 6f 15 3e 67 c0 20 3e d1 9e 40 3e 83 43 40 3e
       0.14593205 0.15698396 0.18810584 0.18775754
0000e0 46 de 0e 3e 19 20 31 3e c7 2f 41 3e a3 6c 23 3e
       0.13951978 0.172974 0.18865882 0.1595941
0000f0 ab 23 ad 3d 10 f6 16 3e bc c1 0e 3e d5 76 11 3e
       0.08454069 0.14742303 0.13941091 0.14205487
000100 fa 0d 06 3e 93 70 92 3d 67 2d 8d 3d 66 2b 83 3d
       0.13091269 0.07150378 0.068934254 0.06404762
000110 b1 45 cf 3d 41 8a 22 3e a8 26 ab 3d 9c 23 1b 3e
       0.101207145 0.15873052 0.083569825 0.15150303
000120 85 a7 13 3e f9 ef a2 3d fa f6 a6 3d da 2b fe 3d
       0.14419372 0.079559274 0.08152576 0.12410708
000130 22 65 c4 3d e6 56 0b 3e 6c e3 96 3d a1 2a 27 3e
       0.09589602 0.13607368 0.07367596 0.16324855
000140 45 e6 88 3d f1 87 97 3d 95 79 de 3d b7 c5 f2 3d
       0.066845454 0.07398976 0.10863034 0.11854117
000150 81 b4 18 3e b5 a7 7f 3d 86 00 98 3d eb bb 17 3e
       0.14912607 0.062415797 0.07421975 0.14817779
000160 ab 99 26 3e 04 02 a2 3d b4 1c 23 3e 9f f9 5c 3e
       0.16269557 0.07910541 0.15928918 0.21579598
000170 15 83 33 3e 05 ae 30 3e 33 1c 6c 3e 91 c0 1b 3e
       0.17530473 0.17253883 0.23057632 0.15210177
000180 6b 10 5e 3e 74 d8 29 3e 5a 25 50 3e b1 eb 40 3e
       0.2168595 0.16586477 0.20326748 0.18839909
000190 2f 7a 30 3e db 8d 3a 3e 02 92 34 3e f3 f5 51 3e
       0.1723411 0.18218176 0.17633823 0.20503978
0001a0 36 aa 5b 3e e2 61 09 3e 06 1d 19 3e f7 35 67 3e
       0.21451649 0.13416246 0.14952478 0.2257918
0001b0 c1 d5 1e 3e 47 ac 31 3e 87 a3 3b 3e 86 ae 48 3e
       0.15511228 0.17350875 0.183241 0.19597825
0001c0 db 9f 15 3e 3c 9b 23 3e 57 3e fe 3d eb d5 12 3e
       0.14611761 0.15977186 0.12414234 0.14339416
0001d0 1f 9e 59 3e 6b 76 62 3e cf 56 54 3e 38 e1 0c 3e
       0.21251725 0.22115485 0.2073624 0.13757789

fc2.bias f4 [4]
000000 e1 64 46 3e 91 32 b5 3e 9c 17 7b 3e 8b 63 ae 3e
       0.1937442 0.35390142 0.24520725 0.3406032
