TD0v1e_4000.pt (torch, 12656 bytes, 4 tensors)

fc1.weight f4 [80, 28]
0	0x3d200010	0.03906256
1	0x3cf1cb6a	0.02951594
2	0xbcdca8e4	-0.026936002
3	0xbd2976bc	-0.041373
4	0xbc7d4178	-0.0154575035
5	0x3bbd449c	0.005776001
6	0xbb8e19c5	-0.004336568
7	0x3c7e23e7	0.0155114895
8	0xbcb88e3f	-0.022528766
9	0xbd4639ea	-0.048395075
10	0x3ac9b88a	0.001539008
11	0x3d3ffafe	0.046870224
12	0xbd47ea6c	-0.048807546
13	0x3cbc1e6b	0.022963723
14	0xbab07cb7	-0.0013464902
15	0x3d08167f	0.03322458
16	0xbcc868c1	-0.024464013
17	0x3d1d92e8	0.03847018
18	0xbcc47191	-0.023979934
19	0x3cbb7236	0.022881608
20	0x3cd4c317	0.025971932
21	0x3c249bf9	0.010046952
22	0xbcb362a0	-0.021897614
23	0xbc7ec75a	-0.015550459
24	0x3ddcf0f4	0.10788146
25	0xbd87adde	-0.066249594
26	0x3db41500	0.08793068
27	0xbd281049	-0.041031156
28	0x3d252c77	0.040325608
29	0xbcbd682d	-0.023120964
30	0x3c9e6bde	0.019338544
31	0xbcffa050	-0.031204373
32	0xbbfbd943	-0.0076858117
33	0xbca1ecb9	-0.019766198
34	0xbd28b7a8	-0.041190773
35	0x3ce2066e	0.027590957
36	0xbd2a12c3	-0.0415218
37	0x3d344625	0.044012208
38	0xbc56fb11	-0.013121382
39	0x3c21491d	0.009844092
40	0x3c2dc524	0.010606084
41	0xbc7a438c	-0.0152748935
42	0xbc354bdc	-0.01106545
43	0xbd059fbf	-0.03262305
44	0x3c2c5e3a	0.010520512
45	0x3c8f63c5	0.017503629
46	0x3d0af5d0	0.03392583
47	0x3cb11155	0.02161471
48	0xbcf1b88f	-0.02950695
49	0x3d212d72	0.03934998
50	0xbcf97a0b	-0.030453702
51	0x3b3cf562	0.0028832783
52	0x3e3c2163	0.18372111
53	0xbe1a0158	-0.15039575
54	0x3e01cce4	0.12675816
55	0xbe10fa39	-0.14157952
56	0xbc0ce3b5	-0.008599211
57	0x3bff1d33	0.0077854632
58	0xba037239	-0.0005014274
59	0xbd27a20f	-0.040926035
60	0xbd22354e	-0.039601617
61	0x3c8d5069	0.017250257
62	0x3d1d9678	0.038473576
63	0xbd49e3d3	-0.049289536
64	0x3d1567c9	0.03647593
65	0xbd3d24af	-0.046177562
66	0x3d315362	0.04329241
67	0x3ccbf646	0.024897706
68	0x3c9b7161	0.018974962
69	0x3d147a19	0.036249254
70	0x3d15b6dd	0.036551345
71	0xbd25b38b	-0.04045443
72	0x3c187f75	0.009307732
73	0xbd01e28c	-0.031710193
74	0xbd425f7f	-0.047454353
75	0x3cb59bc6	0.022169005
76	0xbc2a36d9	-0.010389053
77	0xbc91177d	-0.017711395
78	0x3d043e6a	0.032286085
79	0x3d4ab2ed	0.049487043
80	0x3dcdf145	0.10055784
81	0xbdba5f75	-0.09100238
82	0x3ded57a9	0.115889855
83	0xbd0b6205	-0.034029026
84	0xbd16a1c4	-0.036775365
85	0xbd1ddfad	-0.038543392
86	0x3c4c09a4	0.01245347
87	0x3c8c059e	0.017092522
88	0x3ce60e6e	0.028083052
89	0xbc22bb68	-0.009932376
90	0x3c8b72a2	0.017022435
91	0x3cf886a9	0.030337648
92	0xbcfaa7f7	-0.03059767
93	0x3d28d70f	0.04122072
94	0x3c741984	0.0148986615
95	0xbd28e902	-0.04123784
96	0x3d158517	0.036503877
97	0xbcfd6076	-0.030929785
98	0x3d160617	0.0366269
99	0xbcfed6c3	-0.031108266
100	0xba82787f	-0.0009954124
101	0xbd008215	-0.031374056
102	0x3b6465f0	0.0034850799
103	0x3d189d4b	0.03725938
104	0x3d3676a7	0.04454675
105	0xbb9c788c	-0.0047751125
106	0x3d11aa45	0.035562772
107	0x3d44614d	0.047944356
108	0x3d196e34	0.037458614
109	0xbcfa3d69	-0.03054686
110	0x3d7fddf4	0.06246753
111	0x3c222448	0.009896345
112	0xbd371907	-0.044701602
113	0xbcad3fe2	-0.021148626
114	0xbd4b9599	-0.049703214
115	0xbcac2938	-0.021015748
116	0xbcfd8904	-0.030949123
117	0xbd2cf598	-0.042226404
118	0x3bec84d9	0.007217985
119	0x3b84b936	0.004050399
120	0x3cf86788	0.030322805
121	0xb8a68988	-7.941114e-05
122	0x3d06bc09	0.032894168
123	0xbd3cef2a	-0.046126522
124	0xbd4407cd	-0.047859002
125	0x3cb7616f	0.022385327
126	0x3d0ec026	0.034851216
127	0x3c1fa082	0.009742858
128	0xbb955739	-0.004557517
129	0xbd137037	-0.03599569
130	0xbd2ef3f5	-0.042713124
131	0xbd300655	-0.04297479
132	0xbc35211c	-0.011055257
133	0xb9a21730	-0.00030916324
134	0xbd29a282	-0.041414745
135	0x3c7a2732	0.015268134
136	0x3e214c50	0.15751767
137	0xbdc19623	-0.094524644
138	0x3da01ad0	0.07817614
139	0xbddab7c9	-0.106795855
140	0xbc545900	-0.012960672
141	0x3c81b2c1	0.015832307
142	0xbca95ea9	-0.02067502
143	0xbd12c46e	-0.03583186
144	0x3ca2dd57	0.019880934
145	0xbb2e25f0	-0.0026572905
146	0xbc991163	-0.018685048
147	0x3c8e6211	0.017380746
148	0x3d3156f8	0.04329583
149	0xbb1cbe50	-0.0023917146
150	0xbd4a79dc	-0.04943262
151	0x3d391fcf	0.04519635
152	0xbcd8af1c	-0.026450686
153	0x3cbb4437	0.022859676
154	0x3d3c8605	0.04602625
155	0xbc7ed355	-0.015553315
156	0xbd3d2140	-0.046174288
157	0xbcb3d56b	-0.021952352
158	0x3cc2cce5	0.023779342
159	0xbc8a3fbf	-0.0168761
160	0x3d47491e	0.048653714
161	0x3c53c99a	0.0129264835
162	0xbc91da2a	-0.017804224
163	0xbc6abdd7	-0.014327488
164	0x3d289669	0.041159067
165	0x3d66b4f6	0.05632492
166	0xbad3ff7d	-0.0016174164
167	0x3ccc8657	0.024966402
168	0xbd1d6535	-0.038426597
169	0xba4cb34b	-0.0007808699
170	0xbd072853	-0.03299744
171	0xbd0cce66	-0.034376524
172	0x39b3ac32	0.00034269836
173	0x3d202f83	0.03910781
174	0xbd048804	-0.032356277
175	0x3a4e18d3	0.00078619755
176	0xbcd3be06	-0.025847446
177	0x3ccfcb54	0.02536551
178	0xbd4aa07a	-0.04946945
179	0xbc89b742	-0.016811017
180	0x3d2e8ad0	0.04261285
181	0xbd44f3de	-0.048084132
182	0xbc8eca4d	-0.017430449
183	0xbc3d0ac1	-0.011538208
184	0x3cc567df	0.024097381
185	0xbcf8bfad	-0.030364836
186	0x3c6691f6	0.014072886
187	0xbc7452b4	-0.014912296
188	0x3ce08ac0	0.027409911
189	0x3c6c00eb	0.014404516
190	0x3c88e226	0.016709398
191	0xbcdb3a09	-0.026761072
192	0x3e5c4fc3	0.21514802
193	0xbe3aa3df	-0.18226574
194	0x3e4de047	0.20105086
195	0xbe7aa69d	-0.2447762
196	0x3d0826b6	0.033240043
197	0xbcc65a20	-0.024212897
198	0x3d49bc54	0.04925187
199	0xbcc8cd90	-0.024512082
200	0x3cd0dee6	0.025496911
201	0xbd31446a	-0.043278135
202	0x3c7d22e2	0.015450211
203	0xbca2bfb8	-0.01986681
204	0xbae6e6f5	-0.0017616438
205	0xbd3756d5	-0.044760544
206	0x3d1109be	0.03540968
207	0x3ca1ee2a	0.019766886
208	0x3d08ccc9	0.033398423
209	0xbc228601	-0.009919644
210	0x3d0be01a	0.034149267
211	0xbd19a754	-0.037513092
212	0xbc6e7ed1	-0.014556603
213	0xbb629f26	-0.0034579723
214	0xbc625685	-0.013814573
215	0x3d3021b4	0.04300089
216	0x3d246e92	0.04014451
217	0x3d05d45c	0.032673225
218	0x3c9e878d	0.019351745
219	0x3b5457cb	0.0032400961
220	0xbe061ccd	-0.13096924
221	0x3e22598c	0.15854472
222	0xbe138a00	-0.14408112
223	0x3dcc8130	0.09985578
224	0x3d4f3d3f	0.05059552
225	0x3d117534	0.035512164
226	0x3d2f6322	0.04281915
227	0xbae0ea1a	-0.0017159611
228	0x3cd96f66	0.026542377
229	0x3d44e6e8	0.04807177
230	0x3c0da213	0.008644599
231	0x3cc7faa3	0.024411505
232	0x3d09fb77	0.03368708
233	0xbcd956fd	-0.026530737
234	0x3d351713	0.04421146
235	0x3c6bcdcd	0.014392328
236	0x3c92c4ac	0.017916046
237	0x3cc088e4	0.023502775
238	0x3c92615f	0.017868696
239	0xbd0fc252	-0.035097428
240	0x3cdee225	0.027207443
241	0xba3829e5	-0.0007025286
242	0x3bdd040a	0.0067448663
243	0x3d40ad2b	0.047040146
244	0xbc8b6a23	-0.017018383
245	0x3d353751	0.044242207
246	0xbbe3f322	-0.006956474
247	0xbc212501	-0.009835483
248	0xbe0326fa	-0.12807837
249	0x3df445ae	0.11927353
250	0xbdd19178	-0.10232824
251	0x3da19e7a	0.07891555
252	0x3d37d3ad	0.044879604
253	0x3d062071	0.032745782
254	0x3c977a09	0.018490808
255	0x3d26cee0	0.040724635

fc1.bias f4 [80]
0	0x3d093eb9	0.033507083
1	0xbd05796a	-0.032586493
2	0xbb88222f	-0.0041544656
3	0xbb3b158a	-0.0028546774
4	0x3ce72bd0	0.028219134
5	0xbd298a4d	-0.04139166
6	0x3d1b565d	0.03792416
7	0x3c4e878e	0.012605561
8	0xbca4a2c5	-0.020097146
9	0xbce49d0a	-0.027906913
10	0x3d34b9f7	0.044122662
11	0x3c7909f5	0.015200128
12	0xbc85309e	-0.016258534
13	0xbd2c2c37	-0.042034354
14	0x3c68969e	0.014196066
15	0xbd2e7643	-0.042593252
16	0x3aa05a03	0.0012233857
17	0xba6ff23f	-0.0009153224
18	0xbbe4394d	-0.0069648386
19	0x3c97ed1e	0.018545683
20	0xbc29a0d9	-0.0103532905
21	0x3cc7d25a	0.024392296
22	0xbd0f95f7	-0.035055127
23	0xbc51d98e	-0.012808217
24	0x3cc0d868	0.02354069
25	0x3d2a1e2d	0.041532684
26	0xbbae50ce	-0.0053196913
27	0xbcb40f6d	-0.021980012
28	0x3cb32f2b	0.021873077
29	0x3c342939	0.010996156
30	0xbc6760a9	-0.014122167
31	0x3cae0867	0.02124424
32	0xbd750260	-0.059816718
33	0x3c6e5962	0.014547678
34	0xbd09ddce	-0.033658795
35	0x3c310405	0.010804181
36	0x3d22b488	0.03972295
37	0xbd50caf6	-0.05097481
38	0xbc1ab29f	-0.009442001
39	0xbd166da1	-0.036725644
40	0xbc50f9be	-0.012754856
41	0x3c9d7d98	0.019224927
42	0xbcbf26ba	-0.023333896
43	0xbc6bf4d2	-0.014401631
44	0x3d777375	0.060412843
45	0xbbc5b94b	-0.0060340515
46	0xbca5ffc3	-0.020263558
47	0xbcddfb25	-0.027097294
48	0xbcfb42f1	-0.030671569
49	0xbcfb39a2	-0.03066713
50	0xbc7f18e5	-0.0155699
51	0xbd37fc86	-0.04491856
52	0xbd6ced82	-0.057843693
53	0x3c485bbc	0.012228902
54	0xbbbcc5f0	-0.0057609007
55	0x3c00b10b	0.00785471
56	0xbd00bb83	-0.031428825
57	0x3b8231b2	0.0039732093
58	0xbca069b1	-0.019581648
59	0xbc89cc0b	-0.016820928
60	0x3d09f9c1	0.03368545
61	0x3d43f8e8	0.047844797
62	0x3d18ff60	0.03735292
63	0xbcfac1f8	-0.03061007
64	0x3bafb578	0.005362209
65	0x3ceba19a	0.028763581
66	0x3c307d44	0.010772053
67	0x3bcc57df	0.006236061
68	0xbca88133	-0.02056942
69	0x3d1566aa	0.03647486
70	0xbba95dbe	-0.0051686456
71	0x3cd0bb00	0.025479794
72	0x3bca5143	0.006174238
73	0x3b201acf	0.0024430042
74	0xbd51dc5e	-0.05123555
75	0x3d2cb3d7	0.042163696
76	0xbd2a9413	-0.04164512
77	0xbb582503	-0.0032981045
78	0xbd213ef2	-0.03936667
79	0x3c32c2c7	0.010910696

fc2.weight f4 [4, 80]
0	0xbdfc4f6e	-0.123198375
1	0xbe80386c	-0.25043046
2	0xbe34badc	-0.17649406
3	0xbdf5cbe0	-0.12001777
4	0xbe3272e6	-0.17426643
5	0xbd9d48a9	-0.076798744
6	0xbec26500	-0.37967682
7	0x3dcf6fd8	0.101287544
8	0x3e042f54	0.12908679
9	0xbe715ea9	-0.23571266
10	0xbe0e2397	-0.13880764
11	0xbe2c2d1d	-0.16814084
12	0xbc9865c5	-0.018603215
13	0x3e7a1131	0.2442062
14	0x3db0f44c	0.08640346
15	0x3e89c12f	0.269052
16	0x3e571d54	0.21007282
17	0x3e35138f	0.17683242
18	0xbc99ac0d	-0.018758798
19	0xbebc5080	-0.36780167
20	0x3e464650	0.1936276
21	0x3e85d97e	0.26142496
22	0x3e2ddb6e	0.16978237
23	0xbdaf7d7b	-0.085688554
24	0xbd614882	-0.05500079
25	0xbeda2f35	-0.4261414
26	0xbe9fc3ef	-0.31204173
27	0x3e3f71b6	0.18695721
28	0x3e6bd54f	0.2303059
29	0xbea3b883	-0.3197671
30	0xbed45fbb	-0.41479287
31	0x3e71949d	0.23591848
32	0x3e799f94	0.2437728
33	0x3d871e84	0.06597617
34	0xbe299fd1	-0.16564871
35	0xbea7c141	-0.3276463
36	0xbebf76a9	-0.37395218
37	0x3e0d346c	0.13789529
38	0x3e646eae	0.22307846
39	0x3d1cd898	0.038292497
40	0xbea2fa40	-0.3183155
41	0xbe1424db	-0.14467184
42	0x3e0f55af	0.1399753
43	0x3dbdb4ce	0.092630014
44	0xbea625cc	-0.32450712
45	0x3e690cb5	0.22758754
46	0x3eb6d662	0.35710436
47	0x3e32cbdb	0.17460577
48	0x3e7d6eef	0.24749349
49	0x3d79cbdd	0.060985435
50	0x3e07b214	0.13251525
51	0x3e48ca49	0.19608416
52	0x3e83bf71	0.25731996
53	0x3dcb0faf	0.09915101
54	0x3db19bcb	0.08672293
55	0xbcaf393c	-0.021389596
56	0xbd98df48	-0.074644625
57	0x3e9dce1b	0.30821308
58	0x3e27c948	0.16385376
59	0xbde7bbbf	-0.113151066
60	0xbebd3c1c	-0.36959922
61	0xbe7b07bd	-0.2451467
62	0xbd140d98	-0.036145777
63	0x3e719cf0	0.23595023
64	0x3e3947c8	0.18093789
65	0x3dbae1aa	0.09125073
66	0x3d4aea88	0.049540073
67	0x3e973492	0.29532295
68	0x3e16ab70	0.14713836
69	0x3e80ffcd	0.2519516
70	0x3e02d1da	0.12775365
71	0x3e7ef190	0.24896836
72	0xbddb1e20	-0.10699105
73	0x3d014859	0.031563137
74	0x3e7a36c6	0.24434957
75	0x3c335ac5	0.010946934
76	0x3e81087b	0.25201783
77	0xbe71bd69	-0.2360741
78	0xbcd4114b	-0.025887152
79	0xbe4d058f	-0.20021652
80	0xbdf8b4a6	-0.12143831
81	0xbe47fe8f	-0.195307
82	0xbdb01824	-0.085983545
83	0xbd22a641	-0.039709333
84	0xbe22a051	-0.15881468
85	0xbd0faef9	-0.035078976
86	0xbe5b7a8f	-0.21433471
87	0x3dc34728	0.09535056
88	0x3bf6c0ab	0.007530292
89	0xbe24f77e	-0.16110036
90	0xbdaa0eee	-0.08303629
91	0xbd9239ce	-0.071399316
92	0x3cc62427	0.02418716
93	0x3e19d95e	0.15024325
94	0x3d489203	0.048967373
95	0x3e4b0b66	0.19828567
96	0x3e038454	0.12843448
97	0x3ddb9c41	0.107231624
98	0xbd54b19a	-0.051927187
99	0xbe58ed90	-0.21184373
100	0x3df01246	0.117222354
101	0x3e07791c	0.13229793
102	0x3e13fb2d	0.14451285
103	0xbd379aca	-0.044825353
104	0xb82f7708	-4.1834108e-05
105	0xbe573733	-0.2101715
106	0xbe7841d1	-0.24243857
107	0x3e0d42cb	0.13795011
108	0x3e42c950	0.19022107
109	0xbe28568a	-0.16439262
110	0xbe877c52	-0.26462036
111	0x3e1507ac	0.14553708
112	0x3e2bea2d	0.1678855
113	0x3e12f1b8	0.14350021
114	0xbdf3bc8a	-0.11901195
115	0xbe5bb63c	-0.21456236
116	0xbe2ebc5f	-0.17064045
117	0x3db4b355	0.08823267
118	0x3e3299da	0.17441502
119	0x3deb14fa	0.1147861
120	0xbe81c455	-0.25345102
121	0xbe1bd1e6	-0.15216789
122	0x3d799646	0.060934328
123	0x3dd69f28	0.104795754
124	0xbe7b7b6d	-0.24558802
125	0x3e10e0ca	0.1414825
126	0x3e25125e	0.16120288
127	0x3da9ec35	0.08297006
128	0x3dc48bbf	0.09596967
129	0x3da98da0	0.08278966
130	0x3de01e34	0.10943261
131	0x3d66047c	0.05615662
132	0x3de1b5ed	0.11021028
133	0x3ddacaf4	0.106832415
134	0x3d65822f	0.056032356
135	0x3c1b32ff	0.009472608
136	0xbdbed572	-0.09318055
137	0x3e055d4e	0.13023874
138	0x3e22f408	0.15913403
139	0xbdc8f94b	-0.09813174
140	0xbe8a695c	-0.27033508
141	0xbdd0d8d7	-0.10197609
142	0x3d932ca4	0.07186249
143	0x3e1f6ccb	0.15568845
144	0x3e035fbe	0.12829491
145	0x3db14e50	0.08657515
146	0x3c027101	0.007961513
147	0x3e4da430	0.20082164
148	0x3de1584d	0.1100317
149	0x3e0c2c10	0.13688684
150	0x3dd5857f	0.10425853
151	0x3e325523	0.1741529
152	0x3c08e96c	0.008356433
153	0x3c812aca	0.015767474
154	0x3e010c1c	0.12602276
155	0xbb90e7e3	-0.0044221743
156	0x3e0ce546	0.13759336
157	0xbe50c87d	-0.2038898
158	0x3d01071b	0.031500917
159	0xbe29aa9d	-0.1656899
160	0xbe27b7cd	-0.16378708
161	0xbe8c0d76	-0.2735402
162	0xbe3f8364	-0.18702465
163	0xbd7bd0d7	-0.061478462
164	0xbe4e7407	-0.20161448
165	0xbd56fc53	-0.05248673
166	0xbeba0b96	-0.36336964
167	0x3e0a8f04	0.13531119
168	0x3ddbc8cb	0.107316576
169	0xbe7030a3	-0.23456053
170	0xbd89e712	-0.06733526
171	0xbe171134	-0.14752656
172	0xbcf7b05a	-0.030235458
173	0x3e9484a0	0.29007435
174	0x3d9b4c5d	0.075829245
175	0x3e8a65fe	0.2703094
176	0x3e679a7f	0.2261753
177	0x3e25382a	0.16134706
178	0x3c504e5c	0.012713995
179	0xbead2c24	-0.3382274
180	0x3e6c3b5b	0.23069517
181	0x3e8106a6	0.25200385
182	0x3e583412	0.21113613
183	0xbdd6049e	-0.104500994
184	0xbcc32ca1	-0.023824992
185	0xbee97e0f	-0.45603988
186	0xbea1ee3c	-0.3162707
187	0x3e562918	0.20914114
188	0x3e848818	0.2588508
189	0xbe9b9ebc	-0.30394542
190	0xbed4ef0d	-0.4158863
191	0x3e2b1ca6	0.16710147
192	0x3e8c67e2	0.27423006
193	0x3e11d492	0.14241245
194	0xbe620bf1	-0.22074868
195	0xbe9a71d3	-0.30164966
196	0xbea4a421	-0.3215647
197	0x3e00e196	0.12586054
198	0x3e6adf81	0.22936822
199	0x3d7cc93a	0.061715342
200	0xbeace5ea	-0.3376916
201	0xbe083857	-0.13302742
202	0x3dde06d2	0.108411446
203	0x3d8e96a9	0.0696233
204	0xbe9a2293	-0.30104503
205	0x3e6eef5a	0.23333493
206	0x3eb56d49	0.3543494
207	0x3de590ed	0.11209283
208	0x3e7dc56a	0.24782339
209	0x3d2abc37	0.041683402
210	0x3da78c55	0.08181063
211	0x3e1f065e	0.15529773
212	0x3e42e0ea	0.1903111
213	0x3df6d412	0.12052168
214	0x3d1f5e90	0.03890854
215	0xbd5db504	-0.054127708
216	0xbd457937	-0.048211303
217	0x3e9a352f	0.301187
218	0x3e6b86e8	0.23000681
219	0xbdeedaf9	-0.116628595
220	0xbeaa5823	-0.33270368
221	0xbe6dd3d3	-0.23225336
222	0x3d32ef2d	0.043685127
223	0x3e3f4393	0.18678121
224	0x3e5a5329	0.21320786
225	0x3e211ad6	0.15732893
226	0x3cf4f8d5	0.029903809
227	0x3e8ed07c	0.27893436
228	0x3e106803	0.14102177
229	0x3e610f0b	0.21978395
230	0x3e3885e8	0.18019831
231	0x3e48b8de	0.19601771
232	0xbd8f8375	-0.07007495
233	0xbd6a72d6	-0.057238422
234	0x3e6b6f97	0.22991787
235	0x3cde40ed	0.027130568
236	0x3e8cff77	0.27538654
237	0xbe93aba2	-0.28841883
238	0xbcb3cb3a	-0.021947492
239	0xbe847205	-0.2586824
240	0xbdd37bfd	-0.10326383
241	0xbdbf7782	-0.09348966
242	0xbda6d9e4	-0.08147028
243	0xbdaf155d	-0.085489966
244	0xbde02d7b	-0.10946175
245	0x3c09b93d	0.008405981
246	0xbe0dd880	-0.1385212
247	0x3d859e2e	0.06524311
248	0x3a11bea1	0.0005559717
249	0xbe5315bb	-0.20613758
250	0xbdf52fbe	-0.11971997
251	0xbe1d4b50	-0.1536076
252	0x3b8f7868	0.004378367
253	0x3e452383	0.19251828
254	0x3e09cc83	0.13456921
255	0x3e406e9c	0.18792194

fc2.bias f4 [4]
0	0xbe22cbc1	-0.15898038
1	0xbd19bcf8	-0.03753373
2	0xbe53f8bf	-0.20700358
3	0xbd997c8b	-0.07494458
