TD0v1e_35000.pt (torch, 12664 bytes, 4 tensors)

fc1.weight f4 [80, 28]
-0.021600585 0.026716359 0.010676761 -0.01882328 -0.031366896 0.03548301 0.040300068 0.035005897
0.020990899 -0.019228896 -0.042856146 -0.048426755 0.016604017 0.014751725 0.0027186256 0.0076845414
0.03880167 -0.041137714 -0.040974535 -0.021282421 -0.026427878 -0.029601062 0.017790267 -0.061178982
-0.37292036 0.3656285 -0.3184807 0.369374 -0.01622162 -0.031161588 -0.033042345 0.036174797
-0.037522364 0.031756196 0.025718914 -0.028596582 0.024511106 0.011230601 0.039426524 -0.0018448873
0.03641575 0.014015774 0.009709783 0.053392753 0.02148075 -0.0061019124 -0.016095415 0.05468694
0.00059557275 0.0145675205 -0.007535427 0.046798922 0.4170496 -0.4840005 0.44271457 -0.42523062
0.027151836 0.022813827 -0.022534955 0.013678871 -0.022025183 -0.032464847 0.04235823 0.002816161
0.014954508 0.030810129 -0.0014105059 -0.047742456 -0.0005601568 -0.0057592196 -0.038154196 0.016594997
-0.016211241 0.046725653 -0.019993326 -0.0013232237 -0.010302288 0.025283318 -0.034723733 -0.020117918
-0.28072685 0.3303795 -0.26404077 0.24995533 -0.012769837 -0.024294712 0.037206944 -0.035515655
-0.042906664 -0.033205807 -0.015215707 -0.02054775 0.004379526 0.04247213 -0.046788413 -0.037170947
0.042213373 0.025734767 -0.023017492 -0.040662598 -0.0071726637 0.021835256 0.040674582 0.015688425
-0.025931891 0.05348882 0.06758353 -0.0018289582 0.42553192 -0.41982552 0.4125563 -0.47177127
0.0061383247 0.036457893 -0.0025707204 0.013283999 0.02323654 0.00053296104 -0.0466451 0.048776858
0.021015754 0.0024791365 -0.032299865 0.025005301 -0.045565393 0.013183026 -0.031454675 0.0026105877
0.0070297644 0.016902959 -0.0422855 0.023962205 -0.03935213 0.025556248 0.0076004434 0.012879322
-0.3243291 0.30913517 -0.34689197 0.39587364 -0.008996856 -0.02627568 0.004623749 -0.0019342386
-0.03038844 0.029034898 0.036735896 0.004725681 0.028231664 -0.015730739 -0.039689984 0.02585353
-0.012696003 -0.020418035 0.017168969 -0.046532523 0.041488986 -0.005672979 0.022794362 0.038308688
0.028043034 0.02524667 0.011913719 -0.060129512 -0.29908 0.34858873 -0.33475244 0.31771705
-0.023790423 0.0150034595 0.022140654 -0.040642813 0.034318414 -0.033343088 -0.031540338 -0.030755833
-0.028198028 0.026915906 0.021596098 0.0002472397 0.013566342 -0.011415991 -0.0052346564 -0.0015734602
-0.02105408 -0.018290985 -0.047338307 -0.015578295 0.047666553 -0.008029377 -0.004289486 -0.0036186182
-0.12443209 0.1061386 -0.167263 0.18231931 0.018860921 0.02544463 0.051737167 -0.020171713
-0.03418058 0.0076353364 -0.00048031073 -0.043635372 0.030732863 -0.021753883 -0.036808852 0.018345319
-0.013042963 -0.04804423 -0.027157104 0.040748473 -0.037398975 0.024426766 0.008502144 -0.04369344
0.013455471 -0.03411438 -0.053121775 0.0069690016 -0.35095343 0.37486598 -0.36345515 0.37728515
0.037232775 -0.009147394 -0.011425324 -0.00632586 0.051875684 -0.023361009 -0.03376295 -0.04454479
-0.045728557 -0.0010514803 0.042630013 0.0032727174 -0.024192372 -0.032853708 0.03206117 -0.033739638
-0.012935807 -0.018532492 0.03179842 -0.05151326 0.0068575004 -0.024715422 -0.02780017 0.021515658
-0.40155485 0.4029091 -0.38257954 0.4284835 0.014100487 0.015671177 0.016182788 0.035791066
00000000: b6f3 b0bc 44dc da3c 95ed 2e3c 4833 9abc
00000010: 937a 00bd a256 113d af11 253d 5862 0f3d
00000020: 1bf5 ab3c eb85 9dbc ed89 2fbd 225b 46bd
00000030: 2605 883c 38b1 713c f82a 323b 9bce fb3b
00000040: 80ee 1e3d 0580 28bd ead4 27bd 7958 aebc
00000050: 477f d8bc ed7d f2bc e5bc 913c d096 7abd
00000060: 6bef bebe a933 bb3e e70f a3be 971e bd3e
00000070: 34e3 84bc 9646 ffbc 6957 07bd 062c 143d
00000080: 0db1 19bd c912 023d 79b0 d23c 6143 eabc
00000090: 84cb c83c 8e00 383c b57d 213d 25d0 f1ba
000000a0: ae28 153d 6ba2 653c c815 1f3c 5cb2 5a3d
000000b0: 66f8 af3c 8df2 c7bb 88da 83bc 6aff 5f3d
000000c0: 3620 1c3a 9cac 6e3c beeb f6bb 3ab0 3f3d
000000d0: 8687 d53e eace f7be 7cab e23e d4b7 d9be
000000e0: 876d de3c 10e4 ba3c 3a9b b8bc 581d 603c
000000f0: 286e b4bc dcf9 04bd d37f 2d3d 578f 383b
00000100: c103 753c 8665 fc3c b9e0 b8ba 988d 43bd
00000110: 7dd7 12ba d6b7 bcbb 9347 1cbd 3bf2 873c
00000120: 70cd 84bc 6663 3f3d 0bc9 a3bc 0570 adba
00000130: eeca 28bc f61e cf3c 793a 0ebd 55ce a4bc
00000140: 6ebb 8fbe 8027 a93e 5a30 87be 4af4 7f3e
00000150: 9438 51bc b405 c7bc 4f66 183d dd78 11bd
00000160: e6be 2fbd d002 08bd 4d4b 79bc c153 a8bc
00000170: 2082 8f3b 42f7 2d3d 35a5 3fbd 9040 18bd
00000180: eee7 2c3d b8d1 d23c 2e8f bcbc d38d 26bd
00000190: aa08 ebbb dadf b23c 649a 263d 0385 803c
000001a0: 1e6f d4bc 1817 5b3d 3c69 8a3d a7b9 efba
000001b0: 52df d93e 5ff3 d6be 943a d33e 018c f1be
000001c0: 0024 c93b df54 153d 8879 28bb 21a5 593c
000001d0: 8e5a be3c 69b6 0b3a ef0e 3fbd 3eca 473d
000001e0: 3b29 ac3c 0279 223b dd4c 04bd ebd7 cc3c
000001f0: c7a2 3abd 9efd 573c 9ed6 00bd 6516 2b3b
00000200: f059 e63b 1378 8a3c 8f33 2dbd 634c c43c
00000210: b32f 21bd 565b d13c 240d f93b cb03 533c
00000220: 770e a6be f746 9e3e d39b b1be f3af ca3e
00000230: 8d67 13bc 1840 d7bc d182 973b 4786 fdba
00000240: 2df1 f8bc 98da ed3c 6178 163d e3d9 9a3b
00000250: 1746 e73c c0dd 80bc f791 22bd c8ca d33c
00000260: e502 50bc b943 a7bc f0a5 8c3c e398 3ebd
00000270: 5bf0 293d 66e4 b9bb 3ebb ba3c 92e9 1c3d
00000280: 81ba e53c 1bd2 ce3c c231 433c 5d4a 76bd
00000290: 0421 99be 397a b23e ac64 abbe cfab a23e
000002a0: 22e4 c2bc 12d1 753c 5160 b53c 1479 26bd
000002b0: 7791 0c3d c392 08bd 7130 01bd a8f3 fbbc
000002c0: 8dff e6bc bf7e dc3c 4dea b03c f39f 8139
000002d0: 5d45 5e3c 230a 3bbc 7b87 abbb 903c ceba
000002e0: 9b79 acbc fad6 95bc d0e5 41bd 1b3c 7fbc
000002f0: 013e 433d a68d 03bc d18e 8cbb 5726 6dbb
00000300: 40d6 febd 325f d93d fe46 2bbe eab1 3a3e
00000310: 3882 9a3c 4271 d03c 5aea 533d 263f a5bc
00000320: f000 0cbd d831 fa3b 37d2 fbb9 01bb 32bd
00000330: 7cc3 fb3c 3335 b2bc e1c4 16bd ec48 963c
00000340: 27b2 55bc 07ca 44bd 9378 debc dfe7 263d
00000350: ab2f 19bd a41a c83c 944c 0b3c e4f7 32bd
00000360: 5674 5c3c 85bb 0bbd 3896 59bd 395c e43b
00000370: 2bb0 b3be 6fee bf3e cb16 babe 852b c13e
00000380: 6581 183d f4de 15bc 4831 3bbc 2949 cfbb
00000390: 997b 543d 965f bfbc 054b 0abd 9974 36bd
000003a0: de4d 3bbd d3d1 89ba cf9c 2e3d 167b 563b
000003b0: 152f c6bc 9c91 06bd 9352 033d 9332 0abd
000003c0: b5f0 53bc 74d1 97bc 0f3f 023d 91ff 52bd
000003d0: e2b4 e03b ff77 cabc 2fbd e3bc 9b41 b03c
000003e0: 9998 cdbe 1a4a ce3e 77e1 c3be 3062 db3e
000003f0: bb05 673c d760 803c c491 843c a799 123d

fc1.bias f4 [80]
-0.07313823 0.036484245 -0.067716986 0.08908034 -0.017537901 -0.013568844 -0.0006741458 -0.017311532
-0.07806378 0.0019181845 -0.043473616 0.075842254 -0.020923428 -0.09045406 -0.04740606 0.024319706
0.09300898 0.030681433 -0.04446826 0.053339478 0.005804059 -0.050887655 0.050469555 0.08255174
-0.06949134 0.0299603 -0.008764804 0.029651701 -0.069478 -0.007905542 -0.015633706 0.060223285
-0.027312856 0.08637558 -0.009481482 0.081714794 -0.015321968 -0.00019073997 -0.029556088 0.039672513
0.0043842793 2.1767672e-05 -0.01734566 -0.064674444 0.005912611 -0.03892301 0.0133916 -0.012822991
-0.11234207 -0.036297772 0.06089832 -0.072430015 -0.053484075 0.029724495 -0.076695554 -0.05929534
0.022479633 -0.056142956 -0.072768256 -0.0072203386 0.049570914 -0.020715343 -0.017944235 0.02413788
0.0066593676 -0.030133234 0.013080445 -0.06741818 -0.029419703 0.115336604 -0.03383438 0.03995786
-0.04374728 0.030185817 -0.015994493 -0.032020338 -0.07503635 -0.0374561 0.108806044 0.03885537
00000000: 7fc9 95bd 8170 153d 34af 8abd c16f b63d
00000010: a5ab 8fbc db4f 5ebc 29b9 30ba ead0 8dbc
00000020: e7df 9fbd 976b fb3a 6411 32bd 2f53 9b3d
00000030: 9c67 abbc fa3f b9bd db2c 42bd 1f3a c73c
00000040: 7e7b be3d a157 fb3c 5a24 36bd 7f7a 5a3d
00000050: fa2f be3b 936f 50bd 2ab9 4e3d e310 a93d
00000060: 7a51 8ebd 4e6f f53c 419a 0fbc 20e8 f23c
00000070: 7b4a 8ebd 3f86 01bc 4212 80bc b1ac 763d
00000080: 36bf dfbc aee5 b03d 3858 1bbc 165a a73d
00000090: fe08 7bbc 5f01 48b9 9c1f f2bc a57f 223d
000000a0: 00aa 8f3b b899 b637 7c18 8ebc 0974 84bd
000000b0: 93be c13b bc6d 1fbd 7168 5b3c 8617 52bc
000000c0: 9913 e6bd f9ac 14bd 8470 793d 3056 94bd
000000d0: 1e12 5bbd c980 f33c 8f12 9dbd acdf 72bd
000000e0: 3527 b83c 28f6 65bd 8607 95bd 9798 ecbb
000000f0: df0a 4b3d 39b3 a9bc caff 92bc cebc c53c
00000100: d336 da3b f9d9 f6bc 5d4f 563c 8b12 8abd
00000110: 9701 f1bc 9935 ec3d eb95 0abd daaa 233d
00000120: 5930 33bd 3f48 f73c e206 83bc c227 03bd
00000130: a8ac 99bd 916b 19bd b4d5 de3d cf26 1f3d

fc2.weight f4 [4, 80]
0.29518872 -0.55886525 0.2558889 -0.57770526 0.24900496 0.29626888 0.050263472 0.2956571
0.37736753 0.2081083 0.15903415 -0.6331186 0.0029493042 0.31593242 0.16948505 -0.44335186
-0.5556239 -0.47840744 0.30300954 -0.5780589 0.08228142 0.22757185 -0.57315624 -0.3296068
0.33123556 -0.26208317 -0.0037060403 -0.06555665 0.18560337 0.13321012 0.05465638 -0.19372603
0.13575058 -0.44801444 0.13578722 -0.557366 0.25505412 0.26403418 0.24593857 -0.016421083
0.18990941 0.14771184 0.26829392 0.17303488 -0.37310308 0.33692938 -0.023109732 0.08080287
0.38884014 0.29260513 -0.52483624 0.26240775 0.22980322 -0.5062897 0.32774517 0.2813832
0.013205035 0.09431203 0.2570572 0.21446224 -0.3805535 0.12729643 0.18204075 -0.07746472
0.14008737 0.14397457 -0.38183713 0.11146815 0.13197783 -0.66935664 0.023380842 -0.14651555
0.30646396 -0.37690702 0.19191636 -0.17669328 0.31436875 0.30499634 -0.69591546 -0.47759053
0.33601967 -0.60192215 0.18932605 -0.58356756 0.29883054 0.27074036 0.061838802 0.35779023
0.37037855 0.2489294 0.2040432 -0.6743922 0.047761377 0.30793303 0.2323282 -0.43656042
-0.55710524 -0.4627764 0.3049974 -0.560554 0.07192583 0.24878252 -0.52607167 -0.39072666
0.35153744 -0.25495353 0.041237168 -0.033852242 0.13411558 0.052138288 0.0020730353 -0.20350155
0.12861228 -0.4247651 0.06558604 -0.5891875 0.260377 0.24735737 0.1952553 0.025719913
0.18207057 0.08887539 0.275635 0.14451891 -0.38453078 0.32996988 0.023855219 0.016538864
0.40678263 0.36935163 -0.59289455 0.27409953 0.22391057 -0.46676892 0.29408208 0.31590113
0.021105645 0.13864022 0.26752743 0.2893753 -0.3782301 0.18117018 0.1677487 -0.13512611
0.18224426 0.17758498 -0.34796894 0.119411975 0.11808027 -0.6654337 0.016539214 -0.19005549
0.3641142 -0.3811612 0.16358514 -0.08664816 0.25248468 0.29832414 -0.7864709 -0.53306997
0.28375673 -0.5387398 0.21881013 -0.60312665 0.30458224 0.23882411 0.11509439 0.2875105
0.3655706 0.24654609 0.17329626 -0.6576161 0.032307822 0.23781225 0.20268774 -0.46776855
-0.5445367 -0.46117488 0.30122897 -0.5359983 0.124206245 0.19942254 -0.57547206 -0.37249157
0.33021796 -0.20446028 0.087395005 -0.08188849 0.13963746 0.16610485 0.07041042 -0.27946395
0.16378878 -0.3837303 0.107852936 -0.5020743 0.2558659 0.2125176 0.17727177 0.022901228
0.19162816 0.10443794 0.22422461 0.18484354 -0.38219136 0.32169092 0.0551086 0.061825
0.34873125 0.3287707 -0.50026256 0.23831615 0.2526234 -0.42359313 0.32551196 0.25371405
0.04100973 0.12445199 0.18553852 0.26444528 -0.4620788 0.21711436 0.17998491 -0.11511611
0.15772685 0.1115498 -0.34174773 0.13993748 0.18787862 -0.64948624 0.021302786 -0.22937974
0.27281463 -0.34746474 0.17043042 -0.14644359 0.298275 0.32004663 -0.62617683 -0.5375826
0.32714823 -0.6169988 0.2259054 -0.50856876 0.32102665 0.27776414 0.051424835 0.33560193
0.3793137 0.2508065 0.20491642 -0.6477807 0.06951013 0.29562008 0.16187121 -0.4464115
00000000: fa22 973e cb11 0fbf df03 833e 7ee4 13bf
00000010: 28fb 7e3e 8eb0 973e 12e1 4d3d 5e60 973e
00000020: 5136 c13e 581a 553e d9d9 223e 1014 22bf
00000030: 1d49 413b e5c1 a13e 7d8d 2d3e 04ff e2be
00000040: 5e3d 0ebf d2f1 f4be 1124 9b3e abfb 13bf
00000050: 2983 a83d 9808 693e 5eba 12bf 39c2 a8be
00000060: b597 a93e c42f 86be 0ae1 72bb 9142 86bd
00000070: cf0e 3e3e 3c68 083e 5edf 5f3d 1e60 46be
00000080: 3302 0b3e 2662 e5be ce0b 0b3e 8aaf 0ebf
00000090: 7496 823e 7d2f 873e 52d7 7b3e 8285 86bc
000000a0: 9d77 423e c641 173e d25d 893e 0e30 313e
000000b0: 5e07 bfbe 0282 ac3e 9f50 bdbc fa7b a53d
000000c0: 0e16 c73e 57d0 953e ab5b 06bf 4f5a 863e
000000d0: 8951 6b3e 349c 01bf 37ce a73e 7511 903e
000000e0: ee59 583c aa26 c13d 009d 833e fd9b 5b3e
000000f0: e9d7 c2be ff59 023e e468 3a3e d3a5 9ebd
00000100: 1073 0f3e 126e 133e 2880 c3be 6a49 e43d
00000110: 3225 073e f55a 2bbf 2e89 bf3c 2c08 16be
00000120: d8e8 9c3e f5f9 c0be b985 443e 15ef 34be
00000130: f1f4 a03e 7b28 9c3e 8427 32bf bf86 f4be
00000140: c50a ac3e 9217 1abf b0de 413e af64 15bf
00000150: 5100 993e 7b9e 8a3e af4a 7d3d 4830 b73e
00000160: 42a2 bd3e 59e7 7e3e b3f0 503e f8a4 2cbf
00000170: 6fa1 433d 66a9 9d3e 72e7 6d3e d984 dfbe
00000180: 739e 0ebf 07f1 ecbe 9f28 9c3e 7880 0fbf
00000190: d94d 933d d8c0 7e3e a2ac 06bf 530d c8be
000001a0: b7fc b33e 4589 82be 4ee8 283d a6a8 0abd
000001b0: 9855 093e f58e 553d c3db 073b b662 50be
000001c0: f0b2 033e d07a d9be f951 863d fed4 16bf
000001d0: 2250 853e 404b 7d3e 01f1 473e 91b2 d23c
000001e0: b570 3a3e 4d04 b63d 0820 8d3e c4fc 133e
000001f0: 38e1 c4be d0f1 a83e 056c c33c 837c 873c
00000200: d045 d03e a81b bd3e f0c7 17bf c656 8c3e
00000210: d048 653e 56fc eebe ed91 963e cbbd a13e
00000220: bfe5 ac3c b4f7 0d3e 5bf9 883e 0029 943e
00000230: 60a7 c1be ad84 393e 51c6 2b3e 805e 0abe
00000240: 3d9e 3a3e d6d8 353e fc28 b2be 448e f43d
00000250: 12d4 f13d dd59 2abf 3f7d 873c e89d 42be
00000260: 2d6d ba3e 9027 c3be dd82 273e 9774 b1bd
00000270: ac45 813e f1bd 983e 2856 49bf 4677 08bf
00000280: 9048 913e daea 09bf c30f 603e 8266 1abf
00000290: 34f2 9b3e 4f8e 743e 9cb6 eb3d 9434 933e
000002a0: 122c bb3e 9476 7c3e 9374 313e 8759 28bf
000002b0: 3555 043d 0e85 733e 608d 4f3e 5c7f efbe
000002c0: c266 0bbf 1d1f ecbe af3a 9a3e 2f37 09bf
000002d0: d85f fe3d 6c35 4c3e 2352 13bf 37b7 bebe
000002e0: 5412 a93e 095e 51be 27fc b23d 27b5 a7bd
000002f0: 1ffd 0e3e 6417 2a3e 5733 903d e615 8fbe
00000300: 3fb8 273e 4c78 c4be 00e2 dc3d f187 00bf
00000310: db00 833e 379e 593e bb86 353e 5b9b bb3c
00000320: 2c3a 443e 8fe3 d53d 239b 653e a047 3d3e
00000330: 96ae c3be acb4 a43e 8eb9 613d 363c 7d3d
00000340: e78c b23e a254 a83e 3511 00bf 2609 743e
00000350: db57 813e 33e1 d8be 81a9 a63e cfe6 813e
00000360: d2f9 273d afe0 fe3d cffd 3d3e 5f65 873e
00000370: 9895 ecbe 3a53 5e3e f74d 383e ffc1 ebbd
00000380: 2683 213e 3974 e43d 8ff9 aebe c54b 0f3e
00000390: 4163 403e bb44 26bf 2e83 ae3c 86e2 6abe
000003a0: 5cae 8b3e e6e6 b1be 5085 2e3e 4ff5 15be
000003b0: 80b7 983e 27dd a33e 204d 20bf 039f 09bf
000003c0: f97f a73e a2f3 1dbf bf53 673e 9031 02bf
000003d0: 9b5d a43e 1a37 8e3e d9a2 523d 04d4 ab3e
000003e0: 6835 c23e b669 803e 9cd5 513e f5d4 25bf
000003f0: 545b 8e3d 845b 973e 91c1 253e 0c90 e4be

fc2.bias f4 [4]
-0.23948413 -0.31044903 -0.30082303 -0.3484021
00000000: 543b 75be 2df3 9ebe 7a05 9abe c361 b2be
