TD0v1e_35000.pt (torch, 12672 bytes, 4 tensors)

fc1.weight f4 [80, 28]
-0.0183995 -0.07702389 -0.043219883 -0.054214146 -0.0729062 0.012821193 -0.045059074 0.027578907
0.036278326 0.04347435 0.038323488 0.0077077267 -0.042107943 -0.026323361 0.020459108 -0.015568935
0.019236268 0.0164299 0.011638223 -0.017217208 0.05130092 0.02711943 0.023319928 0.09172296
0.6520243 -0.672038 0.6452945 -0.6094281 0.0034289667 0.044405196 0.0105111655 -0.018766632
0.020019326 -0.030671636 0.028803503 0.045593996 -0.030173663 -0.008645739 -0.048369646 -0.028200341
-0.045529816 0.032620434 0.008250284 0.010965946 -0.03665403 -0.033545032 -0.04889591 0.0045292736
-0.01641767 0.009084306 0.023842387 -0.08031347 -0.51278156 0.4505623 -0.48236096 0.54331684
-0.056487877 -0.012940533 0.002049747 0.011662993 -0.023947462 -0.064661846 0.020616747 -0.037272573
0.014426474 -0.020501118 0.004627083 0.024342092 -0.016773706 -0.027250316 0.00066801225 0.048728213
0.012965811 0.056990497 0.01199308 0.05568224 0.06655886 0.04588405 0.07003911 0.023109341
0.56934977 -0.568335 0.5770504 -0.5629954 0.029830102 -0.011106237 -0.03060937 0.028263463
-0.036028404 -0.04195209 -0.03056193 0.0086338585 0.014788868 -0.049661078 0.005643522 -0.01581079
0.029716512 -0.014787975 0.04168232 -0.036780603 -0.019077362 -0.005692616 -0.02323108 0.019466316
-0.025807709 -0.0011309764 0.030700801 0.042124413 -0.032605782 -0.041993648 0.0013133273 -0.0034768337
0.01111046 0.056007 0.05967762 0.0553796 0.011852781 0.022001982 0.013199142 -0.024924139
-0.032344 -0.044798948 -0.030812342 0.042091187 0.0063439813 -0.0113229 -0.022724703 -0.01900764
0.04970789 0.03536067 -0.051338986 -0.039755404 -0.06382822 -0.028545912 0.016817052 -0.0760402
-0.5303562 0.54638267 -0.5590823 0.5306746 0.004410454 -0.004014397 -0.00392272 0.026142484
0.04099332 0.018046854 0.050726753 -0.031044526 -0.012440825 -0.022066964 0.039132018 -0.02217543
-0.045436956 0.042861793 -0.043061186 0.02135894 -0.041244503 -0.018210746 -0.024900636 -0.013319009
-0.0013665358 -0.011195059 0.009484481 0.028013768 -0.20557065 0.29449087 -0.26259813 0.21272016
-0.026015049 0.04499325 -0.048572604 -0.026334725 0.025001932 0.04895656 0.047436222 0.013440305
0.015664795 -0.024715733 0.011089089 0.037599143 0.045422323 0.043268446 -0.035031807 0.01505539
0.04058395 -0.022606663 0.0479786 -0.022519033 0.008874909 -0.020433092 -0.038420305 -0.008623225
-0.12465725 0.061166566 -0.06625087 0.1372946 0.030636169 0.051131167 0.0027755452 0.028061928
-0.0023065286 0.028509041 0.044933517 0.037074637 -0.03106156 0.035134222 -0.04113272 -0.029644648
-0.048821226 -0.03165566 0.027727045 0.035143863 0.050287753 0.024460446 -0.02481217 0.006978064
-0.017964995 -0.062262643 -0.007270583 -0.01600194 -0.5325895 0.49664608 -0.519235 0.5409272
-0.031301748 -0.0010462822 0.027373742 -0.007821737 0.0041292147 0.02206576 0.041479863 -0.0021230301
-0.047887444 0.008641955 0.028265199 0.034931034 -0.013848233 0.021273058 0.032058567 -0.04965075
-0.028136808 -0.0024011924 -0.035871755 -0.049916036 -0.045692854 0.0038608653 0.015912727 0.013401302
-0.21242051 0.26372257 -0.2423185 0.2278718 0.023400065 -0.004577779 0.049130533 0.024578188
00000000: 8cba 96bc b4be 9dbd 5507 31bd a70f 5ebd
00000010: d94f 95bd fb0f 523c dd8f 38bd 29ed e13c
00000020: 9598 143d 2912 323d 17f9 1c3d 1991 fc3b
00000030: 6179 2cbd 17a4 d7bc dc99 a73c d914 7fbc
00000040: 6195 9d3c ff97 863c 3fae 3e3c 1a0b 8dbc
00000050: ea20 523d 9129 de3c 6f09 bf3c 3fd9 bb3d
00000060: 11eb 263f af0a 2cbf 0532 253f 7b03 1cbf
00000070: 84b8 603b 39e2 353d 0637 2c3c 7bbc 99bc
00000080: 92ff a33c 1543 fbbc 53f5 eb3c c5c0 3a3d
00000090: c22e f7bc dca6 0dbc 401f 46bd 6704 e7bc
000000a0: 797d 3abd 019d 053d 332c 073c 83aa 333c
000000b0: 8922 16bd 8466 09bd 1447 48bd 4d6a 943b
000000c0: 597e 86bc 57d6 143c 1c51 c33c 637b a4bd
000000d0: a745 03bf 1ab0 e63e 04f8 f6be d016 0b3f
000000e0: d55f 67bd 8804 54bc 0c55 063b 2316 3f3c
000000f0: 782d c4bc 6e6d 84bd 74e4 a83c 20ab 18bd
00000100: 055d 6c3c f6f1 a7bc c99e 973b 1169 c73c
00000110: 0369 89bc 0e3c dfbc 8b1d 2f3a 3c97 473d
00000120: 8e6e 543c de6e 693d a07e 443c 0f13 643d
00000130: 0350 883d eaf0 3b3d aa70 8f3d cd4f bd3c
00000140: e8c0 113f 677e 11bf 93b9 133f 7720 10bf
00000150: 425e f43c eff6 35bc 80c0 fabc c788 e73c
00000160: 8592 13bd f4d5 2bbd 035d fabc 0775 0d3c
00000170: 024d 723c 6a69 4bbd 4bed b83b a185 81bc
00000180: 0b70 f33c 4349 72bc 15bb 2a3d 42a7 16bd
00000190: 2148 9cbc 2089 babb 1b4f bebc d377 9f3c
000001a0: b06a d3bc 453d 94ba 3f80 fb3c a68a 2c3d
000001b0: a48d 05bd 8801 2cbd f423 ac3a 97db 63bb
000001c0: a608 363c 9967 653d 8570 743d b8d5 623d
000001d0: 2b32 423c 803d b43c 3741 583c b52d ccbc
000001e0: 247b 04bd 1a7f 37bd 2a6a fcbc cf67 2c3d
000001f0: 2ce1 cf3b af83 39bc 2829 babc e9b5 9bbc
00000200: 809a 4b3d 5ad6 103d d448 52bd 90d6 22bd
00000210: 5fb8 82bd 1ed9 e9bc eac3 893c f7ba 9bbd
00000220: 6dc5 07bf bcdf 0b3f 0520 0fbf 4ada 073f
00000230: 9285 903b 348b 83bb 298a 80bb c328 d63c
00000240: 9de8 273d ffd6 933c dbc6 4f3d 1751 febc
00000250: 9ad4 4bbc c7c5 b4bc e548 203d 3fa9 b5bc
00000260: 1a1c 3abd d98f 2f3d ed60 30bd f2f8 ae3c
00000270: ffef 28bd b42e 95bc 6bfc cbbc f937 5abc
00000280: 551d b3ba 7b6b 37bc cc64 1b3c 217d e53c
00000290: 1d81 52be 82c7 963e 4373 86be 50d3 593e
000002a0: 831d d5bc d84a 383d 11f4 46bd ecbb d7bc
000002b0: dad0 cc3c ad86 483d 7c4c 423d ba34 5c3c
000002c0: 7553 803c a678 cabc 03af 353c 8f01 1a3d
000002d0: c20c 3a3d 413a 313d 837d 0fbd e2aa 763c
000002e0: 5b3b 263d 9c31 b9bc 3585 443d d679 b8bc
000002f0: 1168 113c 4d63 a7bc 9c5e 1dbd 6d48 0dbc
00000300: 4d4c ffbd cb89 7a3d 89ae 87bd f596 0c3e
00000310: b4f8 fa3c ea6e 513d ece5 353b 21e2 e53c
00000320: 2129 17bb cb8b e93c 350c 383d 93db 173d
00000330: d074 febc e7e8 0f3d c87a 28bd 55d9 f2bc
00000340: c4f8 47bd 5ea9 01bd d423 e33c 03f3 0f3d
00000350: 88fa 4d3d 4661 c83c e442 cbbc 3ea8 e43b
00000360: 532b 93bc 1d07 7fbd 123e eebb 8016 83bc
00000370: c957 08bf 6548 fe3e 96ec 04bf 347a 0a3f
00000380: 4336 00bd 6823 89ba e63e e03c be26 00bc
00000390: 5d4e 873b 41c3 b43c cae6 293d 8922 0bbb
000003a0: a025 44bd fd96 0d3c 6b8c e73c d813 0f3d
000003b0: b3e3 62bc d644 ae3c d84f 033d 965e 4bbd
000003c0: 2a7f e6bc 535d 1dbb 43ee 12bd c274 4cbd
000003d0: 6e28 3bbd 9206 7d3b 685b 823c 2291 5b3c
000003e0: c384 59be a506 873e 5722 78be 3a57 693e
000003f0: 7eb1 bf3c 3201 96bb 193d 493d 3258 c93c

fc1.bias f4 [80]
0.2465672 -0.1813452 0.16039535 -0.0032127197 -0.14383174 -0.05178985 -0.021909004 -0.11053208
-0.013637986 -0.10752901 0.31817454 0.35596412 0.14509735 -0.10678345 0.18414284 -0.19467355
-0.091197334 0.2049409 -0.2011675 0.22478803 -0.052649226 -0.12192728 -0.056599665 0.2870698
-0.18635869 -0.14738798 -0.22847468 -0.120852165 0.11930494 -0.090902485 -0.08069794 -0.014898283
-0.13634378 -0.21062353 0.054435905 -0.10249623 0.09172379 0.14491938 -0.051822856 0.28837228
-0.058877144 0.18219608 -0.15841466 0.32273895 0.30825645 -0.082249686 -0.11881418 0.026310395
-0.010095995 -0.17815451 -0.17704105 -0.06841998 -0.1776873 0.3172559 -0.100060984 0.24848594
0.21396586 -0.004568754 -0.17722529 0.03717344 -0.12154241 0.32657385 -0.060862172 0.33216006
-0.11034247 0.14587024 -0.05570413 -0.04171245 -0.14568149 -0.15604226 -0.12951913 -0.053862937
0.2839022 -0.023409206 -0.0345709 -0.030892529 -0.16049218 -0.046319053 0.060616717 0.0006894417
00000000: 1d7c 7c3e 8eb2 39be ae3e 243e 7e8c 52bb
00000010: a148 13be 9821 54bd 837a b3bc a55e e2bd
00000020: dc71 5fbc 2b38 dcbd c6e7 a23e ee40 b63e
00000030: 6694 143e 48b1 dabd f18f 3c3e 8158 47be
00000040: abc5 babd 07dc 513e dafe 4dbe d52e 663e
00000050: b7a6 57bd 03b5 f9bd 0dd5 67bd d0fa 923e
00000060: d0d4 3ebe e0ec 16be 44f5 69be 5781 f7bd
00000070: 2656 f43d 152b babd f644 a5bd ee17 74bc
00000080: b49d 0bbe b2ad 57be 2ff8 5e3d 8be9 d1bd
00000090: afd9 bb3d bf65 143e 3444 54bd 88a5 933e
000000a0: 2929 71bd 9c91 3a3e 7437 22be 0a3e a53e
000000b0: cad3 9d3e 8672 a8bd d954 f3bd e688 d73c
000000c0: ac69 25bc 236e 36be 404a 35be c61f 8cbd
000000d0: a9f3 35be 5e6f a23e c6ec ccbd 1973 7e3e
000000e0: de19 5b3e 7db5 95bb 8c7a 35be 2d43 183d
000000f0: 3aeb f8bd b034 a73e 9d4a 79bd e210 aa3e
00000100: 3cfb e1bd 025f 153e 042a 64bd adda 2abd
00000110: 872d 15be 8bc9 1fbe aaa0 04be 629f 5cbd
00000120: a15b 913e aac4 bfbc 379a 0dbd 5412 fdbc
00000130: 1058 24be 0cb9 3dbd 3c49 783d a6bb 343a

fc2.weight f4 [4, 80]
-0.83140516 0.41428304 -0.6956042 -0.14281844 0.5077858 0.11355117 -0.04145781 0.50287265
0.1120226 0.49347422 -0.8714192 -1.1013073 -0.55596304 0.24281316 -0.6385843 0.5473966
0.32040533 -0.76174283 0.5056101 -0.7494685 0.3111675 0.35841826 0.22555783 -0.9020443
0.47993144 0.5254198 0.61863387 0.570362 -0.44989857 0.39506564 0.29834893 -0.21167573
0.40941352 0.53704304 -0.12553719 0.41921183 -0.4092086 -0.4955942 0.21412373 -0.9053565
0.1324369 -0.62332004 0.49870723 -0.9318745 -0.96747065 0.10496229 0.49497902 -0.34305805
0.059636313 0.50977093 0.44620273 0.22092499 0.49171227 -0.937645 0.3294692 -0.8414555
-0.69657266 -0.20626713 0.58347684 -0.16316083 0.43159297 -0.93073297 0.12876174 -1.1006544
0.47198468 -0.6312302 0.12454743 0.033122927 0.37219876 0.39797595 0.3421891 0.238246
-0.96347904 0.23781629 0.12523445 0.16984251 0.43424633 0.054033283 -0.3354104 -0.07078463
-0.77692455 0.43569836 -0.7260966 -0.068184145 0.41768554 0.1731613 -0.003875448 0.42006636
0.19022804 0.38833946 -0.8997169 -1.0850817 -0.6012276 0.2864112 -0.6954276 0.50798905
0.37817976 -0.73594946 0.48078507 -0.75854474 0.32591882 0.3924953 0.17707206 -0.9753983
0.4390461 0.4828637 0.5546326 0.44856057 -0.47975475 0.36807656 0.2603615 -0.14358152
0.3982381 0.524037 -0.07653599 0.39728782 -0.39799893 -0.557776 0.24021307 -0.86056155
0.17818663 -0.6240012 0.47720668 -0.97418123 -0.9656042 0.10607905 0.47005838 -0.3883355
0.109353505 0.4788782 0.46320117 0.2888944 0.45047385 -0.9706599 0.3933259 -0.8943756
-0.7218377 -0.20062017 0.5381602 -0.13070926 0.46508363 -0.97596014 0.19846073 -0.9853663
0.41912544 -0.6928027 0.23056352 0.05863387 0.3867992 0.39390042 0.31693125 0.17246659
-0.91627336 0.1828603 0.11544081 0.1704185 0.44132233 0.11951142 -0.3288225 0.018892128
-0.85085124 0.45984226 -0.66341656 -0.1071819 0.4686185 0.19017555 -0.017806988 0.43604162
0.13065402 0.4768067 -0.9099536 -1.1138196 -0.554713 0.32499757 -0.59054625 0.5396376
0.3719117 -0.71249187 0.46797755 -0.7676271 0.2387068 0.3536419 0.26682368 -0.922059
0.5310892 0.45473447 0.59276676 0.51186264 -0.4040744 0.3241832 0.21680295 -0.11093509
0.3616564 0.5056555 -0.08935081 0.33456853 -0.4307689 -0.524239 0.22936371 -0.8330968
0.10274088 -0.6511772 0.4922852 -0.9408919 -0.93958807 0.064623676 0.44142294 -0.38820475
0.13925134 0.44074574 0.49673522 0.27330413 0.5248469 -0.9845784 0.3844871 -0.9091787
-0.7031719 -0.2621871 0.5272042 -0.17869142 0.48449975 -0.9863357 0.1441538 -1.0412965
0.39381617 -0.6394016 0.18621852 0.06623607 0.451963 0.3652202 0.2846031 0.23994376
-1.005069 0.19194257 0.1269991 0.17345786 0.51682293 0.06069117 -0.33748972 -0.014556428
-0.7687518 0.3988179 -0.7734397 -0.105969734 0.5182662 0.12700701 0.059638478 0.45325392
0.13132277 0.42759505 -0.9514183 -1.0850027 -0.65803736 0.3509377 -0.6289903 0.500286
00000000: f8d6 54bf e81c d43e 1e13 32bf ff3e 12be
00000010: 40fe 013f 848d e83d aacf 29bd 43bc 003f
00000020: 1b6c e53d a7a8 fc3e 5415 5fbf a3f7 8cbf
00000030: 9853 0ebf 03a4 783e 437a 23bf 2f22 0c3f
00000040: 2b0c a43e 9401 43bf aa6f 013f 2bdd 3fbf
00000050: 5951 9f3e 9982 b73e a2f8 663e 60ec 66bf
00000060: 93b9 f53e e981 063f ca5e 1e3f 3e03 123f
00000070: 1b59 e6be 0b46 ca3e 31c1 983e 86c1 58be
00000080: a69e d13e a77b 093f d28c 00be efa2 d63e
00000090: ca83 d1be 86be fdbe 4043 5b3e 72c5 67bf
000000a0: 8a9d 073e e791 1fbf 8e56 ff3e 548f 6ebf
000000b0: 28ac 77bf 78f6 d63d e46d fd3e 4ea5 afbe
000000c0: 3545 743d 5980 023f af74 e43e 293a 623e
000000d0: b6c1 fb3e 8109 70bf 30b0 a83e a169 57bf
000000e0: 9652 32bf b137 53be bd5e 153f a213 27be
000000f0: c1f9 dc3e 8444 6ebf 1eda 033e 3ee2 8cbf
00000100: faa7 f13e 4d98 21bf b912 ff3d e8ab 073d
00000110: d690 be3e 81c3 cb3e 6933 af3e c2f6 733e
00000120: 90a6 76bf 1d86 733e 763d 003e 32eb 2d3e
00000130: 8955 de3e 0152 5d3d e9ba abbe 88f7 90bd
00000140: 87e4 46bf db13 df3e 77e1 39bf 21a4 8bbd
00000150: e1da d53e 3251 313e 3afb 7dbb f012 d73e
00000160: 24cb 423e 6ed4 c63e d953 66bf f5e3 8abf
00000170: 0dea 19bf 7da4 923e 8b07 32bf 920b 023f
00000180: c7a0 c13e 2f67 3cbf 7629 f63e fd2f 42bf
00000190: d5de a63e 25f5 c83e 6152 353e b4b3 79bf
000001a0: a7ca e03e e939 f73e 67fc 0d3f bba9 e53e
000001b0: 6aa2 f5be 8874 bc3e 1a4e 853e 0907 13be
000001c0: dde5 cb3e 4a27 063f e7be 9cbd 4f69 cb3e
000001d0: 84c6 cbbe 68ca 0ebf 6afa 753e c34d 5cbf
000001e0: 8e76 363e 8bbe 1fbf 6f54 f43e f163 79bf
000001f0: d631 77bf f93f d93d 7eab f03e e9d3 c6be
00000200: bbf4 df3d 862f f53e b428 ed3e f7e9 933e
00000210: 82a4 e63e 2b7d 78bf 0362 c93e cdf5 64bf
00000220: 5bca 38bf 606f 4dbe dec4 093f a6d8 05be
00000230: 711f ee3e 86d8 79bf 4a39 4b3e f740 7cbf
00000240: 9c97 d63e 855b 31bf d818 6c3e 122a 703d
00000250: 8b0a c63e 51ad c93e d044 a23e 159b 303e
00000260: e490 6abf bb3f 3b3e 3b6c ec3d 3082 2e3e
00000270: 00f5 e13e 67c2 f43d 6c5b a8be aac3 9a3c
00000280: 63d1 59bf 7270 eb3e abd5 29bf 2f82 dbbd
00000290: c4ee ef3e 61bd 423e f6df 91bc d940 df3e
000002a0: 2bca 053e 0220 f43e b8f2 68bf a491 8ebf
000002b0: ac01 0ebf 1566 a63e 0a2e 17bf b125 0a3f
000002c0: 366b be3e de65 36bf c19a ef3e 3683 44bf
000002d0: 8e6f 743e 8d10 b53e 1d9d 883e 0f0c 6cbf
000002e0: 76f5 073f f5d2 e83e 90bf 173f 6e09 033f
000002f0: d7e2 cebe 57fb a53e 9801 5e3e f031 e3bd
00000300: 072b b93e a472 013f 8ffd b6bd 914c ab3e
00000310: be8d dcbe 8734 06bf 52de 6a3e d545 55bf
00000320: cf69 d23d 8db3 26bf ce0c fc3e 4bde 70bf
00000330: d888 70bf 6b59 843d 3002 e23e c6c2 c6be
00000340: e797 0e3e 6da9 e13e 1454 fe3e 85ee 8b3e
00000350: 5e5c 063f 540d 7cbf 7edb c43e efbf 68bf
00000360: 1303 34bf 633d 86be dbf6 063f e2fa 36be
00000370: 5a10 f83e 7f80 7cbf 0e9d 133e 3449 85bf
00000380: 46a2 c93e d3af 23bf 11b0 3e3e c7a6 873d
00000390: b267 e73e 24fe ba3e 7fb7 913e d1b3 753e
000003a0: 1aa6 80bf 988c 443e 0d0c 023e f09e 313e
000003b0: 824e 043f 4e97 783d 74cb acbe 167e 6ebc
000003c0: ebcc 44bf dc31 cc3e 2500 46bf a906 d9bd
000003d0: 18ad 043f 200e 023e 7a47 743d e610 e83e
000003e0: 7a79 063e bded da3e 2690 73bf 5ee1 8abf
000003f0: 2375 28bf 1bae b33e 8205 21bf be12 003f

fc2.bias f4 [4]
-0.5589912 -0.43846753 -0.47679728 -0.42665842
00000000: 0c1a 0fbf d17e e0be c61e f4be f972 dabe
