TD0v2_4000.pt (torch, 17076 bytes, 6 tensors)

fc1.weight f4 [60, 28]
0.041971873 0.015705531 -0.0018297172 -0.010118301 -0.027421456 -0.0014839402 -0.016874496 0.020728948
0.004986191 -0.04613297 -0.01805472 -0.009915212 0.012936734 -0.04830925 -0.013255324 -0.0470213
0.036692183 -0.009613263 -0.041525092 0.008730679 0.03612268 0.049479704 0.03622386 0.005945342
-0.019729426 0.018424952 -0.025243467 0.055812635 0.003531412 -0.031140855 0.012651225 0.037367977
0.003507879 0.041260377 0.041981287 -0.010918862 -0.0013860089 0.016462138 -0.0046963524 -0.026739618
0.020412186 0.008439479 -0.025649777 0.0017423878 0.03393 0.023544138 0.024371061 0.04805165
0.042956877 -0.012139925 0.040729146 0.021272348 0.04807965 -0.01975807 -0.00020125315 -0.009766559
0.04795952 0.00020332132 -0.015211314 -0.047219124 0.03203651 -0.029386437 0.0031462205 -0.023898583
-0.04406198 0.043441195 -0.046344638 -0.010510558 0.047656767 0.017413925 -0.020905165 0.008984928
-0.047404427 -0.04024283 0.033029377 0.007934286 0.0036831705 0.03211876 0.022156224 0.0017468866
-0.036127824 -0.03835732 -0.0049094525 -0.041023947 0.032208733 0.021494731 -0.030370746 -0.024315624
0.027881483 0.0027496323 -0.03558496 0.036736578 0.0068593174 0.02790172 0.030744307 0.010995617
-0.011207463 -0.032846723 0.00610647 0.014148553 -0.028959736 0.028868228 0.025950028 -0.022791531
0.04491645 0.03775712 -0.00097580045 -0.028835291 0.046021197 0.017750822 -0.010654623 0.0509197
-0.021720892 0.021136306 0.036834218 -0.0073456853 -0.03859077 0.006579575 -0.015417021 0.036659967
0.005933864 0.0066588973 0.0025788536 -0.021432487 0.023376707 0.030477973 0.047450952 -0.018965788
-0.04345577 0.008189303 -0.0279815 -0.045685813 -0.0037479408 -0.03193198 -0.04784275 -0.026692627
0.021025015 0.039667185 0.025112048 -0.011647923 -0.023648143 -0.029034412 0.028618071 0.019328913
-0.017521087 0.04810167 -0.03597843 -0.011881013 -0.017583428 0.039374214 -0.032265935 -0.01362171
-0.04103639 -0.028004875 -0.006306109 0.04401589 0.013856988 -0.041918762 0.025928156 -0.003820906
-0.017435918 0.0186735 0.026299864 0.013915039 0.01972907 -0.032655213 -0.027692068 0.0120116845
-0.038588412 -0.006840173 -0.041277155 0.019546725 -0.04253314 -0.004733519 0.018633876 0.047815368
-0.011042545 0.031349424 -0.03823335 -0.041439395 -0.016633002 -0.047356885 0.0103381695 -0.003810481
-0.044552635 -0.03342759 -0.04424361 0.001608389 0.004629284 0.04820833 -0.011381446 0.045755554
0.038236093 -0.007320052 0.044712152 0.033009857 0.028123727 0.024209566 -0.040525973 -0.0071029537
0.047128513 -0.04507434 0.0051177894 -0.013577881 0.047394175 -0.030064506 -0.0030899465 -0.022001136
0.024654042 -0.027901165 0.024865175 0.024362318 -0.047558654 0.037079003 -0.042602077 0.043215286
0.042176098 -0.010998299 -0.02849058 -0.029417874 -0.03509554 0.04493737 0.014879818 -0.0027988888
0.043333583 0.008881948 -0.02402716 0.016297955 0.033513866 -0.027549159 -0.037203085 -0.030655606
-0.023015397 -0.023679413 0.015489231 0.03526151 0.015954629 0.041745372 0.0065910504 -0.0043358253
-0.023911377 -0.03564655 -0.04314946 -0.027216876 0.00013094628 -0.03679517 0.04168619 0.016469842
-0.04536543 -0.022743903 -0.00051284116 -0.0244983 -0.036770016 0.045483578 0.040105168 0.032272186
00000000: b3ea 2b3d e3a8 803c 1fd3 efba 3bc7 25bc
00000010: f6a2 e0bc c580 c2ba 623c 8abc c1cf a93c
00000020: 3463 a33b edf5 3cbd 7ee7 93bc 6a73 22bc
00000030: 98f4 533c ecdf 45bd dc2c 59bc 6899 40bd
00000040: 8b4a 163d f380 1dbc 3716 2abd 1f0b 0f3c
00000050: 60f5 133d 3bab 4a3d 785f 143d 25d1 c23b
00000060: 9b9f a1bc edef 963c 63cb cebc ca9b 643d
00000070: 436f 673b 1b1b ffbc 1547 4f3c 2a0f 193d
00000080: 72e4 653b a400 293d 92f4 2b3d 07e5 32bc
00000090: beaa b5ba 9bdb 863c dce3 99bb 0b0d dbbc
000000a0: 7537 a73c be45 0a3c 7b1f d2bc d560 e43a
000000b0: 2ffa 0a3d a3df c03c d2a5 c73c cfd1 443d
000000c0: 8df3 2f3d 89e6 46bc 9bd3 263d 5943 ae3c
000000d0: 2bef 443d addb a1bc 7b07 53b9 eb03 20bc
000000e0: 3471 443d a732 5539 e038 79bc d768 41bd
000000f0: b738 033d d3bb f0bc d230 4e3b f6c6 c3bc
00000100: 567a 34bd 65ef 313d e0d3 3dbd 7a34 2cbc
00000110: be33 433d a6a7 8e3c 4f41 abbc 8535 133c
00000120: 252b 42bd aad5 24bd d049 073d cffe 013c
00000130: 5961 713b f68e 033d f880 b53c caf7 e43a
00000140: c5fa 13bd 911c 1dbd 79df a0bb ba08 28bd
00000150: 4eed 033d b815 b03c 12cc f8bc 8f31 c7bc
00000160: b567 e43c 2d33 343b 89c1 11bd 1879 163d
00000170: 20c4 e03b 2692 e43c 7cdb fb3c f626 343c
00000180: 829f 37bc 498a 06bd c818 c83b 55cf 673c
00000190: f83c edbc 107d ec3c 2795 d43c 4eb5 babc
000001a0: 50fa 373d 36a7 1a3d dccc 7fba fd37 ecbc
000001b0: b980 3c3d 2c6a 913c ba90 2ebc 2d91 503d
000001c0: 03f0 b1bc 0c26 ad3c 7adf 163d 13b4 f0bb
000001d0: 5b11 1ebd 7a99 d73b ac97 7cbc c328 163d
000001e0: dc70 c23b e132 da3b fc01 293b 2f93 afbc
000001f0: 8280 bf3c f1ac f93c ee5b 423d 245e 9bbc
00000200: adfe 31bd 6d2c 063c 7539 e5bc 0c21 3bbd
00000210: 03a0 75bb 1ccb 02bd c2f6 43bd 7faa dabc
00000220: a73c ac3c 0f7a 223d c8b7 cd3c eed6 3ebc
00000230: c0b9 c1bc 93d9 edbc 7270 ea3c ab57 9e3c
00000240: 6288 8fbc 4206 453d 1e5e 13bd 95a8 42bc
00000250: 1f0b 90bc db46 213d 4929 04bd 982d 5fbc
00000260: c615 28bd 7b6a e5bc 7aa3 cebb 024a 343d
00000270: 6c08 633c 02b3 2bbd 4967 d43c 2a68 7abb
00000280: c5d5 8ebc 2bf9 983c d072 d73c e7fb 633c
00000290: dc9e a13c 79c1 05bd 7ada e2bc a8cc 443c
000002a0: e20e 1ebd 8823 e0bb 3c12 29bd 7420 a03c
000002b0: 3b37 2ebd a31b 9bbb 12a6 983c 0cda 433d
000002c0: caeb 34bc 4168 003d 939a 1cbd 5bbc 29bd
000002d0: ef41 88bc 4bf9 41bd 6d61 293c 43b9 79bb
000002e0: d37c 36bd 5eeb 08bd ca38 35bd 94d0 d23a
000002f0: 40b1 973b 1976 453d 3f79 3abc 2d6a 3b3d
00000300: 739d 1c3d 0cdd efbb 1724 373d 5835 073d
00000310: bb63 e63c 2453 c63c 90fe 25bd e5bf e8bb
00000320: d409 413d df9f 38bd 21b3 a73b c375 5ebc
00000330: 6520 423d d749 f6bc b380 4abb ba3b b4bc
00000340: 46f7 c93c fc90 e4bc 0db2 cb3c 7c93 c73c
00000350: ddcc 42bd 27e0 173d 847f 2ebd 8302 313d
00000360: d8c0 2c3d 3632 34bc 1465 e9bc c1fd f0bc
00000370: 57c0 0fbd 3f10 383d 7bca 733c 906d 37bb
00000380: 8e7e 313d 9785 113c 9bd4 c4bc 4a83 853c
00000390: d645 093d c6ae e1bc 4362 18bd 7721 fbbc
000003a0: c98a bcbc 54fb c1bc 8bc6 7d3c 606e 103d
000003b0: 48b3 823c 32fd 2a3d bdf9 d73b 8a13 8ebb
000003c0: cbe1 c3bc 1e02 12bd 7dbd 30bd edf5 debc
000003d0: a04e 0939 88b6 16bd 23bf 2a3d c3eb 863c
000003e0: 1ad1 39bd 6c51 babc 3070 06ba a9b0 c8bc
000003f0: 289c 16bd fd4c 3a3d 5145 243d d72f 043d

fc1.bias f4 [60]
0.049366113 -0.013611155 0.047375787 0.021135805 0.041143924 0.029167827 -0.03340218 0.050040644
0.038254283 0.037033793 0.050599806 0.014866402 -0.041577812 0.019445088 -0.042373493 0.032436877
-0.015957195 0.008004468 -0.023672227 -0.043607417 -0.015664825 0.0079062935 -0.045559708 0.0041597015
-0.043617032 -0.049219977 -0.005989153 0.041367833 0.024650779 0.03612501 0.01671204 -0.007968263
-0.032629024 -0.008648644 0.033968996 0.035293885 -0.0084772725 0.0050092502 0.03973736 -0.015114232
-0.00944615 -0.016758716 -0.03559458 0.0024370884 0.022542762 0.036470696 0.043288738 0.049874328
-0.04007408 -0.036705974 0.03265369 -0.003241196 -0.030343998 -0.026055615 0.0008606035 -0.016654074
-0.017330296 -0.003886733 0.021434866 -0.03247788
00000000: 1f34 4a3d 5201 5fbc 1d0d 423d ff24 ad3c
00000010: 8886 283d 5ef1 ee3c b9d0 08bd 6bf7 4c3d
00000020: 86b0 1c3d bfb0 173d be41 4f3d 3692 733c
00000030: 7f4d 2abd 4e4b 9f3c d48f 2dbd 88dc 043d
00000040: aab8 82bc 2c25 033c 42ec c1bc b19d 32bd
00000050: 8553 80bc 6689 013c d19c 3abd 1b4e 883b
00000060: c6a7 32bd e39a 49bd a840 c4bb 5171 293d
00000070: 6ef0 c93c d2f7 133d b0e7 883c 518d 02bc
00000080: 03a6 05bd 0bb3 0dbc 1323 0b3d 5290 103d
00000090: 42e4 0abc a324 a43b a4c3 223d afa1 77bc
000000a0: 06c4 1abc 9349 89bc 9fcb 11bd 8fb7 1f3b
000000b0: 99ab b83c 4c62 153d 884f 313d 0649 4c3d
000000c0: b824 24bd 0159 16bd e0bf 053d 3f6a 54bb
000000d0: fa93 f8bc 9672 d5bc 209a 613a 206e 88bc
000000e0: 44f8 8dbc 8fb8 7ebb 2c98 af3c 8707 05bd

fc15.weight f4 [30, 60]
0.013639028 -0.0331068 0.0023040306 0.019605787 0.058411203 -0.02394469 0.011828363 0.057759196
0.046769965 0.0024354463 0.051779557 0.045241017 0.009785156 0.04559916 -0.01716681 -0.041511588
0.043239705 0.010757513 0.013682161 -0.009632555 -0.0195789 -0.020062309 0.0578127 0.057377487
0.047912426 0.019877385 0.013334019 -0.004946499 0.053621348 0.02730325 0.05479686 -0.0043597124
-0.015399904 -0.0025605115 0.01259879 -0.027927015 0.052127086 0.017036999 0.047052287 0.03653665
0.026507983 0.053716976 -0.003933355 0.046598475 0.00437243 -0.017512757 -0.020307591 0.053916477
-0.030356627 0.031119583 0.040609628 -0.011300244 0.02175199 -0.01607324 0.053412825 -0.017675696
-0.014853488 0.05793147 0.014783687 -0.001947693 0.025622835 0.0008058789 -0.030634345 -0.033175133
0.00639946 -0.02749762 0.043711174 -0.040581584 -0.0097947605 0.04594892 -0.010865611 0.057476055
-0.0060867765 0.0024378935 0.012263786 0.019281788 -0.023611417 0.016090656 -0.038242888 0.011389765
-0.038823646 -0.01982885 0.023410797 -0.0062603895 0.049205374 -0.023280254 -0.032213993 -0.015084783
0.027070645 0.0067567197 -0.029669557 -0.02981386 0.04584691 0.017877158 -0.02812811 -0.024536906
-0.042798854 0.051989876 -0.041018058 0.031944484 0.014331185 -0.021703321 -0.028849253 0.018707322
-0.024917647 -0.020530917 0.03365725 0.027406216 0.02453456 -0.03128475 0.049582236 0.045942523
-0.021125492 0.019139385 -0.01203923 0.04131613 0.00436247 -0.033576544 -8.6832144e-05 -0.030073363
0.042290565 0.047038224 0.00565763 0.01404677 0.030722726 -0.03240834 0.04907132 0.03557525
-0.0030896813 0.039061185 0.007319073 0.015567825 0.048708808 0.043978453 0.04301267 -0.026358582
0.036617067 0.0062205885 0.018832492 -0.015220821 -0.013229244 0.00089431903 0.034764726 -0.01721181
0.03678994 0.013640609 0.008848653 -0.03615009 0.016040089 0.02685427 -0.0052023 0.04122442
-0.026941014 0.039477926 0.06284097 -0.0006123437 0.026422264 -0.008467542 0.005734069 0.0055465777
-0.03550983 -0.031609733 -0.03418321 -0.035280474 -0.037005715 -0.0098761795 0.0013523134 0.0046586515
0.05834076 0.032560814 -0.037072774 0.016975697 0.041547395 -0.025211586 0.03889467 -0.010131888
0.017064892 0.037440617 0.03570402 -0.019503374 -0.005713229 -0.016132783 0.0009370826 -0.024622537
0.03306115 -0.012824312 0.06159212 0.048449054 0.03252908 0.051381927 0.0409501 -0.019985944
0.047931552 0.0041307593 0.038543034 0.050911237 0.056697838 0.04697049 -0.004129927 -0.019777546
0.056685437 0.04344177 -0.026863584 -0.027152188 -0.0378799 -0.025088055 -0.009199146 0.006378155
0.041885413 0.039158422 0.053142406 -0.009029964 0.03524073 -0.02327192 -6.3481784e-05 0.016184187
0.007147221 -0.007956871 0.04419346 -0.01503007 0.021534067 -0.00043920949 -0.006624404 0.0246504
0.0072283284 0.056186374 -0.034400046 0.03901355 0.030070301 -0.02244641 0.013348742 0.03978228
0.015364858 0.02758418 0.037185974 0.049796842 0.05450191 -0.03081565 -0.02742887 0.050989933
0.011328377 0.027364561 -0.041870974 0.042672794 -0.02762816 -0.01904381 -0.027265051 0.020157538
0.0347941 0.025354264 -0.007190236 0.007007342 0.01399331 -0.0034792598 0.058925584 0.01402977
00000000: 3b76 5f3c ff9a 07bd 38ff 163b 519c a03c
00000010: 9640 6f3d a827 c4bc c0cb 413c e894 6c3d
00000020: dd91 3f3d 029c 1f3b cd16 543d a54e 393d
00000030: eb51 203c 2fc6 3a3d 69a1 8cbc 0e08 2abd
00000040: 1e1c 313d 4840 303c 252b 603c ddd1 1dbc
00000050: ee63 a0bc b659 a4bc 02cd 6c3d a804 6b3d
00000060: d23f 443d e6d5 a23c ee76 5a3c 3e16 a2bb
00000070: 0fa2 5b3d 11ab df3c ac72 603d ebdb 8ebb
00000080: e14f 7cbc 41ce 27bb 286b 4e3c 32c7 e4bc
00000090: 3683 553d 2d91 8b3c e6b9 403d 74a7 153d
000000a0: 4527 d93c 5506 5c3d 60e3 80bb 0bde 3e3d
000000b0: 9a46 8f3b ea76 8fbc 1b5c a6bc 86d7 5c3d
000000c0: 76ae f8bc 7fee fe3c 4856 263d a924 39bc
000000d0: 3b31 b23c 07ac 83bc 68c7 5a3d 9fcc 90bc
000000e0: 0b5c 73bc 8d49 6d3d 4737 723c bb49 ffba
000000f0: fbe6 d13c 9e41 533a e1f4 fabc a6e2 07bd
00000100: 90b2 d13b b042 e1bc 7d0a 333d e038 26bd
00000110: 347a 20bc ef34 3c3d ad05 32bc 036c 6b3d
00000120: 9573 c7bb 11c5 1f3b 0cee 483c d7f4 9d3c
00000130: bb6c c1bc 8dd0 833c 93a4 1cbd 239c 3a3c
00000140: 8b05 1fbd 1d70 a2bc 00c8 bf3c f423 cdbb
00000150: 938b 493d 3bb6 bebc d2f2 03bd 2a26 77bc
00000160: 42c3 dd3c 7967 dd3b 920d f3bc 323c f4bc
00000170: f8c9 3b3d 1e73 923c ec6c e6bc 9f01 c9bc
00000180: da4d 2fbd 56f3 543d 8d02 28bd 38d8 023d
00000190: 59cd 6a3c 2acb b1bc 4555 ecbc 1940 993c
000001a0: 1820 ccbc 7430 a8bc 2fdc 093d 0083 e03c
000001b0: b4fc c83c 7024 00bd be16 4b3d 3a2e 3c3d
000001c0: 5e0f adbc 33ca 9c3c 3140 45bc 1a3b 293d
000001d0: 0df3 8e3b 8f87 09bd a719 b6b8 6a5c f6bc
000001e0: df38 2d3d 27ab 403d a463 b93b 6c24 663c
000001f0: 3aae fb3c 9cbe 04bd 02ff 483d 5ab7 113d
00000200: 407c 4abb 9ffe 1f3d d6d4 ef3b 3110 7f3c
00000210: e382 473d c022 343d 0e2e 303d f4ed d7bc
00000220: c7fb 153d 14d6 cb3b 9946 9a3c c060 79bc
00000230: 79bf 58bc bc70 6a3a 7565 0e3d c8ff 8cbc
00000240: 0cb1 163d dc7c 5f3c f1f9 103c 1e12 14bd
00000250: 8166 833c 7cfd db3c 0e78 aabb f0da 283d
00000260: 67b3 dcbc 9bb3 213d c4b2 803d b185 20ba
00000270: 8173 d83c 72bb 0abc dbe4 bb3b 11c0 b53b
00000280: c172 11bd 3579 01bd b203 0cbd 4282 10bd
00000290: 4e93 17bd b3cf 21bc 1c40 b13a 9aa7 983b
000002a0: b9f6 6e3d 7d5e 053d 9fd9 17bd 9e10 8b3c
000002b0: 9a2d 2a3d 8788 cebc 0450 1f3d 3800 26bc
000002c0: accb 8b3c 555b 193d 613e 123d 8ac5 9fbc
000002d0: 0a36 bbbb e628 84bc 8ca6 753a 34b5 c9bc
000002e0: 216b 073d 101d 52bc 0548 7c3d 8472 463d
000002f0: 363d 053d db75 523d 4bbb 273d 90b9 a3bc
00000300: e053 443d 525b 873b 4ddf 1d3d 4d88 503d
00000310: fe3b 683d 2164 403d 5754 87bb 8504 a2bc
00000320: fd2e 683d ffef 313d 0511 dcbc 446e debc
00000330: f427 1bbd 7785 cdbc 04b8 16bc d8ff d03b
00000340: 0a90 2b3d 9564 203d daab 593d 6af2 13bc
00000350: 9558 103d c1a4 bebc 8621 85b8 b394 843c
00000360: 3c33 ea3b 895d 02bc 3404 353d af40 76bc
00000370: 3668 b03c b345 e6b9 8711 d9bb a3ef c93c
00000380: 9ddb ec3b af23 663d 10e7 0cbd accc 1f3d
00000390: fe55 f63c 89e1 b7bc afb4 5a3c bef2 223d
000003a0: e3bc 7b3c 38f8 e13c 5250 183d c6f7 4b3d
000003b0: 653d 5f3d 1a71 fcbc 82b2 e0bc d2da 503d
000003c0: a89a 393c a52b e03c e680 2bbd abc9 2e3d
000003d0: 7354 e2bc c401 9cbc f55a dfbc 6c21 a53c
000003e0: 4284 0e3d bfb3 cf3c 129c ebbb d89d e53b
000003f0: 3244 653c 4b04 64bb f45b 713d 1fdd 653c

fc15.bias f4 [30]
0.029444112 0.036629885 0.03694486 0.02179517 -0.024183618 0.04050154 0.0006321984 -0.014301244
-0.006913825 -0.0051186127 0.030116713 0.059842624 -0.0012481099 0.041788056 0.009930435 -0.021542426
-0.005193731 0.04790604 0.047977157 -0.0052131386 0.026231103 0.0050671794 0.03478895 0.06394906
0.06781966 0.013273766 0.021940965 0.0054308446 -0.014680305 0.008944387
00000000: c734 f13c 3809 163d 7e53 173d c98b b23c
00000010: b91c c6bc f1e4 253d 1eba 253a c44f 6abc
00000020: 5e8d e2bb 09ba a7bb 53b7 f63c 8a1d 753d
00000030: 9e97 a3ba f429 2b3d 43b3 223c be79 b0bc
00000040: 2c30 aabb 2039 443d b283 443d fad2 aabb
00000050: 9ce2 d63c 950a a63b dc7e 0e3d baf7 823d
00000060: 09e5 8a3d 367a 593c 8abd b33c 3af5 b13b
00000070: a985 70bc 7a8b 123c

fc2.weight f4 [4, 30]
0.20515727 0.14733824 0.19707525 0.1906959 0.19777186 0.16844413 0.16601038 0.1737266
0.113271534 0.15193504 0.14226279 0.12482032 0.1504617 0.12947655 0.14419428 0.14075668
0.17827538 0.1544571 0.18261595 0.16134377 0.19936009 0.12344363 0.19301084 0.19308072
0.22445 0.19802526 0.20060027 0.18249545 0.19880961 0.20717043 0.1640704 0.053256515
0.0931847 0.09740868 0.14282945 0.10835653 0.0809475 0.15488325 0.12278283 0.14496763
0.13760784 0.09156156 0.14683974 0.15709785 0.1254643 0.1300411 0.10108495 0.10920688
0.056751825 0.11955484 0.16086496 0.10949447 0.11309816 0.117030896 0.1506278 0.1478291
0.11724727 0.11410706 0.14359474 0.1120209 0.20545404 0.102426514 0.16456719 0.14534155
0.18593487 0.1412032 0.17231888 0.17812456 0.19584186 0.12848063 0.16047244 0.1407798
0.12633306 0.17734666 0.1800242 0.13209245 0.18700087 0.20568825 0.18082117 0.12520397
0.20933081 0.20554435 0.120022014 0.17364295 0.14632854 0.12216143 0.21051231 0.20056874
0.1651059 0.13517062 0.0664942 0.12679915 0.12745203 0.1433051 0.060391154 0.08522081
0.1163162 0.10530596 0.11180508 0.077335395 0.074695386 0.0801835 0.077225536 0.06636057
0.07654761 0.11988361 0.055716548 0.15181999 0.05989824 0.068640135 0.15179002 0.08661536
0.05273806 0.10821797 0.07974333 0.054519415 0.07597243 0.10708467 0.11405474 0.119856246
00000000: bf14 523e d6df 163e 18ce 493e c945 433e
00000010: b584 4a3e 9e7c 2c3e a0fe 293e 63e5 313e
00000020: e8fa e73d dc94 1b3e 56ad 113e cca1 ff3d
00000030: a212 1a3e 8095 043e aaa7 133e 8522 103e
00000040: d28d 363e 012a 1e3e adff 3a3e 4d37 253e
00000050: 0d25 4c3e 04d0 fc3d a2a4 453e f4b6 453e
00000060: 39d6 653e 22c7 4a3e 286a 4d3e 16e0 3a3e
00000070: bf94 4b3e 7c24 543e 1202 283e 8123 5a3d
00000080: 9fd7 be3d 347e c73d e241 123e 07ea dd3d
00000090: cec7 a53d b799 1e3e 9075 fb3d 6572 143e
000000a0: 12e9 0c3e a184 bb3d 285d 163e 42de 203e
000000b0: b779 003e 7e29 053e a005 cf3d dba7 df3d
000000c0: 9a74 683d 2bd9 f43d c9b9 243e a33e e03d
000000d0: 02a0 e73d e5ad ef3d 2d3e 1a3e 8360 173e
000000e0: 561f f03d f6b0 e93d 800a 133e 376b e53d
000000f0: 8b62 523e fec4 d13d 4d84 283e 6ad4 143e
00000100: b665 3e3e 9297 103e 5c74 303e 4966 363e
00000110: c58a 483e 6d90 033e e352 243e 9428 103e
00000120: 745d 013e 5d9a 353e 4458 383e 3e43 073e
00000130: 287d 3f3e f19f 523e 2f29 393e 7835 003e
00000140: d15a 563e 387a 523e 1ace f53d 75cf 313e
00000150: 26d7 153e c62f fa3d 8a90 573e e461 4d3e
00000160: 8511 293e 2b6a 0a3e 1c2e 883d a3d7 013e
00000170: c982 023e 92be 123e b75c 773d 3f88 ae3d
00000180: 3037 ee3d a7aa d73d 10fa e43d 0562 9e3d
00000190: e5f9 983d 3f37 a43d 6c28 9e3d 0de8 873d
000001a0: fec4 9c3d 8a85 f53d 0937 643d b376 1b3e
000001b0: db57 753d 3393 8c3d d86e 1b3e 6563 b13d
000001c0: dd03 583d 62a1 dd3d 7950 a33d c04f 5f3d
000001d0: 6f97 9b3d 354f db3d 8895 e93d 3177 f53d

fc2.bias f4 [4]
0.34262273 0.2141407 0.33813992 0.23421478
00000000: 3f6c af3e b347 5b3e ad20 ad3e 00d6 6f3e
