TD0v2e_4000.pt (torch, 17200 bytes, 6 tensors)

fc1.weight f4 [60, 28]
00000000: a104 8bbb 4b70 2bbd 60a6 9a3b 08dc 063b
00000010: f71c 16bd f61f be3c 6afb 25bd 88ef b43c
00000020: 42a1 133c d7cc 1fbc 1d08 fc3c 1e59 013c
00000030: 1b45 243d 569b 5a3c da37 bd3b de0d fb3c
00000040: 9443 5d3c 7f4f 1fbd bcec f5bc c862 b13c
00000050: d263 153c 9aec 3bbc fff9 15bd dce2 f63c
00000060: 9721 5e3a a1fb c8bc d13e 493c b3a7 40bc
00000070: 06af 0fbd 8542 38bd 6cfc 37bd ce9f 18bd
00000080: f084 94bb 9fea 99bc f424 d2bc a616 10bd
00000090: e180 7fbb 5db0 3ebd 9bfe 53bc c607 17bd
000000a0: 8422 473c 8560 be3c e535 27bd e966 cfbc
000000b0: 9de6 39bd 4613 2c3d a1f4 50ba 9e5c ddbc
000000c0: cc53 30bb 3fd5 1fbd 89be 0f3d 811c 18bd
000000d0: dbc1 c8bc 8a2d 1cbc ce0f e3bc 8d06 cb3c
000000e0: 3f2a 38bd bc48 4b3d 2b47 51bc dff5 9d3b
000000f0: 5fc3 1dbd cb0f 13bd e2cf ef3c b75b 263d
00000100: 63cf 143d 3c6b 513b 385b acbc 86e6 083d
00000110: 7872 13bd dc64 30bc e055 80bc 2617 01bb
00000120: c8eb 713c 9890 fa3b 6683 093d a562 983c
00000130: 779a f2bc 8b7d c8bc c29f bcbb ad75 103d
00000140: 7ed4 053c 1b56 473d 1773 7b3b a574 3d3c
00000150: da61 8abc c6ec f0bc d61a 953c ad43 89bc
00000160: e3c5 3cbd 7bf1 323c 5a4a 01bd 1950 c9bc
00000170: 10b6 42bd 7cda 9b3a cba8 b0bc fd28 493c
00000180: 0bf4 953c 519e 24bd 4cf4 0ebd 0d15 08bb
00000190: 478f 46bd ffa4 863c c8f0 163d 5f86 a83c
000001a0: a3d8 c13c 7833 ed3b 8cff bf3c 8fdd 27bd
000001b0: 1c11 463d c3c8 e7bb cabf a03b 061d a03c
000001c0: 3d27 49bd d005 30bd c399 03bd f2db b0b9
000001d0: cc98 73bb d9a4 bbbb de97 02bd 996d d8bb
000001e0: 7966 883c b35d c63c bd36 ddbc 375f 0d3d
000001f0: 50ee 743c 83e9 41bb 1ed3 933b e0e8 443d
00000200: b443 8c3c 9e2e e03c 535b 483d 21b6 043c
00000210: 80c7 dbbc c185 05bc 518c d63c 53dc 483b
00000220: eb20 693d 9d23 0c3c 417f f03c d8a6 fe3c
00000230: 1c98 f73c d9da d7bc 7cf1 253c bacf 1cbc
00000240: 4981 febc 08c3 fd3c 28ea 45bd 7d4a 633c
00000250: fb7f f83c 861b 3dbd 5135 1cbd a1c8 c6bb
00000260: b7fe 493d 6f94 453d ad98 023d 5867 473d
00000270: ed67 27bb 4cfa d3bc 479f 373d 4dd2 74bc
00000280: cf54 0dbd 4c3c 2a3c 2548 bd3c 428a 093d
00000290: d657 09bd b396 833d b8bb 6c3c ca6e a9bc
000002a0: 9a20 2e3c 86fb cc3c 412c 42bd 834e 0d3c
000002b0: 128a fcbb 155f 013d dbda 403d cf28 d7bc
000002c0: d681 433d a447 e6ba 4b63 75ba 6d1c 013d
000002d0: 8193 163d 110d 2b3d b501 37bd 4462 36bd
000002e0: 7fe2 293d 69b4 223c 512a 8bbc 3c12 7a3c
000002f0: 5cf0 4abd c48c 903c cd5f b7bc 5998 0fbd
00000300: 5102 5c3d 684c b13b a1a4 403d 723d df3c
00000310: 7847 323d a078 f73c 6f0c 34bd 5fb1 ceba
00000320: 0d86 2abc 6739 abbb 8144 6a3c ed4f 003d
00000330: 5392 9a3c b889 03bd 5cdd 093d 0ab5 be3c
00000340: acf1 5e3c 38d9 28bd f783 423b 0b4f 8e3c
00000350: ee9e 70bc 3207 ac3b bc65 fb3c ae66 3b3d
00000360: d5d0 f33c 7ccd 213d 8382 0e3c 56b4 273d
00000370: e580 b33c 526d 57bc 2b57 193d f2a0 503d
00000380: 95ae 073d d6a5 0e3c 03fd 503b e09e 263d
00000390: 20aa d0bc 4d3e fe3c c193 efbc e329 1cbd
000003a0: 0a78 393d 57ae 793b ef6e 3d3c 8187 0f3d
000003b0: d3ea a7bc 1590 d9bc 33be 43bd 88a7 2f3d
000003c0: 3f6b efbc 384d 953c d4bc 3ebd ad65 6ebb
000003d0: d8f4 3d3c 237c 873b 08f6 89bc 7f4d d13c
000003e0: 04f4 433d 6a0d 2f3d 8616 d83c 2f3e 3fbc
000003f0: 67df 9ebc 00c1 edbc ff19 023d 0ad6 423d
-0.004242495 -0.041855138 0.0047195405 0.0020577926 -0.036648717 0.0232086 -0.04052297 0.022086874
0.009010615 -0.0097534275 0.030765587 0.007894782 0.040104967 0.013342699 0.0057744803 0.03064626
0.013504881 -0.038894173 -0.03002011 0.021653548 0.009118037 -0.011469984 -0.036615368 0.030137472
0.0008473633 -0.024534049 0.012283043 -0.011758733 -0.035079025 -0.044985313 -0.044918463 -0.037261777
-0.004532449 -0.018788634 -0.025652386 -0.03517785 -0.003898673 -0.046554912 -0.012939121 -0.036872648
0.012154225 0.023239383 -0.040822882 -0.025317626 -0.045385946 0.042010568 -0.0007971023 -0.027021702
-0.0026905416 -0.039021727 0.035093818 -0.03713656 -0.0245065 -0.009532342 -0.027717497 0.024783397
-0.044962164 0.04962991 -0.012773315 0.00482057 -0.0385164 -0.035903733 0.029273931 0.04061481
0.036330592 0.0031954786 -0.02103959 0.03342297 -0.035997838 -0.010766234 -0.015665948 -0.0019697635
0.014765687 0.0076466314 0.033572577 0.018601725 -0.02961467 -0.024473926 -0.0057563493 0.035268474
0.008168338 0.0486661 0.003836816 0.011563455 -0.016892362 -0.029409777 0.018201273 -0.016755903
-0.046087157 0.010921831 -0.031565048 -0.024574326 -0.04753691 0.0011890675 -0.021564862 0.012277839
0.018304845 -0.040190045 -0.03490095 -0.00207645 -0.048476484 0.016436098 0.03685072 0.020571886
0.02366287 0.0072388016 0.023437284 -0.04098278 0.04835616 -0.007073493 0.0049056755 0.01954509
-0.049109686 -0.042974293 -0.03212906 -0.00033733208 -0.0037169931 -0.0057264385 -0.031883113 -0.006604862
0.016650425 0.024214601 -0.02700364 0.034514632 0.014949396 -0.0029588647 0.004511251 0.04807365
0.017122127 0.027365979 0.04891522 0.008100064 -0.026828527 -0.008149565 0.026189955 0.0030648902
0.05691616 0.008553413 0.029357554 0.031085417 0.030223899 -0.026349472 0.010128375 -0.00957101
-0.031067507 0.030976787 -0.048319012 0.01387274 0.030334463 -0.046168827 -0.038136784 -0.0060663973
0.04931518 0.04823726 0.031883884 0.04868254 -0.0025544122 -0.025876187 0.044829633 -0.014942718
-0.034504708 0.010390352 0.02310569 0.03357912 -0.033531033 0.06425228 0.0144490525 -0.020682711
0.01062789 0.02502228 -0.047405485 0.008624676 -0.007706889 0.031584818 0.047083717 -0.026264576
0.047731243 -0.0017568958 -0.0009360804 0.03152125 0.036761764 0.041760508 -0.044679362 -0.044527307
0.04147577 0.009930708 -0.016987951 0.0152631365 -0.04954563 0.017645247 -0.022384549 -0.0350574
0.053713147 0.0054107197 0.047032002 0.02725098 0.04352519 0.030208886 -0.04395717 -0.0015769413
-0.010407937 -0.0052253488 0.014298559 0.031326223 0.018868601 -0.03211376 0.03365837 0.023279686
0.013607424 -0.04122278 0.0029680708 0.017371675 -0.014686329 0.005249881 0.03068816 0.04575222
0.029762665 0.039502606 0.008698109 0.040943466 0.021912048 -0.013148623 0.037436645 0.05093474
0.03312548 0.008706531 0.0031889088 0.04067886 -0.025471747 0.031035567 -0.02924526 -0.038125884
0.045280494 0.00380983 0.011562093 0.035041336 -0.020497715 -0.026557961 -0.04778881 0.04288438
-0.029225944 0.018225297 -0.0465668 -0.0036376521 0.01159402 0.0041346713 -0.01684095 0.025549648
0.047840133 0.042737402 0.026377928 -0.011672541 -0.019393636 -0.029022694 0.031763073 0.047567405

fc1.bias f4 [60]
00000000: 1b5f febc 9737 17bd 6dea 0d3c 61e4 19bd
00000010: 50c9 f0bc 622c c13c 0e2c 11bd d745 153d
00000020: e31e cfbb d882 303d b7bd 1e3d 3c32 9ebb
00000030: be33 593c b7e4 48bd c586 74bc 2832 cabc
00000040: 231b 1cbc 22bd 8b3c 7bf2 bd3c 0c03 47bc
00000050: 5899 4e3b 6ca9 6fbb 4ba2 1b3d 06db 7dbc
00000060: c074 123c 7bb7 4f3d 707e 003c aeea 94ba
00000070: 3f15 58bc 7618 e93c acb2 08bd 170d 393d
00000080: cf3d 56bc 15e0 1e3d c106 1c3c 1cc2 3e3d
00000090: 7b03 c63a dc0d 96bc 8752 a13c 222c 91bc
000000a0: f24b 083d 858f 22bd 9c83 d5bc d77d 00bd
000000b0: 3e72 013d 554a cfbc 9ee3 293d 17d6 e7bc
000000c0: 45a8 bbbc 59e2 69bc 2d8f 03bd 8c9c e3bb
000000d0: c536 013d fa79 bdbc 76ed ea3c 8b8b 273b
000000e0: 26f9 d63c c75d 363d b095 3cbd b1b5 da3c
-0.03105121 -0.03691825 0.0086618485 -0.037571315 -0.029392868 0.023580734 -0.035442404 0.036443558
-0.0063208207 0.043093532 0.038755145 -0.0048277657 0.013256965 -0.049046244 -0.01492471 -0.02468212
-0.009527954 0.017057959 0.023186913 -0.0121467225 0.0031524505 -0.003656949 0.03799657 -0.015494114
0.008938968 0.05071209 0.007842645 -0.0011361444 -0.013188659 0.028454047 -0.03337352 0.0451785
-0.01307626 0.03878792 0.009523095 0.046571836 0.0015107238 -0.018317156 0.019692672 -0.01772124
0.033275552 -0.039687652 -0.026063733 -0.03137001 0.03160309 -0.025303999 0.04147684 -0.028300328
-0.022907386 -0.014275157 -0.032118965 -0.006946152 0.031546373 -0.023129452 0.028677683 0.0025565352
0.02624185 0.044523027 -0.04604119 0.026697965

fc15.weight f4 [30, 60]
00000000: 2e63 f0bc 53a0 153d eb0d 2bbb b4d3 02bd
00000010: 6839 7e3c 9d47 13bd dcae 11bd 65fd 323c
00000020: d607 673d 1e55 43bc 4653 20bc d3b5 77bb
00000030: 29c4 b6bc 82a0 6f3c 2bf7 f43b 240d e2bb
00000040: 832c 03bd a962 dd3c 64c0 2cbd ef21 ee3c
00000050: 0a50 5e3d 1777 e13c 7458 91bc 6c71 eb3c
00000060: b465 313c 7f1a 6a3d eae1 dbbb 9f57 34bd
00000070: c092 ebbc f724 0b3d 40fd d63c 2bec 0ebc
00000080: 1ec4 aabc 9ec9 6cbc 2d45 8f3a 1941 db3c
00000090: 92e4 34bd fd51 6b3d a9a6 193d 6f45 503d
000000a0: 680f 153d 18b9 c03c 918c 8d3c 88d5 a2bc
000000b0: 7c68 183d 7179 14bd af04 18bc 47e9 3ebb
000000c0: 157a 9239 116e 623d 6ec6 77bb b834 ee3c
000000d0: f173 8cbc f021 503c 4864 ec3a 1a11 1f3d
000000e0: aaa4 783d 4cd6 39bc 362a 193d a228 f5bc
000000f0: f692 af3c 219e c9bb ee6f 173d 17b7 a63c
00000100: 9bdf bebc ba40 c1bc 82f6 2e3d 9b61 8c3b
00000110: 6f65 12bd b1c0 ca3c 5ff3 5f3d 7cfa fb3c
00000120: 1877 3a3d 61a1 ff3c 0bba 903a e203 723d
00000130: 5bbe 833c 33ca 37bd 4211 2abd 7e77 33bc
00000140: 03c6 963c fdf0 433d 942b a23c ea85 613d
00000150: 4625 2c3d 4268 833c a7bd a7bc be78 08bd
00000160: 645e 713d 760c a73b 7eb0 6d3c 4c56 f1bc
00000170: 791f 9c3c 0cb7 0ebd 129d 0c3d 0363 523d
00000180: 542b cb3c 9021 6c3d f1a9 6ebc 935d a33b
00000190: e95c 993c d156 c1bc 5727 103d 12f9 4bbb
000001a0: 1bc2 a5bc eeaf b43c 05de 1f3d 7bac 8c3c
000001b0: 4396 e63b 12b6 df3c 62e3 1e3d 7b91 fd3b
000001c0: ef7b d03b ca91 4b3d 45d5 f83b 813f 173c
000001d0: 5e15 883b 9fb8 cf3b 8dd8 003d 9ea3 17bd
000001e0: b9ee ce3c 6f56 6b3c 6f92 143c 16d7 e1bc
000001f0: 6253 fe3c 4003 7a3d 2cff 4a3d 61ac 6a3c
00000200: 40b0 c7bc 44db 0c3d b040 24bd 0e2a f13c
00000210: d751 0cbc 03c1 c5b9 76cb 043d bbf4 f4bc
00000220: 37cb 5d3d e40c fd3c f02e a8bc 42ce 11bd
00000230: 9ffd c5bc 9eca 183c fc66 593d f306 ffbc
00000240: bf4e f13c d873 44bc 7cd4 aebc 80ce e93a
00000250: 024f 043d 3560 26bd 7b23 c23c 5fcf 2d3c
00000260: db36 de3c 40b3 a3bc e1f5 2b3d 52f9 f1bc
00000270: 91ae 30bd 05d0 ec3c eafb 23bd 8ab2 433d
00000280: 1f85 553c 860c 063d 237f 343c 26c2 bcbc
00000290: c042 553d 48ec 083c 7108 9dbc e920 a43c
000002a0: 6555 c93c c6d6 173d 3dd2 d3bb 8bd6 373d
000002b0: 462c c2bb 2bc3 bfbc b4e2 efbc 52fe 143d
000002c0: 89c9 253d 7bf8 753c 814e debc fa36 053d
000002d0: 2710 0a3d a790 c33c bce3 143d 44fb b23c
000002e0: aad1 763d 7ccd 3f3c ccd6 5f3d de01 7b3d
000002f0: dc86 15bc 148f c4bc d15e 9a3c 606e ff3c
00000300: c00e a7bc 7d9a acbc dedc 8ebb 257b cf3c
00000310: eebe 58bc a1e8 473d 300e 74bc 03b3 0bbd
00000320: 16f8 26bc 791e 6a3d c19c a43c 57dd 103d
00000330: dc28 1dbd 6b7f 7dbc 40e9 9c3c 5c06 173d
00000340: 826c 163c 0aaa 0abd ecc0 e9bc 74c3 06bd
00000350: 5175 e9bc 20e4 56bc 6ab9 723d e8ed 1bbd
00000360: 4087 b53b d9cf ff3c 4dd9 13bd b590 6cbc
00000370: 4eab 863c 5177 923c 8158 d53c 28e8 cabb
00000380: 90c8 d93c fb58 853c 6c78 f83c 0dde 793c
00000390: aea2 383d 5577 f83c 2f42 bebc b8bf 233c
000003a0: 0537 11bd b072 8936 4f1a 233c 0bbb 013d
000003b0: 45a0 043d af56 ff3c 5adc 3d3d 998e 083c
000003c0: cd07 83bb dee4 4fbc e4cd 18bd 0d22 cebc
000003d0: b3ba 8bbc 90a0 5a3d cf3d a23c 94c8 9dbc
000003e0: c202 943c da22 dbbb ef40 5b3d 28b1 48bc
000003f0: 12c1 8cbb 0c7c 973c 08c3 073d 67b6 613d
-0.029344168 0.03652985 -0.0026100825 -0.031940177 0.015516616 -0.035956968 -0.03556715 0.010924672
0.056403957 -0.011922149 -0.009785479 -0.0037797585 -0.022310333 0.01462567 0.007475754 -0.006898539
-0.03202487 0.027024584 -0.042175665 0.029068915 0.05427555 0.027522607 -0.017742373 0.028740607
0.010827471 0.057154175 -0.0067102807 -0.044028874 -0.0287565 0.0339708 0.026243806 -0.008723299
-0.02084547 -0.014452366 0.001093065 0.02676444 -0.044163294 0.057451237 0.037512455 0.050847467
0.036391646 0.02352576 0.017278941 -0.01987721 0.03720902 -0.036248628 -0.00927846 -0.0029130743
0.00027938248 0.05528075 -0.0037807482 0.029077873 -0.017145129 0.012703404 0.0018035257 0.03883467
0.06070391 -0.011342596 0.03739377 -0.029926602 0.021432381 -0.0061528836 0.03697198 0.020350976
-0.023299983 -0.023590434 0.042715557 0.0042840964 -0.035741266 0.024750086 0.054675456 0.030759089
0.045523733 0.031204881 0.0011041773 0.059085734 0.01608198 -0.044870567 -0.041520365 -0.010953782
0.018404966 0.047837246 0.01979617 0.05505935 0.042027734 0.016040925 -0.020476175 -0.033318274
0.05892791 0.005097921 0.014507411 -0.029460095 0.019057976 -0.034842536 0.03432948 0.051363956
0.024800934 0.057649195 -0.014566884 0.00498552 0.01872106 -0.023600968 0.035193767 -0.00311238
-0.020234158 0.022056546 0.039030094 0.017172089 0.0070369556 0.027308498 0.038791068 0.00773829
0.0063624303 0.049699582 0.007593783 0.009231449 0.004152938 0.006339147 0.03145652 -0.037021272
0.025260316 0.014363869 0.009068116 -0.027568381 0.03104562 0.061038256 0.049559757 0.014323325
-0.024376035 0.034388795 -0.040100753 0.029438999 -0.008564434 -0.00037718573 0.032420598 -0.029901853
0.05414888 0.030889936 -0.020530194 -0.035597093 -0.024168788 0.009325651 0.05307673 -0.031131243
0.029456494 -0.01199051 -0.021341555 0.0017838031 0.03230191 -0.040619094 0.023698559 0.010608523
0.027125767 -0.019982934 0.041982535 -0.02953783 -0.04313523 0.028907785 -0.040035166 0.04777769
0.013032227 0.032726787 0.01101664 -0.023041796 0.05206561 0.008357115 -0.019169064 0.020035224
0.024576852 0.03707006 -0.0064642713 0.04488234 -0.005925688 -0.023408493 -0.029282905 0.03637535
0.040475402 0.015012856 -0.027137043 0.032523133 0.03370681 0.023872687 0.036349997 0.021848328
0.060258545 0.011706706 0.054648206 0.061281078 -0.009126391 -0.023994006 0.01884404 0.03118056
-0.020392776 -0.02106976 -0.0043598255 0.025327275 -0.013229115 0.048805837 -0.014895961 -0.034106266
-0.010190984 0.057157967 0.020094277 0.035367336 -0.038369045 -0.015472273 0.019154191 0.0368713
0.009181144 -0.033853568 -0.028534375 -0.032901242 -0.028498324 -0.013115913 0.059258856 -0.038068682
0.0055398047 0.03122704 -0.036095906 -0.014438798 0.016439106 0.01787916 0.026043179 -0.006192226
0.026584893 0.01627778 0.03033086 0.015250695 0.04507702 0.03033034 -0.023224918 0.00999444
-0.03545286 4.0962695e-06 0.009955003 0.03167252 0.032379407 0.031169264 0.04635272 0.008334779
-0.0039987327 -0.0126888435 -0.037305728 -0.025162721 -0.017056799 0.05337578 0.019804863 -0.019260682
0.018067721 -0.0066875042 0.053528722 -0.012249269 -0.0042954767 0.018491767 0.03314498 0.055105593

fc15.bias f4 [30]
00000000: 7771 dc3c a360 343d 1c01 753d e7ea 85bb
00000010: 31b4 30bc fd99 763d 21a3 81bc 746d b7bc
00000020: eef1 133c b473 303d e35d c13c 0f97 293d
00000030: ebf4 103d 13c4 653d 5441 073c e04d 9a3a
00000040: b4a1 a8bc 17d4 483d 3734 5c3d 1b7c 393d
00000050: 72a9 cfbc 5a80 08bb 67e5 be3b 346d afbc
00000060: dd5b f03c 6e5f af3c 1b2f eb3c 7bac a4bc
00000070: a53c 243d fe06 7c3d
0.026909573 0.044037472 0.05981551 -0.0040868404 -0.0107851485 0.06020545 -0.015824856 -0.022391059
0.0090298485 0.043079093 0.023604339 0.041403826 0.035389822 0.056095194 0.0082553215 0.0011772476
-0.020584919 0.04903039 0.053760733 0.04528437 -0.025349353 -0.0020828457 0.0058256867 -0.021414377
0.029340679 0.02140781 0.028708985 -0.020101776 0.040096898 0.061530106

fc2.weight f4 [4, 30]
00000000: eb6b 003e b231 363e 576b 0c3e d701 2e3e
00000010: 8695 db3d 6f06 333e 9f98 063e 67a9 a23d
00000020: e48d 043e 6259 2c3e f735 393e 488a c93d
00000030: 5571 db3d a163 3a3e 6c50 b83d 4117 f03d
00000040: d8cf 1b3e 6767 b83d f526 163e 5550 3b3e
00000050: a443 023e 3f2d 353e 81da 113e 236d 323e
00000060: 78e7 bf3d 2ec6 f13d c922 9e3d 79fd dc3d
00000070: 5904 d23d 7c6e 2a3e 131a 0c3e 1af7 2f3e
00000080: 04fa 413e 4187 0e3e f3c2 013e 8cb6 753e
00000090: c110 383e 643b e73d 0fcb f63d 0a7e 5f3e
000000a0: a2f2 2f3e 4940 203e e3f6 043e d428 513e
000000b0: a11e 0c3e 815a 403e f778 193e 9918 3e3e
000000c0: 4523 1c3e 3ab6 513e 84dd 3a3e f8a9 363e
000000d0: e7ac 533e 5ceb 343e d6ba 213e 5322 3e3e
000000e0: 8cf4 db3d 722f 5e3e dd5f 4e3e c30d 5b3e
000000f0: 00c6 1d3d 52de a43d 9948 fb3d bd6f 823d
00000100: 53bd b43d 8589 123e 972f b13d 0118 6b3d
00000110: 6dfd ae3d 87ed 2f3d 4f08 3a3d 7e3c 0c3e
00000120: 3344 fd3d e47a 153e c4dc 9f3d 282a d23d
00000130: 1818 023e 61c5 ae3d 13e8 ad3d 5f98 103e
00000140: 7d46 ed3d 0c2b d83d 713c 7c3d 4d7a 973d
00000150: 8916 083e b9e3 893d 7b91 9f3d cf8f f23d
00000160: 0eaa 0e3e 7ab7 343d d420 443e 0bc4 0c3e
00000170: b746 2d3e a5d4 373e fe59 f93d e16c 243e
00000180: 31c9 e63d 99ea 1e3e 3550 1a3e 198b 0d3e
00000190: 0565 ff3d 2295 5e3e ffe4 243e b1ba 4d3e
000001a0: 890f ce3d e7c7 583e 198f 473e dbb5 223e
000001b0: 6e83 423e 3de8 3f3e 1088 073e 5bda 483e
000001c0: b054 e13d b904 233e 003e 4d3e f545 0b3e
000001d0: 72b6 ff3d 5d34 273e 7adb 533e 5807 3e3e
0.12541167 0.17792395 0.13712822 0.1699289 0.10721879 0.17482923 0.13144158 0.07942467
0.12944752 0.16830972 0.18086992 0.09840828 0.10714976 0.18202068 0.08999714 0.11723185
0.15216005 0.090040974 0.14663298 0.18292363 0.12721115 0.17693041 0.14243509 0.17424445
0.09370321 0.11805378 0.077214785 0.107905336 0.102547355 0.16643709 0.13681822 0.17184106
0.1894303 0.13918783 0.12672023 0.23995417 0.17975141 0.11290625 0.12050449 0.21825424
0.17182401 0.15649523 0.12984805 0.20425731 0.13683559 0.18784525 0.1498755 0.18564071
0.1524783 0.2047967 0.18248564 0.17838275 0.20671426 0.17667907 0.15793929 0.18567781
0.10740003 0.21697786 0.20153756 0.21391968 0.038518906 0.08050217 0.12269706 0.06368969
0.08825173 0.14310272 0.08651655 0.05739594 0.08544431 0.042951133 0.04541808 0.13694951
0.123665236 0.1459766 0.078057796 0.10261947 0.12704504 0.08533741 0.0849153 0.14120625
0.1158571 0.105550855 0.06158108 0.07396374 0.13289846 0.06732888 0.0779142 0.118438356
0.13932058 0.04412029 0.19153148 0.1374666 0.16921507 0.17952211 0.12175368 0.16057159
0.11268843 0.1551918 0.15069659 0.13822593 0.1247044 0.21736577 0.1610298 0.20090748
0.10061557 0.21170007 0.19488181 0.15889685 0.18995449 0.18740936 0.13235497 0.19614546
0.11002481 0.1591977 0.20043182 0.13600905 0.124859706 0.16328569 0.20689192 0.18557489

fc2.bias f4 [4]
00000000: e6e2 483e 8ff6 ab3e 3d5b 373e e967 a13e
0.19617805 0.33586547 0.17905898 0.3152459
