TD0v2e_35000.pt (torch, 17210 bytes, 6 tensors)

fc1.weight f4 [60, 28]
0	0x3d178d04	0.036999717
1	0x3c67d514	0.014149923
2	0xbaff6420	-0.0019484796
3	0x3c590667	0.013246155
4	0xbcb1f86c	-0.021724902
5	0x3d3bb095	0.0458227
6	0xbcd22222	-0.025651041
7	0xbb02bab6	-0.0019947714
8	0x3d48e334	0.049044803
9	0xbd2a673b	-0.041602354
10	0x3ca1cae3	0.019750064
11	0xbd190a63	-0.03736342
12	0x3bfb0ad4	0.007661203
13	0x3d2d0440	0.04224038
14	0xbb48e2a8	-0.0030652676
15	0xbc3f527c	-0.011677381
16	0x3b3d54fe	0.002888977
17	0xbcf3fee4	-0.029784627
18	0xbd249559	-0.04018149
19	0x3d039c20	0.032131314
20	0x3c014526	0.007890021
21	0x3d087e12	0.033323355
22	0x3d3e143d	0.04640602
23	0x3d1dcd29	0.038525734
24	0x3d2100f6	0.039307557
25	0x3b8ff90c	0.0043937024
26	0x3d727acb	0.059199136
27	0x3d8a66fd	0.06757925
28	0x3d3fce7a	0.04682777
29	0xbca6f1c8	-0.020378962
30	0xbae11574	-0.0017172531
31	0xbd24c176	-0.04022356
32	0xbc049cee	-0.008094056
33	0xbcd3aa09	-0.025837915
34	0x3c4b407f	0.012405514
35	0x3d0d0dc5	0.03443696
36	0xbb74c794	-0.0037350403
37	0xbc704972	-0.014665948
38	0xbcd829be	-0.026387092
39	0xbca771d4	-0.02044002
40	0xbcf7de28	-0.0302573
41	0xbd077b04	-0.0330763
42	0x3d3ab1bc	0.045579657
43	0x3d1fe2de	0.039034717
44	0x3c30c760	0.010789722
45	0xbc8670eb	-0.016411265
46	0x3cf099fa	0.029370297
47	0xbcbc01f2	-0.022950146
48	0x3d3f3ad2	0.046686955
49	0x3d02c37a	0.031924702
50	0xbd145f08	-0.03622344
51	0xbccd782d	-0.025081718
52	0x3d23d7ae	0.04000061
53	0xbbfb912c	-0.007677218
54	0x3cca428b	0.024689933
55	0x3cff25f6	0.03114603
56	0xbd256b21	-0.04038537
57	0xbd4bedb5	-0.049787242
58	0x3d2f9e55	0.042875607
59	0x3c042c46	0.008067196
60	0x3cc38faa	0.023872215
61	0x3c248af9	0.010042899
62	0x3a9a496a	0.0011771147
63	0xbca4ee90	-0.020133287
64	0x3d0a8211	0.033815447
65	0x3cc93ba7	0.024564577
66	0xbcdf7a99	-0.027280139
67	0xbd48316e	-0.048875265
68	0xbb0c3f6a	-0.0021400102
69	0xbd3f3d5c	-0.046689376
70	0x3d4c842f	0.049930748
71	0xbcefb449	-0.029260771
72	0xbbe21692	-0.0068996632
73	0x3b69577b	0.003560512
74	0x3d25ad61	0.04044855
75	0xbcd11fc8	-0.02552785
76	0x3cc0dcd0	0.023542792
77	0xbd239c21	-0.039943818
78	0xbc8a302b	-0.016868671
79	0xbcc80e75	-0.024420956
80	0xbca35e18	-0.019942328
81	0x3c906d76	0.01763032
82	0xbcfbdaee	-0.030744042
83	0xbd792f71	-0.06083626
84	0xbd0d97f0	-0.034568727
85	0x3ca0eaa1	0.01964313
86	0xbd268638	-0.040655345
87	0x3c1f0fb0	0.00970833
88	0xbd34ffff	-0.04418945
89	0xbd3419be	-0.043969862
90	0xbd4134c5	-0.047169466
91	0x3c378a19	0.011202359
92	0x3d000e3f	0.031263586
93	0x3c84a946	0.016193997
94	0x3d406356	0.046969734
95	0x3cc1e18b	0.023667118
96	0xba9a3eef	-0.0011768023
97	0xbd0535f7	-0.032522168
98	0xbc94a4bb	-0.018144956
99	0xbd1bbf08	-0.03802398
100	0x3b04b5db	0.0020249996
101	0x3d14638e	0.036227755
102	0xbc6841ce	-0.014175845
103	0xbc802b47	-0.015645636
104	0x3c4ba54f	0.012429549
105	0xbd30cb55	-0.043162663
106	0xbd2c5b81	-0.042079452
107	0xbd0747bd	-0.0330274
108	0x3be607be	0.007019966
109	0x3d57a08f	0.052643355
110	0xbb833921	-0.004004613
111	0x3d5abe3e	0.053404085
112	0xbcfba20c	-0.030716918
113	0x3bfb5ae1	0.0076707457
114	0x3cdb23ac	0.026750408
115	0x3d31e830	0.043434322
116	0x3c75befc	0.0149991475
117	0xbaa2b223	-0.0012412708
118	0x3cff11b6	0.031136375
119	0x3c2af188	0.010433562
120	0xbcac5230	-0.021035284
121	0x3d3f2e96	0.046675287
122	0x3b1498e3	0.0022674135
123	0x3cfd76d8	0.030940458
124	0xbd408469	-0.047001276
125	0xbc2186f0	-0.009858832
126	0xbba501b3	-0.005035603
127	0xbcc6d153	-0.024269735
128	0x3c0b23ab	0.008492391
129	0x3cfb5783	0.030681377
130	0xbb32630e	-0.0027219686
131	0x3ca1a049	0.01972975
132	0xbc83092a	-0.01599558
133	0x3cd576df	0.026057659
134	0x3cd07446	0.025446068
135	0xbca71360	-0.02039498
136	0xbcb3e5b8	-0.021960124
137	0xbc3b570f	-0.011434331
138	0xbc4f6641	-0.012658657
139	0xbd25bfb7	-0.040466037
140	0xbc9d63d8	-0.019212648
141	0x3d054aa9	0.032541905
142	0x3d2e84f6	0.04260727
143	0x3bf6a13d	0.0075265453
144	0x3c1e5630	0.009664103
145	0xbc8e4bb0	-0.017370075
146	0x3c9328ae	0.017963734
147	0xbd0f1b45	-0.034938116
148	0x3cda713e	0.026665326
149	0xbc809212	-0.015694652
150	0x3c9053f5	0.017618159
151	0xbd4137ac	-0.047172233
152	0xbd21bd69	-0.039487276
153	0xbc3c2079	-0.011482351
154	0x3b0849b6	0.0020795888
155	0xbd268fec	-0.0406646
156	0x3c869519	0.016428517
157	0xbc1dc74d	-0.009630037
158	0xbd14cfe3	-0.03633107
159	0xbbb73eaa	-0.005592187
160	0xbd43a2fe	-0.047762863
161	0x3d03f710	0.03221804
162	0xbafb82a6	-0.0019188717
163	0xbca714a9	-0.020395594
164	0xbc9fbc1f	-0.019498883
165	0x3caaff0d	0.02087357
166	0x3c1f559c	0.009725001
167	0x3d423281	0.047411446
168	0x3cd38d20	0.02582413
169	0x3cee2d6d	0.029074395
170	0x3cca5e2e	0.024703111
171	0xbd47e1a9	-0.04879919
172	0xbd4bdca2	-0.04977096
173	0xbd262621	-0.040563706
174	0xbc508bc3	-0.012728634
175	0x3c80bfaa	0.015716393
176	0x3c2a0881	0.010378004
177	0xbd17731e	-0.03697502
178	0x3cfd8f84	0.030952223
179	0x3d2fbb4d	0.042903233
180	0xbcc01540	-0.023447633
181	0xbc7bb069	-0.015361884
182	0x3d41d810	0.047325194
183	0x3d0e0a64	0.034677878
184	0xbcee7541	-0.029108645
185	0x3cd3b816	0.025844615
186	0x3c91f483	0.017816788
187	0xbd4b8ca1	-0.04969466
188	0xbc7be350	-0.01537402
189	0x3c288222	0.010284932
190	0xbc870474	-0.016481616
191	0x3d313185	0.043260116
192	0xbc9dd148	-0.019264832
193	0x3c856b5c	0.016286545
194	0xbca48248	-0.020081654
195	0x3d248dea	0.040174402
196	0x3bfc7ab1	0.0077050556
197	0x3c9fde72	0.01951525
198	0xb9845cde	-0.00025246193
199	0x3d009dd4	0.031400517
200	0xbd323f28	-0.04351726
201	0xbcd0a4bd	-0.025469178
202	0xbd2c3445	-0.042042036
203	0x3d38db40	0.045130968
204	0x3a47e2de	0.00076250534
205	0xbd25a1da	-0.040437557
206	0xbbbdfd7d	-0.0057980404
207	0x3d002581	0.031285767
208	0xbcdaedef	-0.026724784
209	0xbd1dfeb1	-0.03857297
210	0x3b17159a	0.0023053647
211	0x3cd2dc8c	0.02573993
212	0xbce21023	-0.027595585
213	0xbcd55a32	-0.026043985
214	0xbd2ad211	-0.04170424
215	0xbce8ea8e	-0.028432157
216	0xbca2c29e	-0.019868191
217	0xbd4577bd	-0.048209894
218	0x3d126d96	0.03574904
219	0x3ce51fd6	0.027969282
220	0xbb255769	-0.0025229102
221	0x3d2c2698	0.042028993
222	0xb8a7ebb9	-8.007087e-05
223	0x3d475e30	0.04867381
224	0x3d20b118	0.03923139
225	0x3d34f732	0.044181056
226	0xbc4790fe	-0.012180565
227	0x3cba07e9	0.02270885
228	0xbd11a245	-0.035555143
229	0x3d4819fc	0.048852906
230	0xbc92d604	-0.017924316
231	0xbcf50af7	-0.029912455
232	0x3cf46a92	0.029835973
233	0x3d20b396	0.039233766
234	0xbccd97b9	-0.025096761
235	0x3d3d737a	0.046252705
236	0xbc8392be	-0.016061183
237	0xbd1720dd	-0.036896575
238	0x3c0ea81f	0.008707075
239	0xbc30c278	-0.010788552
240	0xbb407284	-0.0029365132
241	0xbc986510	-0.018602878
242	0xbd09c3d0	-0.033634007
243	0x3b39d662	0.0028356542
244	0xbd07752b	-0.033070724
245	0x3cc5ec5d	0.024160558
246	0x3c365f6e	0.011131151
247	0x3d1bda8a	0.038050212
248	0x3d3596c8	0.04433325
249	0x3d42fb2e	0.047602825
250	0x3cc38a6f	0.023869721
251	0x3ce8537c	0.028360121
252	0x3cddb111	0.02706197
253	0x3b2f201c	0.002672202
254	0x3c53ba4a	0.012922833
255	0xbd03d3f0	-0.03218454

fc1.bias f4 [60]
0	0x3c987b9e	0.018613633
1	0xbc1297f1	-0.0089473585
2	0x3d379e6c	0.044828817
3	0xbd42ce7e	-0.047560208
4	0xbd407838	-0.04698965
5	0xbd27e7e7	-0.040992644
6	0xbc8c88c8	-0.017155066
7	0xbcbd60b1	-0.023117395
8	0x3ca5e0a0	0.020248711
9	0xbd3c2119	-0.045930002
10	0xbc98f40a	-0.018671054
11	0xbc8212a9	-0.015878038
12	0xbd0cea34	-0.03440304
13	0xbd1385d9	-0.03601632
14	0xbd233ff6	-0.03985592
15	0x3bb585b0	0.0055396184
16	0xbce8663e	-0.028369065
17	0xbd113666	-0.03545227
18	0xbd01fe05	-0.031736393
19	0x3d3b43c5	0.045718927
20	0xbd1d9787	-0.038474586
21	0xbd0471cf	-0.0323351
22	0x3baa0632	0.005188727
23	0xbc2edd82	-0.010672929
24	0xbc39320c	-0.011303436
25	0xbc1bbb32	-0.00950508
26	0x3d2c6404	0.04208757
27	0x3d1214db	0.03566442
28	0xbd15af19	-0.03654394
29	0xbbbbd453	-0.005732098
30	0xbd1d470d	-0.038397837
31	0xbcf370c3	-0.029716855
32	0x3b691792	0.0035567028
33	0x3c9c1c44	0.019056447
34	0xbc14a21d	-0.009071854
35	0x3ce6a797	0.028156085
36	0x3cc05436	0.023477655
37	0xbbb3a7ca	-0.0054826485
38	0xbc297402	-0.0103426
39	0x3b6ece3a	0.0036438839
40	0xbc998818	-0.018741652
41	0x3c8dd239	0.017312156
42	0xbc66fbc9	-0.014098116
43	0xbc0bffaf	-0.008544846
44	0xbc94fe11	-0.018187555
45	0xbd4145b3	-0.04718561
46	0xbd1cdd82	-0.038297184
47	0xbc8df317	-0.017327828
48	0xbc98c37d	-0.018647904
49	0xbd3e89ce	-0.04651814
50	0xbb0f70b8	-0.0021887254
51	0xbd07bae9	-0.033137236
52	0xbc7a51bc	-0.015278276
53	0x3c6d3916	0.014478942
54	0x3cb5b41b	0.022180608
55	0x3d06aa4f	0.032877263
56	0x3ce64999	0.028111266
57	0x3d3b8f9f	0.045791265
58	0xbc2c3358	-0.010510288
59	0xbc8568b2	-0.016285274

fc15.weight f4 [30, 60]
0	0x3c7b45b6	0.015336445
1	0x3d5ff18a	0.05467371
2	0x3c8c98ce	0.017162707
3	0xbbe6da25	-0.007045048
4	0x3d1dafd2	0.038497753
5	0xbcb2f907	-0.021847261
6	0xbcdda19b	-0.027054599
7	0x3d1b5515	0.037922937
8	0x3ca5336d	0.020166123
9	0x3c28558a	0.0102743
10	0x3c29ac2c	0.01035599
11	0xbc979867	-0.018505288
12	0x3d6af983	0.05736686
13	0x3cf52a7b	0.029927483
14	0x3d798e28	0.060926586
15	0x3c0505df	0.008119076
16	0x3d0eb56e	0.034840994
17	0xbcbb0dcb	-0.022833725
18	0x3a9bda35	0.0011890592
19	0xbd02563e	-0.03182053
20	0x3a502a4b	0.00079408725
21	0x3d819e0a	0.06328972
22	0x3bfe0a05	0.0077526593
23	0x3b943be3	0.0045237406
24	0x3cffa293	0.031205451
25	0x3bbbbc23	0.0057292148
26	0xbcb93004	-0.022605903
27	0xbbff3095	-0.007787774
28	0xbc785e3e	-0.015159188
29	0x3cfd42b7	0.030915601
30	0x3d11d931	0.03560752
31	0x3babb01d	0.0052395
32	0x3c903267	0.017602159
33	0xbc92a16e	-0.017899241
34	0x3cc24340	0.023713708
35	0x3d766cf0	0.060162485
36	0x3d198434	0.037479594
37	0x3d649f46	0.055815957
38	0xb8caa20b	-9.6622935e-05
39	0x3c7c97d6	0.01541706
40	0xbb9a327d	-0.0047057257
41	0x3ad0663b	0.0015899608
42	0x3c558ddd	0.013034311
43	0xbd0cea79	-0.034403298
44	0x3d56d173	0.05244584
45	0xbcf88cf5	-0.030340651
46	0x3d709726	0.058737896
47	0xbc892d19	-0.016745137
48	0xbd1f21b2	-0.038850494
49	0x3d493de9	0.049131308
50	0x3d4aa90b	0.04947762
51	0xbafd8476	-0.0019341845
52	0x3d1e0af9	0.038584683
53	0x3d05db46	0.03267982
54	0x3cbe717d	0.023247475
55	0x3d71138c	0.058856532
56	0xbcd3fd44	-0.025877602
57	0xbca7badd	-0.020474846
58	0x3cd68319	0.02618556
59	0x3c0ccbe2	0.008593531
60	0x3d77f936	0.0605404
61	0x3d3f8ab5	0.04676314
62	0x3d6bf528	0.057606846
63	0xbceac6ec	-0.028659306
64	0xbcd2d149	-0.02573456
65	0x3d68ffd8	0.056884617
66	0xbcc7530d	-0.024331594
67	0xbc03654d	-0.008019757
68	0x3d84c30a	0.06482513
69	0x3d40be3d	0.047056425
70	0x3c83b65b	0.016078165
71	0xbd04b53d	-0.032399405
72	0xbc39a473	-0.011330712
73	0xbc3841ed	-0.011246187
74	0xbc40cfac	-0.011768263
75	0x3d15da22	0.03658498
76	0xbca3df57	-0.020003958
77	0xbd0c7368	-0.034289747
78	0x3d68675f	0.056739207
79	0xbcc53600	-0.0240736
80	0x3d25ab0e	0.040446334
81	0xba0cd7d5	-0.00053727377
82	0x3d5eda9c	0.0544077
83	0xbce0172b	-0.027354797
84	0xbb6c8646	-0.0036090775
85	0x3be48f22	0.0069750706
86	0x3d869f5b	0.065733634
87	0x3d8b34ac	0.06797156
88	0x3d313cf1	0.04327101
89	0xbc17977f	-0.009252428
90	0xbc140021	-0.009033234
91	0x3d6a5c5b	0.057216983
92	0xbca5bbc0	-0.020231128
93	0x3d5e1297	0.054216947
94	0x3d1484d9	0.036259506
95	0x3d67042e	0.05640047
96	0x3d768672	0.06018681
97	0x3d3d53d5	0.046222527
98	0xbc5536cb	-0.013013552
99	0x3d27aa39	0.04093382
100	0xbcdaf6e4	-0.026729055
101	0x3c93c0f6	0.018036347
102	0x3a4e881e	0.00078785594
103	0xbd179717	-0.037009325
104	0x3d040465	0.032230753
105	0x3d4f6773	0.050635766
106	0x3d0a7760	0.03380525
107	0x3d72c88d	0.05927329
108	0xbcc041f3	-0.023468947
109	0x3d8e6b74	0.06954089
110	0xbcd9014b	-0.026489874
111	0x3c537ea6	0.012908613
112	0x3d5e3a75	0.054254968
113	0x3d3ac839	0.045601103
114	0x3c5e3cf8	0.013564341
115	0xbbd89ea5	-0.006610709
116	0x3c8fed45	0.017569194
117	0x3d66eb9a	0.05637703
118	0x3cfb4e02	0.030676845
119	0x3d5cd3bc	0.053912863
120	0x3d0f92c0	0.03505206
121	0xbc2f1630	-0.010686442
122	0x3a2587f9	0.0006314512
123	0xbced2f6f	-0.028953282
124	0x3cc9ae3c	0.024619214
125	0x3d1c06e5	0.038092513
126	0xbca56619	-0.020190286
127	0x3d786218	0.060640424
128	0x3d7e06f7	0.06201836
129	0x3c807c70	0.015684336
130	0x3c7fdb05	0.015616183
131	0x3cae2318	0.021256968
132	0x3c41aad1	0.011820511
133	0x3d60f6f2	0.054923005
134	0x3c80dae4	0.015729375
135	0xbc077402	-0.0082674045
136	0x3bcf2d50	0.0063225403
137	0x3cdb56b6	0.026774745
138	0x3d8a1e04	0.06744006
139	0x3d679103	0.05653478
140	0x3d7d1c10	0.06179434
141	0x3cad9761	0.021190347
142	0x3d05908e	0.03260856
143	0x3ceaffff	0.028686522
144	0xbc17dfee	-0.009269698
145	0x3d4eec19	0.05051813
146	0xbcbf0e4d	-0.023322249
147	0xbc655526	-0.013997352
148	0x3b39fd0f	0.0028379594
149	0xbb71278e	-0.0036797258
150	0x3d7654c2	0.060139425
151	0x3d408adf	0.047007438
152	0xbb567e77	-0.0032729188
153	0xbcf5813a	-0.029968847
154	0x3d5d9a0b	0.054101985
155	0x3d00ad75	0.03141542
156	0x3c2516bb	0.01007622
157	0x3c49e047	0.012321538
158	0x3cc65be3	0.024213737
159	0xbb020be0	-0.0019843504
160	0x3c11e23c	0.008904036
161	0xbce741e7	-0.028229667
162	0xb92a0f1c	-0.00016218092
163	0x3d653a0c	0.05596356
164	0x3d6de199	0.058076475
165	0x3d3d9e82	0.046293743
166	0x3c70294e	0.014658285
167	0x3c81ad27	0.015829636
168	0xbca1a858	-0.019733593
169	0x3d4f4159	0.05059943
170	0xbcba4255	-0.022736708
171	0xbbbb1064	-0.005708741
172	0x3d4aa97c	0.04947804
173	0x3d51c858	0.051216453
174	0x3c836d12	0.01604322
175	0x3d2ae6e8	0.041724116
176	0x3ca10f28	0.019660547
177	0xbc7e0281	-0.015503527
178	0xbb35ce9a	-0.0027741552
179	0x3bb7fae1	0.005614624
180	0x3d872b34	0.06600037
181	0xbc92f5be	-0.017939445
182	0x3b257705	0.0025247943
183	0x3d82543a	0.06363721
184	0x3d1bbc81	0.03802157
185	0xbb163e21	-0.0022925215
186	0x3d065665	0.032797236
187	0x3d29274e	0.04129725
188	0x3adf70da	0.0017047182
189	0x3c85c132	0.016327474
190	0xbcddf89b	-0.027096083
191	0x3d7a9a9c	0.061182603
192	0x3d070881	0.032967094
193	0xbcc25c5d	-0.023725683
194	0xbd0ddf1a	-0.034636594
195	0x3d3ec229	0.046571884
196	0x3cd57a67	0.026059343
197	0xbd1cf61d	-0.03832065
198	0x3cef9221	0.029244484
199	0x3a237f10	0.00062368903
200	0x3b524e2e	0.0032090056
201	0x3c0191b2	0.007908272
202	0xbca9ad98	-0.020712659
203	0x3cc72885	0.024311313
204	0x3ccb3a8f	0.024808196
205	0x3d1cf4c3	0.03831936
206	0x3d329b50	0.04360515
207	0xbc87fbe2	-0.0165996
208	0xbc8a1e86	-0.016860258
209	0x3d6da7fb	0.058021527
210	0x3d3f19a9	0.04665533
211	0xbcebcfd9	-0.028785633
212	0x3c1faec4	0.009746257
213	0x3d4ccaa6	0.049997948
214	0x3c34f49e	0.011044649
215	0x3c17e22b	0.009270231
216	0x3c41adf8	0.011821263
217	0xbd0b18d9	-0.033959243
218	0x3d49e48f	0.049290236
219	0x3d03b4ce	0.03215485
220	0x3ca59319	0.020211743
221	0xbd022c84	-0.031780735
222	0x3d6ac645	0.05731799
223	0x3cf91fc2	0.030410651
224	0xbc42c0ec	-0.0118868165
225	0x3d38858a	0.045049228
226	0xbc0edc8c	-0.008719575
227	0xbbb4451e	-0.0055014035
228	0xbca7a3b4	-0.020463802
229	0x3baae901	0.0052157645
230	0x3ce7c63c	0.028292768
231	0x3afc86b3	0.0019266218
232	0x3cb3b1ca	0.021935362
233	0xbbc183e7	-0.0059056166
234	0x3d53b1a3	0.05168308
235	0x3cb14ef7	0.021644099
236	0x3b9a747a	0.004713592
237	0x3d4ec561	0.050481204
238	0x3ae13916	0.0017183151
239	0x3d3d2ecf	0.04618722
240	0x3d502864	0.05081977
241	0x3cd134df	0.025537906
242	0x3b711345	0.0036785167
243	0xbc8a8c9b	-0.016912749
244	0x3c6a1ae3	0.014288637
245	0x3d59b241	0.05314851
246	0x3d3767c5	0.044776697
247	0x3c85b19b	0.01632004
248	0x3d6df50b	0.05809502
249	0x3d04b25f	0.03239667
250	0xbb3cb70b	-0.0028795626
251	0x3d08f9b1	0.03344125
252	0xbd25b1ff	-0.040452953
253	0x3d0b3713	0.03398807
254	0xbb0d5d16	-0.0021570376
255	0x3c9de661	0.019274892

fc15.bias f4 [30]
0	0x3d1c3687	0.03813794
1	0xbc0f2140	-0.008735955
2	0x3d92684d	0.071488
3	0x3b10b3bf	0.0022079793
4	0x3d80a1ce	0.06280862
5	0xbc387a28	-0.011259593
6	0x3c1bfa4f	0.009520127
7	0xbc9eecf0	-0.01940009
8	0x3d94b5cc	0.072612375
9	0x3cdae472	0.02672026
10	0xbc9c0f2b	-0.019050201
11	0xb986e164	-0.000257264
12	0x3d50b339	0.05095217
13	0x3d19dd1c	0.037564382
14	0x3d585f91	0.052825514
15	0x3c4dba39	0.012556606
16	0x3d78e7b5	0.060767848
17	0xbbc4d76a	-0.0060071247
18	0xbcc432d7	-0.023950024
19	0x3d7d1e50	0.061796486
20	0x3cd56c31	0.026052566
21	0x3d09ec10	0.033672392
22	0x3d3e2c71	0.0464291
23	0x3d1661c7	0.03671434
24	0x3d91aae1	0.07112671
25	0x3bcef9d5	0.0063164034
26	0x3a26e317	0.00063662365
27	0x3d55dbbb	0.052211504
28	0xba81bc45	-0.0009898028
29	0x3d6eed28	0.05833164

fc2.weight f4 [4, 30]
0	0x3def2055	0.11676089
1	0x3e0395c2	0.12850097
2	0x3e3822cd	0.17982025
3	0x3dd1fed1	0.102536805
4	0x3e2b5f7b	0.16735642
5	0x3e0462f7	0.12928377
6	0x3e019077	0.12652765
7	0x3e263458	0.16230905
8	0x3e39beba	0.18139163
9	0x3deeff6a	0.1166981
10	0x3e0e54dd	0.1389956
11	0x3ded87b1	0.11598147
12	0x3e51a2b6	0.20472226
13	0x3e1ba7f6	0.15200791
14	0x3e09c3ec	0.13453645
15	0x3e1c6c0a	0.15275589
16	0x3e32eb8b	0.17472665
17	0x3e1ce2e6	0.1532093
18	0x3e0e2504	0.13881308
19	0x3e3c0144	0.18359858
20	0x3dee28ec	0.11628899
21	0x3e50f231	0.20404889
22	0x3e18ec9f	0.14934014
23	0x3e1b8787	0.15188418
24	0x3e361897	0.17782818
25	0x3e3d3452	0.1847699
26	0x3e2cfc81	0.16893198
27	0x3e01a3f3	0.12660198
28	0x3dba9b0f	0.09111606
29	0x3e0d6d09	0.13811125
30	0x3e710ec0	0.23540783
31	0x3e3d3c9c	0.18480152
32	0x3e2f8ca9	0.17143501
33	0x3e43d3fb	0.19123833
34	0x3e31d162	0.1736503
35	0x3e5fb08e	0.21844694
36	0x3e1dead8	0.15421617
37	0x3e412a1a	0.18863717
38	0x3e3dfa31	0.18552472
39	0x3e3d9ad3	0.18516092
40	0x3e60e751	0.2196324
41	0x3e82d218	0.25550914
42	0x3e609a28	0.21933806
43	0x3e78fdc9	0.24315561
44	0x3e392578	0.180807
45	0x3e6266e1	0.22109558
46	0x3e7fc7c6	0.24978551
47	0x3e0fecfb	0.14055245
48	0x3e3ed25e	0.18634936
49	0x3e494c42	0.19657996
50	0x3e6e1f7e	0.23254201
51	0x3e80f2e8	0.25185323
52	0x3e2521d8	0.16126192
53	0x3e70cfac	0.2351672
54	0x3e6aabce	0.22917101
55	0x3e4dbcbf	0.20091532
56	0x3e21c6b7	0.1579846
57	0x3e55746d	0.20845194
58	0x3e248946	0.1606799
59	0x3e4e8965	0.201696
60	0x3e3001e1	0.17188217
61	0x3e554a31	0.20829083
62	0x3e587da1	0.21141674
63	0x3e549195	0.2075866
64	0x3e4634d2	0.19356087
65	0x3e2b09e2	0.16702989
66	0x3e30962d	0.17244788
67	0x3e168bfb	0.14701836
68	0x3de3501b	0.11099263
69	0x3dd7de1e	0.10540412
70	0x3de716f4	0.11283675
71	0x3e4a3330	0.19746089
72	0x3e3e3940	0.18576527
73	0x3e37632e	0.17908928
74	0x3e58b83c	0.2116403
75	0x3e5db0ab	0.21649425
76	0x3e316a16	0.17325625
77	0x3e2e6563	0.17030863
78	0x3e06cff2	0.13165262
79	0x3e583649	0.21114458
80	0x3e596690	0.2123053
81	0x3e1e87b5	0.15481456
82	0x3e066a0f	0.13126396
83	0x3e5162d2	0.20447853
84	0x3e1bcfb4	0.15215951
85	0x3e3f8d67	0.18706284
86	0x3e13fc89	0.14451803
87	0x3e3db06a	0.18524328
88	0x3e3fd30a	0.18732849
89	0x3dd24b56	0.102682754
90	0x3e5aed7d	0.21379657
91	0x3e865a36	0.262407
92	0x3e577e7d	0.21044345
93	0x3e60b917	0.21945606
94	0x3e49d199	0.19708861
95	0x3e4f2f19	0.2023281
96	0x3e6af11a	0.22943535
97	0x3e550979	0.20804395
98	0x3e6bf0b1	0.23041035
99	0x3e4ba38c	0.19886607
100	0x3e41e131	0.1893356
101	0x3e813d9c	0.25242317
102	0x3e64a84b	0.22329824
103	0x3e6cc1f8	0.23120868
104	0x3e3072b3	0.17231254
105	0x3e8685b8	0.26273894
106	0x3e864af0	0.26229048
107	0x3e4d01a8	0.20020163
108	0x3e1ebfae	0.15502807
109	0x3e39908f	0.18121551
110	0x3e4900ab	0.19629161
111	0x3e5b8165	0.21436079
112	0x3e35a112	0.17737225
113	0x3e725578	0.23665416
114	0x3e244515	0.16041978
115	0x3e4367c6	0.19082555
116	0x3e17be7a	0.14818755
117	0x3e1379bc	0.14401907
118	0x3e15594a	0.14584842
119	0x3e47eda0	0.1952424

fc2.bias f4 [4]
0	0x3e65c2d1	0.22437598
1	0x3eaaa676	0.33330125
2	0x3e8c004d	0.2734398
3	0x3ecc8758	0.3994701
