TD0v1_4000.pt (torch, 12400 bytes, 4 tensors)

fc1.weight f4 [80, 28]
000000 98 e9 1a 3d c9 a1 0a 3d e5 da 39 3d d7 dc ba 3c
       0.03782043 0.033845697 0.04537477 0.022810383
000010 8b 2c 78 bc e8 38 32 3c c9 f3 49 3d 83 3a 92 3b
       -0.015147339 0.010877825 0.049304757 0.0044625415
000020 80 a3 32 3d 3a 37 e8 bc fb 99 88 3c 57 75 95 bc
       0.043612957 -0.028346647 0.016674986 -0.018244429
000030 00 d6 a6 3c a5 b0 90 3c 69 31 d4 bc ba 6b 98 bc
       0.020365715 0.017662356 -0.025902467 -0.018606056
000040 13 39 25 bd 43 6d 19 bd d2 70 21 3d 6e a7 09 3d
       -0.040337633 -0.037457716 0.039414234 0.03360694
000050 17 f2 3d 3d 5d 32 28 bd 8c 1d f9 3c 1a 4f 10 3d
       0.046373453 -0.041063655 0.030409597 0.035231687
000060 9d 95 86 bc 47 88 20 3d a7 b2 36 bd 87 ce 98 3d
       -0.016428763 0.039192464 -0.04460397 0.07461267
000070 6b 54 17 3c 54 23 92 3c 1f 9b 3b 3d 4c 2f ca 3c
       0.009236435 0.017839111 0.045802232 0.024680756
000080 3e f9 1a 3c 00 cc 21 3c 69 bf 1f bd d5 f8 5f 3c
       0.009458838 0.009875298 -0.039000902 0.013670166
000090 32 9a 85 3c 8b 73 7d 3c 79 c5 28 bc 7d f5 14 3d
       0.016308878 0.015469442 -0.010300987 0.03636693
0000a0 e1 a9 aa bc 96 e7 b4 bc 88 68 e2 bc e6 f7 22 bd
       -0.020832958 -0.022083085 -0.027637735 -0.039787196
0000b0 d1 49 20 3d 8f e7 8f 3c 70 72 07 3d 57 90 0b 3d
       0.039132897 0.01756647 0.03306812 0.0340732
0000c0 4e 80 a8 bc a6 76 b3 3c c0 d8 75 3c 82 45 65 3c
       -0.020568993 0.021907162 0.0150052905 0.013993623
0000d0 a5 71 31 bd b5 06 08 3d 80 f6 ca 3c 30 64 b5 3d
       -0.04332127 0.03320952 0.024775743 0.08857
0000e0 f1 d9 9d bc 07 da a6 bc cf e4 0a bd 47 f8 98 3c
       -0.019268962 -0.020367635 -0.033909615 0.018673075
0000f0 b1 77 8d bb c0 8e ee 3c b9 aa 20 3d 6c 41 e2 bc
       -0.004317247 0.029120803 0.039225314 -0.027619086
000100 e2 6d 02 bc ff 38 72 3c 8e 3f 96 3c 7c 82 eb 3c
       -0.007960768 0.014784097 0.018340852 0.028748743
000110 52 a6 3f bd fc 51 48 bc 0b 97 05 bd 68 58 10 bd
       -0.046789475 -0.012226578 -0.03261475 -0.03524056
000120 44 49 0b 3d 1f 6d 0c bd fb 77 98 3c 02 25 2f 3d
       0.03400542 -0.034283753 0.018611899 0.042759903
000130 52 18 2f 3c d5 2e 8e bb d0 8b 91 3c 49 1c 26 bd
       0.010686951 -0.004339079 0.017766863 -0.04055432
000140 82 e3 f7 3c 1d 50 2a 3d 84 69 4c 3d 43 47 1b 3d
       0.030259851 0.04158031 0.049905315 0.037909757
000150 f3 a4 88 3c 50 de e7 bc 1c 75 22 3d 55 e2 01 3d
       0.016680216 -0.028304249 0.039662465 0.031709988
000160 76 f8 85 bc f7 9d 25 bc cd d8 05 bd 53 a7 e5 3c
       -0.016353827 -0.010108463 -0.03267746 0.028033888
000170 4e 79 f3 3c dd 7b b7 bc b7 27 41 3d f4 ee 09 3d
       0.029720929 -0.02239793 0.047157016 0.03367515
000180 a4 a8 1c 3c 69 2f 2d bd 6c fa aa 3c 5a e0 ae 3c
       0.009561691 -0.042281542 0.020871364 0.021347214
000190 78 22 dd bc 94 5f fe 3c 22 cc b9 3c f5 2c 26 bc
       -0.026993975 0.031051435 0.022680346 -0.0101425545
0001a0 97 94 01 bd bb 66 19 bd 76 71 09 3b fb d5 fe bc
       -0.031635847 -0.037451487 0.002097217 -0.031107893
0001b0 21 5d 2d bd 5e d0 6c 3c 5f 25 08 bd bc 53 fb 3b
       -0.042325143 0.0144539755 -0.033238765 0.007669894
0001c0 a2 56 7f ba e0 f0 0e bd 2d 4f 2c 3c 76 66 44 bd
       -0.00097403873 -0.034897685 0.010516924 -0.047949277
0001d0 b0 77 0c 3d a3 2c 1e 3d 22 8c 59 3b 01 6a 45 bc
       0.03429383 0.038616788 0.0033195098 -0.012049199
0001e0 8f cf 05 3d 3d 27 82 3b 8a 5c 02 bd 74 87 63 3c
       0.032668646 0.0039719627 -0.031826533 0.013887275
0001f0 09 fc 62 3c 14 19 af 3c ed 38 19 bd e6 e3 86 3c
       0.013854035 0.021374263 -0.037407804 0.016466092
000200 ac 59 77 bb 8c e4 eb 3b 54 53 f0 bc c0 e9 37 3d
       -0.0037742658 0.007198876 -0.029336609 0.044900656
000210 bd 5f 20 3d d9 a8 93 3c fd ec 27 3d 08 bb 2d bd
       0.039153803 0.018024849 0.040997494 -0.042414695
000220 36 fe 56 bc 3e 79 84 3d 0c 7f ac bb a6 f1 db 3c
       -0.013122132 0.064684376 -0.0052641686 0.026848625
000230 5d b5 84 3c 24 d5 05 bb f8 48 2d 3c 13 81 3d bc
       0.016199762 -0.0020421231 0.010576479 -0.011566418
000240 fa 50 4c bd c9 df 44 bb 07 9f 60 3c 84 70 20 bc
       -0.049881913 -0.0030040613 0.01370979 -0.009792451
000250 d1 17 ab bc 36 f4 58 3c 99 bd 3c bd 7d d8 52 3c
       -0.02088538 0.013241818 -0.046079252 0.012868998
000260 b0 9e 96 bc 6f f7 0c 3d ef 49 87 3c a4 99 c7 3c
       -0.018386215 0.03441566 0.016514746 0.024365254
000270 1c c0 48 3b 7e 87 f9 3c 39 2f c3 bb 01 a9 09 bd
       0.0030632084 0.030460116 -0.005956557 -0.03360844
000280 ae 39 84 3c 3e a3 2b 3d 14 c9 20 3d 0b 17 7e 3c
       0.016140785 0.041903727 0.039254263 0.015508424
000290 e5 27 23 3d c2 94 c4 bc 8f d9 22 bc 65 c3 5e 3c
       0.03983297 -0.023996715 -0.009939565 0.01359639
0002a0 0e 5d 2a bc cc 55 8a bc b0 73 06 bd ea 24 b4 bb
       -0.0103981625 -0.016886614 -0.032825172 -0.0054975646
0002b0 8d f5 40 3d 6d 8c 48 3c 98 f5 d4 bc ca dd 81 3c
       0.047109175 0.012240511 -0.025996014 0.015852828
0002c0 dc 42 0e 3d 1d 77 8d 3b 1e 6c e9 3a 15 7d 05 3d
       0.03473173 0.004317178 0.0017808711 0.03258999
0002d0 ba 8b 31 3c 94 48 7e 3c 3f 76 83 ba e8 f2 4b 3c
       0.010836536 0.015520234 -0.0010029747 0.01244805
0002e0 cf 6c 72 3c 4f cb 2b 3d 8d ed 76 3b 95 6c bf 3c
       0.01479645 0.041941937 0.0037678212 0.023367206
0002f0 69 a8 2e 3d 26 6f 06 bd 44 b5 3e bc 3e 97 aa 3c
       0.042641077 -0.032820843 -0.011639897 0.020824071
000300 0a b6 49 bd c0 be 21 3d 20 82 32 3d 71 e9 e2 3d
       -0.04924587 0.039488554 0.043581128 0.11079682
000310 2d 51 b0 3c 10 8a 77 bc a1 7b 68 bc 8f 84 63 3c
       0.021523083 -0.0151086 -0.014189632 0.013886585
000320 b4 14 d3 bc c2 6c 1a bd 91 4a 07 3d e9 ff e2 bb
       -0.025766708 -0.037701376 0.033030096 -0.0069274795
000330 cf d1 ca bc b0 76 4e bc 4c 8d 1e bd a7 8f 27 bd
       -0.024758248 -0.0126015395 -0.03870897 -0.040908482
000340 8a 8b 1b bd 30 cd 39 bd 0e 23 64 bc 29 5e bd bc
       -0.03797487 -0.045361698 -0.013924373 -0.023116188
000350 fa a5 1e 3d bf 40 43 3c 0d 31 de 3c 08 26 8a bc
       0.038732506 0.011917292 0.027122999 -0.016863838
000360 01 01 21 bd 51 d3 89 3c 7e 65 1e bd 25 bc bd 3c
       -0.039307598 0.016824396 -0.03867101 0.023161003
000370 59 d5 d9 3c 74 e5 a1 3c 17 70 fb bc c8 f6 b4 3d
       0.02659099 0.019762732 -0.030693097 0.08836132
000380 88 9e f8 3b 14 94 2e 3d 1c 60 1b bd d5 93 26 bc
       0.007587258 0.042621687 -0.037933454 -0.010167082
000390 69 85 7f 3c 07 01 a4 3c 6d 81 8a 3c 4a 39 29 3d
       0.015595772 0.020020021 0.016907418 0.0413144
0003a0 21 0b 00 bd be cd 2b bd 42 c0 26 3c ae b7 de 3c
       -0.031260613 -0.041944258 0.010177674 0.027187195
0003b0 6f 18 af 3c 40 16 3d bd 13 de 18 3d 96 bb 4a 3d
       0.021373956 -0.046163797 0.03732116 0.049495302
0003c0 0c 23 d8 3c 73 7b 04 bd af 2d 23 3d cc ff 1e bd
       0.0263839 -0.032344293 0.03983849 -0.038818166
0003d0 9a 3b 1b bd 9f 5d d5 3c 1e e8 35 3d ea 9a a6 3c
       -0.037898637 0.026045619 0.044410817 0.02033754
0003e0 cf 57 0e 3c 3d f6 6c bd 08 63 d1 3b 31 15 02 3b
       0.008687927 -0.05785202 0.0063899793 0.0019849057
0003f0 31 0e 49 bd 81 80 03 bd e5 60 ba 3b bf 26 93 3c
       -0.0490858 -0.032104973 0.0056878203 0.017962812

fc1.bias f4 [80]
000000 e2 28 6f 3c db 1e 33 3d 44 a4 c3 3c 96 32 94 3a
       0.01459715 0.043730598 0.023882039 0.001130658
000010 a0 f3 02 bc 44 f2 42 bd 77 15 3e bd 36 e3 21 3d
       -0.007992655 -0.047594324 -0.04640719 0.039523326
000020 30 a4 25 bd a1 19 09 bd 21 f0 17 bd 8b b1 03 bd
       -0.040439785 -0.033471707 -0.03709424 -0.03215174
000030 a2 36 59 bc 28 16 8b 3c 33 a6 e1 3a ed 43 07 3b
       -0.013257654 0.016978338 0.0017215669 0.0020639852
000040 09 12 83 bc 85 88 c2 bc 49 1d 14 bc 31 c1 6c 3c
       -0.01599981 -0.023746738 -0.009040185 0.014450357
000050 59 fe 31 3d 4b e8 07 bd e9 8d fc bb 03 bd 48 3b
       0.043455455 -0.033180516 -0.0077073467 0.0030630238
000060 7c 34 2c bd a9 c8 79 3c 0e e0 5b 3b e6 13 1f 3d
       -0.04204224 0.015245595 0.0033550295 0.038837336
000070 42 0c 32 bd c3 64 3a bc 0a 05 4a bd a2 c6 06 bd
       -0.04346872 -0.0113765625 -0.049321212 -0.032904275
000080 3c 05 d5 3b 55 de 44 bd 02 b0 10 3d 7a 7e ef bc
       0.006500868 -0.048063595 0.035324104 -0.029235113
000090 f1 26 86 3b 33 14 ad 3c 6e 95 36 3d a3 77 3f bd
       0.0040939976 0.021127796 0.0445761 -0.046744954
0000a0 91 18 7b bc 6f ed 12 3c 11 a7 27 bd 61 48 86 bc
       -0.015325681 0.008967741 -0.04093081 -0.016391935
0000b0 20 9a 84 bc 48 44 90 bc 73 e4 80 bb 62 6a 24 bd
       -0.016186774 -0.017610684 -0.0039334833 -0.040140517
0000c0 2e eb 89 bb d7 0b ec 3c 7a 1d 09 3d 97 59 57 3c
       -0.004208944 0.02881424 0.033475377 0.0131439185
0000d0 35 b0 23 bd 32 14 a1 bc d3 fe b3 3c 0e d1 07 bd
       -0.039962966 -0.01966295 0.021972096 -0.033158354
0000e0 48 50 4a 3d 35 c9 2e 3c 96 0e 1a bc 14 dc c2 3c
       0.04939297 0.010668089 -0.009402892 0.023786582
0000f0 3a 0f 05 3d 79 6e 4a 3d 36 37 12 3d 3b 64 d8 bc
       0.032485224 0.04942176 0.035697185 -0.026414981
000100 4c 05 3f 3c e5 a5 2b 3c 72 f0 00 bc d4 04 01 3d
       0.011658978 0.010476564 -0.007869827 0.031498745
000110 60 18 b0 bc 3c 0c ef bc 79 04 38 bd 47 d2 17 bd
       -0.021495998 -0.029180638 -0.04492614 -0.03706577
000120 f5 87 8f 3c 8b 3e d0 3b 39 b3 30 bd 99 c5 28 3d
       0.017520884 0.006355112 -0.04313967 0.04120407
000130 27 10 2b bd 1d bb b0 3c fc b8 28 bd 53 e0 27 bc
       -0.04176345 0.021573598 -0.04119204 -0.010246354

fc2.weight f4 [4, 80]
000000 84 b7 23 3d bc 98 ad 3d d2 3c 0c 3e f7 57 83 3d
       0.039969936 0.084763974 0.13695076 0.06413262
000010 40 da 4e 3d 85 07 64 3d af bd fa 3d 0a a6 ac 3d
       0.05050111 0.055671234 0.122432105 0.08430107
000020 3a 20 9d 3a a5 2f 0f 3e c1 43 a8 3d e1 7c be 3d
       0.0011987754 0.13983019 0.08216048 0.093011625
000030 eb 10 39 3c 9f b6 79 bc ec a3 00 3e 99 95 44 3d
       0.011295537 -0.015241294 0.12562531 0.04799423
000040 86 8b 2a 3d ef 11 96 3d 51 e7 f8 3d 34 19 99 3d
       0.041636966 0.07327639 0.12153495 0.0747551
000050 9b ee d6 3c 21 f4 46 3d 2e 94 d9 3d 73 51 20 3d
       0.026236823 0.048572663 0.10623966 0.039140176
000060 3d de f5 3d 71 a4 10 3e ab 94 e8 3d 2b 50 00 3e
       0.12005279 0.1412523 0.11356481 0.12530582
000070 7b 73 cc 3d 1b 54 04 3e 70 a9 8c 3c 75 b9 96 3d
       0.09982964 0.12922709 0.017170638 0.07359592
000080 00 17 03 3d 95 0d ff 3d 3b a8 60 3b 35 68 16 3d
       0.032004356 0.124537624 0.003427996 0.036720473
000090 55 b7 5a 3c 47 de df 3d 87 00 00 3e 9b f3 f3 3d
       0.013349374 0.10931068 0.12500201 0.119116984
0000a0 61 3a a5 3d 33 ff c5 3d a9 56 ca 3d e2 58 30 3c
       0.080677755 0.09667816 0.0987981 0.010763379
0000b0 40 60 ab 3d 63 4d a2 3d 0b 33 ea 3c 39 12 97 3d
       0.083679676 0.079249166 0.028588792 0.073765226
0000c0 a6 cb db 3d 23 12 7b bc ed 49 87 3d da a6 0b 3d
       0.10732202 -0.015324148 0.06605897 0.03409467
0000d0 30 93 ca 3d 6a 8d 5c 3d fd 13 06 3d f3 24 05 3e
       0.09891355 0.0538458 0.032733906 0.13002376
0000e0 a4 41 cc 3d 57 93 ba 3d 6c 64 d3 3d 42 13 e0 3c
       0.099734575 0.09110134 0.10321888 0.027352933
0000f0 26 a1 c6 3d 22 9c 02 3d 98 9f 2c 3d e7 ae 9a 3d
       0.096987054 0.03188718 0.042144388 0.07552891
000100 ea 4e af bc a4 df 31 3d aa c5 b2 3d 79 e5 c4 3d
       -0.021399934 0.04342617 0.08729108 0.09614081
000110 b9 df a1 3d d8 15 d1 3d eb 27 d4 3d 4d c2 92 3d
       0.07904 0.102092445 0.10359176 0.07165966
000120 cb bb c0 3d 24 95 c2 3d 45 f3 60 3d ce e6 45 3b
       0.09410819 0.095011026 0.0549195 0.0030197385
000130 2b e9 df 3d 7e 96 14 3d a9 f0 b4 3d 57 51 ac 3c
       0.10933145 0.036276333 0.08834965 0.02103488
000140 ed 4a 1d 3d e8 d7 55 3d bb 6f 1f bc 25 c5 92 3c
       0.038401533 0.052207857 -0.009731228 0.017916271
000150 a7 21 2a 3d 2a 7a 3e bd 4b f1 0a 3d f0 eb e4 3c
       0.041536 -0.046503223 0.03392152 0.027944535
000160 8a bb 27 bd 07 f4 0d 3d 9f 8a b1 3c 04 ac 10 3d
       -0.040950336 0.03465655 0.021672545 0.035320297
000170 d9 89 6b bc 93 70 22 3c 1a 2c 2b 3d 72 5f 8d bd
       -0.014376127 0.009914535 0.041790105 -0.069029704
000180 60 82 4e 3d 95 f4 11 3e e4 0f 60 3d 75 24 18 3c
       0.050417304 0.14253457 0.054702654 0.009286036
000190 36 e7 ec 3d b8 0c 4e 3c 4b 15 ce 3d ee 21 26 3d
       0.115675375 0.012576275 0.10062655 0.0405597
0001a0 e7 f5 a1 3d c9 8b 56 3d e3 5b 0d 3e be 5a f5 3d
       0.0790823 0.052379403 0.13804583 0.11980198
0001b0 9b 0c 6c 3d 89 dd 50 3d 20 ce 66 3d ad f6 80 3d
       0.05762921 0.050992522 0.05634892 0.0629705
0001c0 ba c0 1f ba 3c c1 a8 3d f6 e2 1b bd 40 8e d6 3b
       -0.0006094087 0.082399815 -0.038058244 0.0065477192
0001d0 5a 5e 40 bd 39 8b 8b 3d e1 97 f6 3d b7 99 0b 3d
       -0.04696498 0.06813664 0.12040687 0.03408214
0001e0 4c 3e a7 3d ac aa 6f 3d 4a 91 50 3b 56 43 7a bd
       0.08166179 0.058512375 0.003182488 -0.061099373
0001f0 55 19 14 3d 2b 03 e4 3d 61 66 2e bd c3 9e 7c 3d
       0.03615697 0.11133417 -0.042578105 0.061674844
000200 45 81 fb 3d 4d 09 7f 3b b3 ca 39 3d 31 c3 c4 3d
       0.122805156 0.0038915456 0.045359325 0.09607542
000210 9e bf c3 3d e4 30 8d 3d d7 e9 43 bc 0e 32 84 3d
       0.095580325 0.06894091 -0.011957607 0.0645486
000220 a5 18 28 3d 45 24 f0 3d b8 66 23 bd 5a fe cf bb
       0.041039128 0.11725668 -0.039892882 -0.0063474597
000230 3e 0d 08 3e b3 f0 8e 3d 54 0a 3d 3d 1c e2 b9 3c
       0.13286301 0.069795035 0.046152428 0.022690825
000240 e6 62 e4 3c 3f 76 c6 3b ce 3d ab 3d 64 6e df 3d
       0.02787919 0.0060565765 0.08361398 0.10909727
000250 c1 71 9d 3d 64 24 ff 3c 42 1a bb 3d 60 d0 8a 3c
       0.076877125 0.031145282 0.09135868 0.016945064
000260 78 2b 62 bc 09 20 9d 3d 42 e1 47 bd 82 0f 9f bd
       -0.013804309 0.07672126 -0.048798807 -0.0776663
000270 2c 44 b9 3d 5c 44 44 3c 41 f0 91 3d da 64 16 bd
       0.09046206 0.011979189 0.07125903 -0.036717273
000280 b0 15 ef 3d 0c 1d 8d 3d d5 77 28 3d 9d 63 e3 bb
       0.116740584 0.06890306 0.041129906 -0.006939365
000290 1f 24 a8 3d 7a 87 21 3d 03 2c ad 3d bb 44 f6 3d
       0.082100146 0.03943584 0.0845566 0.12024828
0002a0 e4 de 51 3c 0e d5 f4 3d 62 25 81 3d b8 8b da 3d
       0.012809489 0.119546995 0.06305958 0.106711805
0002b0 04 0d 91 3c 2c d5 c8 bc c0 e0 0d 3e 78 1b df bb
       0.017706402 -0.02451571 0.13855267 -0.0068086945
0002c0 38 95 c0 3c e6 c7 16 3e 54 12 e7 3d 91 d3 f0 3c
       0.023508653 0.14724693 0.11282793 0.029397758
0002d0 5a fc cc 3d 30 e6 ba 3d d0 81 65 3d eb 05 dc 3c
       0.1000907 0.09125936 0.056032002 0.02685829
0002e0 71 03 fd 3d d2 ef f5 3d 49 92 f9 3d a0 38 da 3d
       0.12354172 0.12008633 0.12186105 0.106553316
0002f0 64 01 84 3d 0a 3b a5 3d ca 6c 55 3c 77 a5 fe 3d
       0.06445578 0.080679014 0.013026426 0.12433904
000300 3b 36 7d 3d 63 55 05 3e 2e d1 2d 3d 6f 54 cc 3d
       0.061819296 0.13020854 0.042435817 0.09977042
000310 37 fb 85 3d 7a 3d 99 3d ec ef 83 3d 99 b9 e8 3d
       0.06542056 0.07482429 0.06442246 0.11363525
000320 9a 19 04 3e 82 59 01 3e e0 c2 f2 3d ba 11 1a 3d
       0.12900391 0.12631801 0.11853576 0.03761456
000330 e6 04 d4 3d 5a e1 ee 3d 0a f9 b8 bc 62 ce 85 3d
       0.10352497 0.11664076 -0.022579689 0.06533505
000340 0b 47 1b 3e 90 9c 6a bc d3 bc 0e 3d 5f 8c 4d 3d
       0.1516382 -0.014319554 0.034848046 0.050182696
000350 00 78 13 3e 11 aa 51 3c 03 24 b5 3d fd f6 12 3d
       0.14401245 0.012796895 0.08844759 0.035880078
000360 69 11 82 3d 90 88 a4 3d f1 ec f6 3c 7c 34 2b 3d
       0.06350977 0.0803386 0.03014228 0.0417981
000370 06 7f f2 3d 83 68 d8 3d ac 74 a7 3d 1f 0d 50 3c
       0.11840634 0.10566809 0.0817655 0.012698441
000380 9d f2 18 3d e6 1e b5 3d f1 b5 ed 3d e3 d5 46 3d
       0.03734075 0.08843784 0.11606968 0.048543822
000390 3e 46 d6 3d 43 3c b6 3d 14 47 86 3d 54 f2 04 3c
       0.104626164 0.08898213 0.06556526 0.008114416
0003a0 2f 11 79 3d e8 5d c1 3d 36 ac 72 bb 46 89 c7 bc
       0.060807403 0.09441739 -0.0037028915 -0.02435745
0003b0 b5 70 c4 3d 92 ac 8b 3d 97 51 b2 3d 11 9e 55 3c
       0.0959181 0.068200245 0.08706968 0.013038174
0003c0 8c 26 1c 3d 1c ce 61 3d f4 98 e5 3c 9f 56 7f 3d
       0.0381227 0.0551282 0.028027035 0.062338468
0003d0 4c 95 74 3c ac 76 1c 3d 4d bc e6 3d df f7 1e 3d
       0.014928173 0.03819911 0.11266384 0.038810607
0003e0 a9 09 db bb b3 ca 9f 3d e2 7c cb 3d de b8 8f 3c
       -0.006684501 0.07802334 0.09935929 0.017544206
0003f0 b4 60 26 3d 72 bf 26 bd 86 f8 ea 3d a0 41 22 3d
       0.040619567 -0.04070992 0.11473183 0.039613366

fc2.bias f4 [4]
000000 00 5f 87 3d eb 08 77 3d c3 65 1a 3e d3 c8 24 3d
       0.06609917 0.06031124 0.15077882 0.040230583
