TD0v2_10000.pt (torch, 17200 bytes, 6 tensors)

fc1.weight f4 [60, 28]
-0.02496068 0.02609731 0.0015038846 -0.04358426 -0.0271043 0.034325194 0.02340806 0.002766469
0.014528461 -0.019761045 -0.013597096 0.046165038 -0.030937612 -0.013307431 0.028149635 0.020413535
0.009932291 0.028628232 -0.043766513 0.0074556563 0.0067051323 0.008538806 -0.03917271 -0.0468976
0.03290111 -0.0063570393 -0.046757795 0.05184193 -0.029291898 0.002634417 0.045319933 -0.04418433
0.0075271106 0.014200228 0.004124951 -0.03699379 -0.013882502 0.033699244 -0.035112794 -0.029036812
-0.015166871 -0.040622815 0.002332815 0.017593538 0.024752242 -0.02954463 9.347027e-05 -0.040062346
-0.029475547 -0.022281481 0.010717028 -0.034162346 0.019083675 0.044526614 0.016735442 0.0150153525
-0.037354287 0.039087486 -0.0031323645 -0.0025110499 0.004392079 0.031429134 0.029748468 -0.0038841683
-0.043022092 0.009244001 -0.025052557 0.04550345 -0.016812498 0.027108628 0.009078507 0.0011756684
-0.015803007 -0.003814303 0.02762081 0.0330082 0.047573064 0.041396752 -0.0081654815 -0.03353299
-0.018494315 0.03427775 -0.04064822 0.010937379 0.0003285786 -0.017867796 -0.03334637 0.04455143
-0.013950414 -0.029500533 -0.0036979334 -0.027826276 -0.015166385 0.027828306 0.030550832 -0.0346492
0.040075798 0.032520615 -0.020922046 -0.018865863 0.014954208 -0.036583975 -0.026863161 0.034553524
0.043933023 -0.044717316 0.025096042 -0.011169028 0.032429248 0.038892876 -0.022952637 0.03563597
-0.032931816 0.038315684 -0.037546173 -0.0041877124 0.014447052 0.018735304 0.04928381 -0.023604885
-0.022533646 -0.022955708 0.029291978 0.047633193 0.00593305 -0.04681427 0.0015471679 0.020019481
0.022635354 -0.0055349376 0.031112103 0.005625138 -0.04484562 -0.028285207 -0.04941928 0.0044571618
-0.024421679 0.025774118 0.026595816 -0.048967022 -0.039767276 0.03353696 -0.022621188 -0.029520882
-0.038151346 0.029165844 0.012223105 0.0483681 0.008674314 0.04347424 -0.025710402 -0.015865874
0.0030864326 -0.03773712 0.015376293 0.04841924 -0.03543649 0.04426807 -0.04069371 -0.045386333
0.031394105 -0.040480036 -0.024113862 0.02780249 0.024728162 0.07129799 0.019149568 0.015986316
0.0017225847 -0.049903207 -0.02659265 -0.048445627 0.019496875 0.008249018 0.046857405 -0.043071523
-0.022902425 -0.01668005 -0.033741407 0.02647269 0.039561022 0.026550556 -0.005469421 -0.046566714
-0.017187765 -0.040503457 0.043277692 0.028433003 -0.002444765 0.049857978 -0.041844767 0.02966823
0.015753802 0.030616773 -0.012775238 0.03014301 0.010888467 0.025009893 -0.031398673 -0.012579269
0.0002790416 -0.017667158 0.048620027 -0.019861396 -0.03998598 -0.016693052 0.031011915 -0.012521315
-0.049111962 0.03857614 -0.009672058 -0.020359656 0.035049267 -0.019145384 -0.00088500103 0.04735448
-0.0010961189 0.035350177 0.034562986 -0.030852534 0.036293134 0.06354762 -0.021602046 0.05771583
0.042407572 0.03553741 0.022577425 -0.0416461 -0.03028211 0.013592926 -0.02997896 0.026735386
0.048580274 0.02183285 0.01509035 0.022928488 0.020815913 0.047879063 0.04407652 0.041291412
-0.04320538 0.036329474 -0.009244579 0.04864722 -0.024603162 0.005329191 0.005477512 0.027068116
-0.023394698 -0.021724619 0.04535552 0.0028831484 -0.013141689 0.0430761 -0.029556813 0.024568105
00000000: 577a ccbc 07ca d53c fe1d c53a 6985 32bd
00000010: d609 debc 9398 0c3d 43c2 bf3c a64d 353b
00000020: c808 6e3c eae1 a1bc 5bc6 5ebc 8d17 3d3d
00000030: e070 fdbc 6907 5abc 109a e63c 493a a73c
00000040: 0cbb 223c c185 ea3c 8444 33bd 944e f43b
00000050: bab6 db3b 59e6 0b3c 9073 20bd b317 40bd
00000060: 50c3 063d b64e d0bb 1a85 3fbd 3458 543d
00000070: 90f5 efbc 2fa6 2c3b 65a1 393d a1fa 34bd
00000080: fba5 f63b 13a8 683c 992a 873b cd86 17bd
00000090: 6f73 63bc 3808 0a3d 6fd2 0fbd 9cde edbc
000000a0: 787e 78bc 1c64 26bd 24e2 183b 5320 903c
000000b0: 37c5 ca3c 9407 f2bc 7805 c438 6a18 24bd
000000c0: b476 f1bc a787 b6bc 7996 2f3c d1ed 0bbd
000000d0: 5e55 9c3c 8a61 363d c418 893c f402 763c
000000e0: cf00 19bd 331a 203d 5b48 4dbb 6d90 24bb
000000f0: 6eeb 8f3b d6bb 003d 0fb3 f33c 888d 7ebb
00000100: ef37 30bd 2674 173c 053b cdbc d361 3a3d
00000110: 5dba 89bc ea12 de3c 05be 143c e318 9a3a
00000120: 4f75 81bc 63f9 79bb 0945 e23c 9b33 073d
00000130: f9db 423d a48f 293d 83c8 05bc e359 09bd
00000140: 6481 97bc d366 0c3d bf7e 26bd b132 333c
00000150: 1345 ac39 7c5f 92bc 3496 08bd 8f7b 363d
00000160: 4790 64bc 1aab f1bc 0759 72bb eef3 e3bc
00000170: 6e7c 78bc 30f8 e33c bd45 fa3c 52ec 0dbd
00000180: 8526 243d 5634 053d b664 abbc 958c 9abc
00000190: 7f02 753c 14d9 15bd 2210 dcbc ff87 0d3d
000001a0: 1df3 333d 8129 37bd 3796 cd3c 4cfe 36bc
000001b0: 88d4 043d 234e 1f3d 2b07 bcbc 06f7 113d
000001c0: 83e3 06bd e8f0 1c3d 04ca 19bd 1439 89bb
000001d0: 54b3 6c3c c87a 993c d2dd 493d 085f c1bc
000001e0: 7b98 b8bc 9c0d bcbc bbf5 ef3c 061b 433d
000001f0: 086a c23b 52c0 3fbd 57ca ca3a e5ff a33c
00000200: c76d b93c 6c5e b5bb cfde fe3c 1453 b83b
00000210: 0ab0 37bd 61b6 e7bc df6b 4abd 620d 923b
00000220: f90f c8bc 3e24 d33c 78df d93c a591 48bd
00000230: 03e3 22bd 0d5e 093d 1250 b9bc c7d5 f1bc
00000240: 9644 1cbd 35ed ee3c 6b43 483c a11d 463d
00000250: b61e 0e3c 0b12 323d 9f9e d2bc 26f9 81bc
00000260: bf45 4a3b 3d92 1abd d9ec 7b3c 4153 463d
00000270: da25 11bd 7052 353d 73ae 26bd 05e7 39bd
00000280: 1b97 003d 65ce 25bd 6f8a c5bc 0cc2 e33c
00000290: b792 ca3c ae04 923d 8edf 9c3c bcf5 823c
000002a0: 5ac8 e13a 4e67 4cbd d4d8 d9bc ec6e 46bd
000002b0: e9b7 9f3c e426 073c 8ded 3f3d c46b 30bd
000002c0: de9d bbbc 9aa4 88bc 6e34 0abd 41dd d83c
000002d0: bd0a 223d 8d80 d93c d438 b3bb bdbc 3ebd
000002e0: 5bcd 8cbc f4e6 25bd f343 313d 54ec e83c
000002f0: 5a38 20bb e137 4c3d 6b65 2bbd ca0a f33c
00000300: 1e0e 813c 07d0 fa3c 3b4f 51bc 79ee f63c
00000310: 8a65 323c 8ce1 cc3c e59b 00bd 4719 4ebc
00000320: 544c 9239 b7ba 90bc cb25 473d 5eb4 a2bc
00000330: 57c8 23bd debf 88bc b30c fe3c 3426 4dbc
00000340: a029 49bd 0402 1e3d 8d77 1ebc 4bc9 a6bc
00000350: d28f 0f3d c8d6 9cbc 6aff 67ba c5f6 413d
00000360: a6ab 8fba 59cb 103d eb91 0d3d 74be fcbc
00000370: 1ca8 143d 4125 823d c6f6 b0bc 6f67 6c3d
00000380: 90b3 2d3d ad8f 113d 4bf4 b83c 1a95 2abd
00000390: 3012 f8bc ddb4 5e3c 7096 f5bc 2b04 db3c
000003a0: 1cfc 463d ceda b23c 843d 773c 86d4 bb3c
000003b0: 2286 aa3c d61c 443d 9589 343d 2f21 293d
000003c0: 20f8 30bd 37ce 143d 9376 17bc 4f42 473d
000003d0: 928c c9bc 7fa0 ae3b b37c b33b f4bd dd3c
000003e0: 3da6 bfbc d4f7 b1bc b6c6 393d 34f3 3c3b
000003f0: 3d50 57bc 9170 303d 2121 f2bc 0d43 c93c

fc1.bias f4 [60]
0.018804122 -0.04463687 -0.030848699 -0.0031525474 0.0050582327 0.02075706 -0.021659652 -0.0059393146
-0.013486409 0.0070216767 0.009817592 -0.020259542 0.011234497 0.051225558 -0.033942934 0.021954749
-0.021860493 -0.02663423 -0.0045774067 -0.03305455 -0.032221455 0.030661803 0.0411874 -0.02586564
-0.04672937 0.031240087 -0.0011379004 0.04756998 0.0051244763 -0.031315606 -0.030724287 0.046152513
0.013170039 0.045025274 0.0194851 0.022808848 -0.02671875 0.011050564 0.012851646 0.005976933
-0.04655491 0.048923783 0.022305408 0.050397728 0.011009738 0.026298214 -0.023586188 0.028645415
0.017366752 -0.04945296 0.011193442 -0.011919746 0.033244774 -0.03893456 0.017451169 0.00592729
0.044626553 0.01217216 0.0011343928 0.0042038336
00000000: 1a0b 9a3c 27d5 36bd 69b6 fcbc f89a 4ebb
00000010: 88bf a53b b60a aa3c 956f b1bc 959e c2bb
00000020: 19f6 5cbc 1816 e63b f7d9 203c 57f7 a5bc
00000030: e510 383c e4d1 513d bf07 0bbd 72da b33c
00000040: c714 b3bc 0730 dabc 12fe 95bb 3564 07bd
00000050: a5fa 03bd 762e fb3c 1fb4 283d 2ee4 d3bc
00000060: 4c67 3fbd 36eb ff3c 9a25 95ba bdd8 423d
00000070: 39eb a73b cb44 00bd 80b1 fbbc 6b0a 3d3d
00000080: 26c7 573c 6c6c 383d 379f 9f3c 9fd9 ba3c
00000090: 48e1 dabc 6d0d 353c b68f 523c 26da c33b
000000a0: 5cb0 3ebd 4e64 483d d5b9 b63c d96d 4e3d
000000b0: 3062 343c 5a6f d73c d237 c1bc caa9 ea3c
000000c0: b844 8e3c 308f 4abd b364 373c 0a4b 43bc
000000d0: ac2b 083d d879 1fbd c1f5 8e3c b639 c23b
000000e0: 55ca 363d bd6d 473c e8af 943a 50c0 893b

fc15.weight f4 [30, 60]
-0.01987086 -0.006494762 -0.023955079 -0.023650093 0.01295427 0.009156445 0.052417785 0.044533055
0.014849947 0.0006547328 0.046060942 0.011343371 -0.035945464 0.04030066 -0.036232118 0.04739999
-0.031554062 0.014166709 -0.020634798 0.050670452 -0.027353557 0.043796815 0.00469317 0.06115038
0.05375695 0.047587983 0.030683743 0.03020358 0.024004083 -0.0055911993 0.03450302 0.033356383
0.038110647 -0.022319231 0.0653151 0.026141178 -0.01815591 0.010601107 -0.030101208 0.031533796
-0.012882176 0.008884736 -0.0016739826 0.0053139664 -0.027247746 0.045532554 -0.017276661 -0.019501595
0.0287709 -0.0074602943 -0.0050718393 -0.02587267 -0.032680757 0.022931295 0.046290834 0.032065533
-0.028472127 -0.024408879 0.0017690226 0.04074672 0.024047786 -0.0012092997 0.04156654 0.053400915
-0.006319971 0.056698952 -0.026124576 -0.036126662 0.0004588319 0.053160205 -0.0070519582 -0.02759534
0.030869728 0.057349946 -0.022823397 -0.020043965 0.043798834 0.01688818 0.0075950534 0.0006268372
0.0064429324 0.030715993 -0.026745288 0.040958248 -0.009068617 0.030277831 0.003619188 0.0384311
0.010566511 -0.009295849 0.047996126 -0.026226612 0.010492279 -0.00070224307 0.04143887 0.020676715
-0.018890765 0.009819883 0.024074953 -0.01844899 -0.0054423236 0.034170005 -0.016609866 0.058305576
-0.0047336454 0.0111010345 -0.010910832 -0.022595052 0.01652054 0.020428983 0.04233926 -0.009378388
0.0353101 -0.02105829 0.003417175 0.007344979 -0.017775865 0.036337573 0.024958657 -0.003482034
-0.0077996496 0.06381405 0.025704244 0.056112606 0.040316094 0.03767857 0.05263502 0.05498071
0.023785328 -0.034864686 0.032789726 0.0505309 0.034576487 0.05221221 0.009863984 0.031107413
0.042511497 0.019460754 -0.026412383 0.012891461 0.0082060145 0.011271053 0.047632437 0.008187506
0.034964595 0.041114718 0.059997495 -0.023622295 0.03065091 0.052968305 0.024892023 0.052807145
-0.0136485845 -0.012253619 0.017211951 0.052897524 0.07011669 -0.0102562 0.06332317 0.041368317
0.052788306 -0.012360616 0.028127598 0.014771963 0.006526433 0.07744792 -0.021466143 0.030098315
-0.011275146 0.029871505 0.05393209 -0.02645497 0.043021344 0.051528394 -0.0064511406 -8.51551e-05
-0.018337743 0.013320985 0.019031227 0.046542536 -0.0006628683 0.028237104 0.017326653 -0.028954927
0.008689508 0.01918134 0.055624608 0.04335895 -0.022746395 -0.02950084 0.065747604 -0.023546392
0.0051420284 0.0022625776 0.007650741 0.0007421072 0.061706483 0.016406078 -0.029803418 0.061862193
0.0059073246 -0.040146377 0.0029059693 0.04735601 0.04945128 -0.022740733 0.027120683 0.018011019
-0.024230026 0.05685968 -0.006747416 0.0588693 0.04689751 -0.025552802 -0.012091629 0.00045382782
0.06440526 0.04542044 0.062972344 0.049173478 0.0059674503 -0.033796713 0.024761396 0.061096087
0.052719753 0.06416601 0.01025057 0.03232588 0.004519189 0.055360477 -0.0067694117 0.06439798
0.015017503 0.0034901956 0.00063602085 0.02421591 0.03636347 0.045461774 0.025334457 0.05724646
0.0589928 0.047410794 -0.015684986 0.008763815 0.022744792 0.016632989 -0.006819901 0.03932663
0.03842343 0.013849759 -0.017138349 0.014434016 -0.041722786 0.058096554 0.009607914 0.04737474
00000000: 37c8 a2bc 03d2 d4bb 713d c4bc d7bd c1bc
00000010: 253e 543c ea04 163c 08b4 563d 4b68 363d
00000020: 314d 733c 60a2 2b3a 66aa 3c3d 8cd9 393c
00000030: 8d3b 13bd 4e12 253d 2168 14bd 7e26 423d
00000040: d53e 01bd 7c1b 683c 4f0a a9bc d28b 4f3d
00000050: 9114 e0bc 4a64 333d 2ac9 993b d278 7a3d
00000060: 3f30 5c3d 9eeb 423d 795c fb3c 806d f73c
00000070: 36a4 c43c 6136 b7bb 0a53 0d3d b4a0 083d
00000080: e919 1c3d d2d6 b6bc ecc3 853d 0626 d63c
00000090: b4bb 94bc 44b0 2d3c cf96 f6bc 9529 013d
000000a0: c30f 53bc 4991 113c 8969 dbba c820 ae3b
000000b0: aa36 dfbc 5880 3a3d c987 8dbc cfc1 9fbc
000000c0: f3b0 eb3c 7c75 f4bb ac31 a6bb ecf2 d3bc
000000d0: 42dc 05bd 69da bb3c 759b 3d3d 2657 033d
000000e0: 613e e9bc 21f5 c7bc 8cde e73a 08e6 263d
000000f0: ddff c43c 5d81 9eba ad41 2a3d ebba 5a3d
00000100: c217 cfbb 293d 683d 3503 d6bc 8df9 13bd
00000110: 608f f039 84be 593d 1d14 e7bb 9f0f e2bc
00000120: 83e2 fc3c c7e7 6a3d 22f8 babc 3e33 a4bc
00000130: 6866 333d 1559 8a3c eddf f83b 5552 243a
00000140: 3c1f d33b 1ba0 fb3c ef18 dbbc d6c3 273d
00000150: 8994 14bc 3709 f83c e62f 6d3b ee69 1d3d
00000160: 291f 2d3c 9e4d 18bc 9697 443d 31d9 d6bc
00000170: cfe7 2b3c bc16 38ba cebb 293d 3762 a93c
00000180: cec0 9abc 93e3 203c d638 c53c 5622 97bc
00000190: 8555 b2bb d9f5 0b3d 6a11 88bc d4d1 6e3d
000001a0: b21c 9bbb 1de1 353c 59c3 32bc 4219 b9bc
000001b0: 1556 873c af5a a73c ef6b 2d3d cfa7 19bc
000001c0: 53a1 103d 6f82 acbc aff2 5f3b 26ae f03b
000001d0: b19e 91bc b5d6 143d 1976 cc3c d632 64bb
000001e0: 3494 ffbb f1b0 823d b591 d23c 55d6 653d
000001f0: 7d22 253d d854 1a3d d297 573d 7433 613d
00000200: 73d9 c23c 46ce 0ebd 854e 063d 7df9 4e3d
00000210: 13a0 0d3d 78dc 553d 8c9c 213c f9d4 fe3c
00000220: 8920 2e3d 296c 9f3c c85e d8bc b536 533c
00000230: 8572 063c 39aa 383c 3b1a 433d e424 063c
00000240: 0937 0f3d e867 283d efbf 753d 8b83 c1bc
00000250: 9e17 fb3c 4bf5 583d 5bea cb3c 4e4c 583d
00000260: 509e 5fbc 67c3 48bc 1400 8d3c 13ab 583d
00000270: 5799 8f3d 9f09 28bc 94af 813d d371 293d
00000280: 8d38 583d 2e84 4abc d96b e63c 1a06 723c
00000290: b0db d53b 049d 9e3d c4d9 afbc be90 f63c
000002a0: 64bb 38bc 16b5 f43c e5e7 5c3d 18b8 d8bc
000002b0: 2637 303d 700f 533d 1764 d3bb 4c95 b2b8
000002c0: 0939 96bc 4340 5a3c 60e7 9b3c 63a3 3e3d
000002d0: 57c4 2dba 8051 e73c a0f0 8d3c e232 edbc
000002e0: 705e 0e3c 2f22 9d3c a1d6 633d 2899 313d
000002f0: a656 babc bfab f1bc aea6 863d 5de4 c0bc
00000300: 767e a83b c147 143b 11b3 fa3b f989 423a
00000310: f0bf 7c3d 0a66 863c 4c26 f4bc 3663 7d3d
00000320: 3b92 c13b 8770 24bd 1372 3e3b 60f8 413d
00000330: 6d8d 4a3d c64a babc 322c de3c d88b 933c
00000340: 0c7e c6bc b2e5 683d 6e19 ddbb ef20 713d
00000350: 9a17 403d 1c54 d1bc f81b 46bc bdef ed39
00000360: e8e6 833d c90a 3a3d a5f7 803d 216a 493d
00000370: 9a8a c33b 6c6e 0abd 69d8 ca3c e43f 7a3d
00000380: abf0 573d 7869 833d 02f2 273c 2468 043d
00000390: b415 943b abc1 623d f1d1 ddbb 17e3 833d
000003a0: f90b 763c c4bb 643b a3ba 263a 7260 c63c
000003b0: ddf1 143d 2036 3a3d 358a cf3c 447b 6a3d
000003c0: 6fa2 713d d231 423d cd7d 80bc 1b96 0f3c
000003d0: 4953 ba3c e841 883c 7a79 dfbb f614 213d
000003e0: e361 1d3d 19ea 623c b965 8cbc a77c 6c3c
000003f0: 83e5 2abd a7f6 6d3d 836a 1d3c 040c 423d

fc15.bias f4 [30]
-0.0022039071 0.057823315 0.059547376 5.7698344e-05 0.072307184 0.035734504 0.06144421 0.010612398
0.029404689 0.014600204 0.021068094 0.051447272 0.06883803 -0.017396873 0.042592973 0.0067001362
0.05851604 0.042295177 0.01103455 0.03165826 0.04660987 0.052344546 0.005483699 0.062991366
-0.017825732 -0.008272887 0.025621038 0.030162575 0.053382173 0.008316449
00000000: 6d6f 10bb 24d8 6c3d f3e7 733d 2001 7238
00000010: ca15 943d 585e 123d edac 7b3d a0df 2d3c
00000020: 1ae2 f03c b235 6f3c ff96 ac3c 60ba 523d
00000030: f4fa 8c3d e383 8ebc f875 2e3d d18c db3b
00000040: 84ae 6f3d b53d 2d3d 42ca 343c 17ac 013d
00000050: fee9 3e3d 3c67 563d 9ab0 b33b 9e01 813d
00000060: 4507 92bc 018b 07bc 36e3 d13c 8117 f73c
00000070: 44a7 5a3d b741 083c

fc2.weight f4 [4, 30]
0.21762218 0.17053923 0.2441959 0.2580247 0.18312716 0.20521374 0.21439035 0.23242316
0.15497276 0.18420361 0.17958666 0.17830622 0.2134935 0.17374346 0.17824079 0.1787837
0.16842887 0.18601686 0.13978353 0.21508299 0.20742698 0.17141828 0.14071965 0.26097655
0.2275073 0.16814978 0.14650664 0.20280235 0.17413037 0.22962794 0.0979351 0.067994386
0.05626181 0.13435318 0.08160025 0.103643 0.050535843 0.112392 0.06930091 0.020565854
0.049895238 0.056026217 0.033583567 0.05283223 0.029076125 0.044741366 0.11547651 0.05642296
0.039015587 0.09184469 0.11860632 0.06669054 0.047748264 0.10885898 0.04635895 0.07073256
0.0561388 0.062389188 0.08582278 0.07363016 0.21453875 0.1785522 0.27064982 0.2230472
0.24661806 0.215311 0.21999021 0.18147103 0.22193137 0.17692964 0.20615731 0.23627435
0.17976424 0.1705181 0.14384294 0.20172401 0.1511202 0.18228978 0.17790389 0.260238
0.20593064 0.22868308 0.14491627 0.20530458 0.23234381 0.132868 0.1923288 0.2601358
0.19953814 0.17004484 0.14866504 0.12438266 0.23068126 0.1493086 0.20958318 0.08886016
0.14243627 0.17026973 0.1971294 0.10091278 0.15381528 0.12433022 0.16636081 0.17383027
0.13861321 0.17418374 0.109750606 0.12772521 0.111184716 0.14490351 0.12221185 0.15179202
0.15112354 0.208984 0.21632358 0.090213895 0.1362779 0.16650665 0.1608107 0.15779732
00000000: 59d8 5e3e d6a1 2e3e 7d0e 7a3e d01b 843e
00000010: b085 3b3e 8d23 523e 2589 5b3e 5600 6e3e
00000020: 2eb1 1e3e df9f 3c3e 91e5 373e e895 363e
00000030: 0a9e 5a3e cee9 313e c184 363e 1313 373e
00000040: 9e78 2c3e 347b 3e3e 6a23 0f3e b73e 5c3e
00000050: bd67 543e 4688 2f3e d018 103e b89e 853e
00000060: acf7 683e 752f 2c3e d605 163e 6bab 4f3e
00000070: 3b4f 323e 9623 6b3e 3392 c83d a440 8b3d
00000080: c972 663d e193 093e 081e a73d c842 d43d
00000090: acfe 4e3d c72d e63d a3ed 8d3d b979 a83c
000000a0: f35e 4c3d bf7b 653d ec8e 093d 9c66 583d
000000b0: 0e31 ee3c b942 373d f37e ec3d c31b 673d
000000c0: cfce 1f3d 1219 bc3d dfe7 f23d 0d95 883d
000000d0: af93 433d 75f1 de3d e2e2 3d3d 3bdc 903d
000000e0: ccf1 653d ce8b 7f3d dbc3 af3d 69cb 963d
000000f0: 0cb0 5b3e 63d6 363e 9d92 8a3e 7c66 643e
00000100: 7289 7c3e 7d7a 5c3e 1d45 613e 8bd3 393e
00000110: fa41 633e 0b2d 353e e71a 533e e7f1 713e
00000120: 1e14 383e 4c9c 2e3e 904b 133e bd90 4e3e
00000130: 41bf 1a3e 2caa 3a3e 702c 363e ea3d 853e
00000140: 7bdf 523e e62b 6a3e ee64 143e 5d3b 523e
00000150: 89eb 6d3e 8d0e 083e d7f1 443e 8530 853e
00000160: ba53 4c3e 3c20 2e3e a63b 183e 56bc fe3d
00000170: b537 6c3e 5be4 183e f99c 563e 51fc b53d
00000180: d0da 113e 305b 2e3e 4adc 493e 5cab ce3d
00000190: c181 1d3e d8a0 fe3d 7d5a 2a3e 9000 323e
000001a0: 9ff0 0d3e 395d 323e edc4 e03d 66ca 023e
000001b0: d0b4 e33d 9661 143e 354a fa3d 5e6f 1b3e
000001c0: 21c0 1a3e e7ff 553e ee83 5d3e 10c2 b83d
000001d0: 6f8c 0b3e b880 2a3e 8fab 243e 9f95 213e

fc2.bias f4 [4]
0.40185124 0.12990145 0.39010522 0.2765269
00000000: 72bf cd3e e304 053e dfbb c73e ef94 8d3e
