TDLv1e_10000.pt (torch, 12672 bytes, 4 tensors)

fc1.weight f4 [80, 28]
00000000: ac11 0a3d d2d1 33bd 540c 023b 614a 2a3d
00000010: a1d3 dfbc 1d26 003c 30d1 183d dfd3 38bd
00000020: c51c 1abd 792f 483c c01e 373d 95d3 27bb
00000030: 8e26 f1bc 16a2 34bd 4069 ddbc 54ca aabc
00000040: 2765 383c d6d6 393d 8e68 79bc 983a 5fbc
00000050: b7a3 59bc 48d4 d53c e1bc 52bd 107b 143d
00000060: 4263 17be 4399 0c3e 4d0b dcbd 49b2 3e3e
00000070: feaa 71bd afe5 32bd 95b8 2dbd 24b7 a2bc
00000080: 0ac6 0fbc 2970 3bbd 8ec6 32bd f67d 18bd
00000090: 439d e23c 91cf ddbc f46a 183d 757c cdbc
000000a0: b52f 033b fb8f 94bc 7e4e 423c 0867 34bd
000000b0: 2024 1cbd 20c9 7abc 7f2a c23b fa4f 1a3b
000000c0: 5dc3 8a3c 52f7 033d d38e 3e3d 0dcf 343d
000000d0: 62e0 2b3f 9aa2 2abf 78b1 263f 9aea 21bf
000000e0: d9ba e7bd 5e83 8bbd 77db a2bd 6705 99bd
000000f0: b9d4 1c3b 5a40 47bd decf b43c 85cf 01bc
00000100: 4f8c ca3c 0a5c a6bc 989a 15bc 14dd 3b3d
00000110: 3c6e e33c d375 483d f14d 913a 8b45 2cbd
00000120: 9aef 743b f3cd 013d a274 313c 9dba af3d
00000130: cf68 d33d 9ed9 3b3d a806 8c3d 3154 c13d
00000140: ce68 5d3f aadf 5cbf c656 693f 4eb2 61bf
00000150: 326b d6bd af8a 80bd 761c 67bd 8cb4 7fbd
00000160: 61be 2ebd 51dd 4dbd 6a6b 08bd 3b6f 37bc
00000170: 4edf 1fbc 21e4 6b3c c98c 133d f89a 943c
00000180: aab2 b83c 4acc 163d 215e 9e3c b230 903c
00000190: 59ae bf3c a889 033d 2f27 c5bc 8704 323d
000001a0: 998b 8b3c 1c67 8e3d d3ca a93d 17ea c33d
000001b0: 9694 523f 9946 3bbf 6e9e 3c3f db3d 4dbf
000001c0: f70d 51bd 5928 4e3c 68d0 27bc 5427 55bb
000001d0: d68a d2bb 0e95 3a3d 1190 cf3c 3a91 2e3d
000001e0: e393 a13c 7b55 a83c 9c5f febc 3901 a9bc
000001f0: f707 90bc 094e ccbc 0e27 013d 4256 cc3c
00000200: 3cf9 eebc 00cc e03c da7a 243c 0be5 5cbc
00000210: 33d2 efbb e5cd 3d3d 5a8a 353d 5410 3ebc
00000220: f2b5 123f 8cc5 12bf d502 093f 0998 06bf
00000230: 13de dcbd 4ade edbd c2bf b6bd f0f4 c73a
00000240: 5ac0 3ebd db7a 4abc e493 debc 21a6 0139
00000250: eeec 823c 00ef 8dbb d05d 19bc 4862 ef3b
00000260: c8c3 8ebc 9858 3b3d c463 373d a5f7 a83c
00000270: 0dc9 f73c c0af 41bc 6d91 b3bc 268c 79bc
00000280: 11df 903c 56fc 573d a219 e83d 3362 9a3d
00000290: a062 573f 1440 55bf bcc2 5d3f d6c9 58bf
000002a0: 8197 0c3d 048a 8cbc 0527 58bd ff93 abbc
000002b0: b204 e63c 8833 68bc ea9e ab3c 7a33 cb3c
000002c0: 6e99 8abc 7cdd 763c b03b a6bc cb9a cc3c
000002d0: 20d2 e5bc dc25 973c 4cd0 273d 86a6 3dbd
000002e0: 634a 8f3c 5743 bebc 5c1c 403c f669 78bc
000002f0: 3133 7d3c 313e cabc 8085 0b3d d1fb e03c
00000300: 333e d63d 08aa 42be bf83 233e a083 42be
00000310: cab2 85bd 4d46 87bd d78d 83bd 12ef 85bd
00000320: 108f 78bd accf d4bb 3ba1 df3c 2bd4 b83c
00000330: 1a21 f9bc b890 963a b36e 2d3d 7a16 a3bc
00000340: c360 8cbc 8863 21bd ab1d 3e3c 1438 6ebc
00000350: b065 ff3c 7623 00bd 4f80 56bb fe28 cd3c
00000360: d6d5 5e3d 1650 593c 40d2 e6bb b1a9 0fbc
00000370: 797d 0e3f 8b76 11bf 89ca 053f 8111 ffbe
00000380: 5a09 943c 8ea2 60bd e8fe 15bd a418 193c
00000390: f247 0d3d 5961 3e3d 9588 06bd 7689 b8bc
000003a0: 1373 823c e77e 8ebc 618f f13c 90c0 3cbc
000003b0: 8db5 e3bc dec5 24bd 87aa b6bc a0b0 90bc
000003c0: bfea 193b ace4 933c ee2d 6f3c 58a8 c1bc
000003d0: c27d 853c dfce 253c d164 97bc 073a e0bc
000003e0: c2b9 b13d 31b4 69be d3a7 963d 8995 4fbe
000003f0: a2f4 f43b e35d f3bc ca32 8d3c 62b0 27bd
0.03370826 -0.043901272 0.0019843774 0.04157484 -0.027322592 0.007821587 0.03730887 -0.04512393
-0.037625093 0.01221835 0.04470706 -0.002560829 -0.02943733 -0.04409989 -0.027027726 -0.02084843
0.011254585 0.0453709 -0.015222682 -0.01362481 -0.013283662 0.0261022 -0.05144966 0.036250174
-0.14783958 0.1373034 -0.10744343 0.18622698 -0.05900096 -0.043676075 -0.04241236 -0.019862719
-0.008775244 -0.04576126 -0.043646388 -0.0372295 0.027662879 -0.027076514 0.037211373 -0.02508376
0.002001745 -0.018135061 0.011859534 -0.04404357 -0.03812039 -0.015306741 0.005925476 0.0023546205
0.01693886 0.032218285 0.046522927 0.04414277 0.67139256 -0.6665436 0.65114546 -0.632486
-0.11314935 -0.06812166 -0.07952016 -0.074717335 0.0023930504 -0.048645355 0.022071775 -0.007923012
0.024725107 -0.02030756 -0.009131096 0.045865133 0.027762525 0.04894049 0.001108585 -0.04205851
0.003737426 0.03169055 0.01083103 0.085805155 0.10322725 0.045861833 0.06837207 0.09439886
0.86488044 -0.86278784 0.9114803 -0.88162696 -0.10469665 -0.06276452 -0.056423627 -0.062428042
-0.04266203 -0.050259892 -0.033305563 -0.011195953 -0.00975783 0.014397652 0.036022935 0.018140301
0.022546131 0.03681592 0.019331994 0.017601345 0.023398565 0.0321137 -0.024066536 0.04346135
0.017034339 0.0695326 0.08290639 0.095661335 0.82257974 -0.731546 0.73679245 -0.8017251
-0.05103871 0.012582862 -0.010242559 -0.0032524662 -0.006425242 0.045552306 0.02533725 0.042618968
0.019723838 0.020548573 -0.03105145 -0.020630466 -0.017581923 -0.024939554 0.031531386 0.024943475
-0.029171579 0.027441025 0.010039056 -0.0134823425 -0.007318759 0.046338934 0.044321395 -0.011600573
0.57308877 -0.5733268 0.53519946 -0.5257574 -0.10784545 -0.11614664 -0.08923294 0.0015255492
-0.04657016 -0.012358393 -0.02717013 0.00012364287 0.015982118 -0.0043314695 -0.009360746 0.007305417
-0.01742734 0.045738786 0.04477288 0.020625899 0.030247236 -0.011821687 -0.02191993 -0.015231168
0.017684491 0.05273088 0.11333014 0.07538261 0.84134865 -0.833009 0.86625266 -0.8468298
0.034324173 -0.017155655 -0.052771587 -0.020944593 0.02807841 -0.014172442 0.0209498 0.02480482
-0.016918864 0.015067454 -0.020292133 0.024976155 -0.028054297 0.01845067 0.04097013 -0.046301387
0.017491525 -0.02322547 0.011725511 -0.015161982 0.0154540995 -0.024687858 0.034062862 0.027463825
0.10461082 -0.19010174 0.15968226 -0.18995523 -0.06528242 -0.06605206 -0.06423538 -0.0653974
-0.06068331 -0.006494483 0.02729856 0.022562107 -0.030411292 0.0011487221 0.0423419 -0.019908179
-0.017135983 -0.03940156 0.011603753 -0.014539737 0.031176418 -0.03128382 -0.0032730286 0.02504396
0.05440315 0.013263723 -0.0070441067 -0.008768485 0.55660206 -0.5682151 0.5226217 -0.49818042
0.018070865 -0.054842524 -0.03662005 0.009344254 0.03449244 0.046479557 -0.0328451 -0.022526484
0.015924012 -0.017394496 0.029487314 -0.01152052 -0.027796531 -0.040227763 -0.02229811 -0.017662346
0.0023485867 0.018053375 0.014598353 -0.023639843 0.016295318 0.010120123 -0.01848069 -0.02737142
0.086780086 -0.22822644 0.07356229 -0.20271887 0.0074754516 -0.029707855 0.017236132 -0.040939696

fc1.bias f4 [80]
00000000: 0bd6 82bd 910e 463e 3f6c b53e ee4a 8f3e
00000010: 7187 3f3e 0938 b63e 826b e73b de64 073e
00000020: 592f 1b3d eb35 1b3e ddad 8f3d 0e81 01bd
00000030: 6780 9bbd b0db 8abd 6f60 433d d940 4b3e
00000040: 0efb c8bc a482 68be 4108 1a3e aacd febd
00000050: 63a7 e1bc 1fea d63c ff47 193d 9e8e ffbd
00000060: b035 993e ddc4 4abc 22b7 b1bc 260a 19be
00000070: 988a 893b 0b5e 3e3e c9d5 393c e5df 19be
00000080: d49c 80bc b01c fabd 04ca 783e 5a68 aabd
00000090: 65f1 c4bd d835 36be e325 0fbe 236e 34be
000000a0: e49c ab3e 921c c93d f93b 063e 21b0 673e
000000b0: cb60 d43d b803 fabd 7153 54be d730 183e
000000c0: e270 d9bd 552c 16be a924 733e 6091 41bc
000000d0: 4ede 5d3e 3457 02be 631f 533b ce0a 033e
000000e0: 985b 0abe 3f3a 433d 5abc dabd a589 503d
000000f0: 60a3 94bd 1a2d 413e ad11 21be 599d 7cbc
00000100: e07c 943e 0769 96bd 5338 cbbd b583 2abe
00000110: 1b3e 6ebe f5e7 d3bd d3bf aabd 0027 d2bd
00000120: e999 fabd 1930 2a3e f721 28be 7f0c 96bd
00000130: d92f 303e 3624 0dbe 61a7 0e3d 3e5d bfbd
-0.06388482 0.19341494 0.35434148 0.27986854 0.1870401 0.35589626 0.0070623765 0.13222072
0.03788695 0.15157287 0.07015584 -0.031617217 -0.0759285 -0.06780183 0.047699388 0.19848956
-0.024533775 -0.22706085 0.15042211 -0.12441571 -0.027545637 0.026234685 0.037422176 -0.12478374
0.29923773 -0.012376037 -0.02169377 -0.14945278 0.00419743 0.18590562 0.011342474 -0.15026815
-0.015699781 -0.12212503 0.24295813 -0.08320685 -0.09616355 -0.17793977 -0.13979296 -0.17620139
0.33518136 0.098199025 0.13108815 0.22625782 0.10370024 -0.122077405 -0.20734955 0.14862381
-0.10617234 -0.14665349 0.23744453 -0.011814445 0.21666834 -0.12728578 0.0032214753 0.1279709
-0.13511503 0.04766297 -0.106804565 0.050912518 -0.07257724 0.18864861 -0.15729399 -0.015418374
0.29001522 -0.07344251 -0.09922852 -0.16651805 -0.23265879 -0.10346977 -0.08337369 -0.10261345
-0.12236387 0.1661991 -0.16419207 -0.07326602 0.17205752 -0.13783345 0.034827594 -0.093439564

fc2.weight f4 [4, 80]
00000000: 4126 503d ff3d 3dbf 5246 8abf cb2a 71bf
00000010: 86a2 2fbf 2c4f 78bf e0f7 70be 1da5 1bbf
00000020: 05d5 4bbe b47f 23bf 0bfe 8cbe 5506 a33e
00000030: 43f3 993e d59e ab3e da46 dabe aa8a 44bf
00000040: 1b9b 29bc 4f3e 2b3f 936f 20bf 4067 043f
00000050: a982 533e 653c 76be c24b 33be 4250 d73e
00000060: b03b 74bf 11ff 3d3e 0eda 51bc 92d5 103f
00000070: 4e9e 3fbe e660 2dbf b443 92be 9016 d03e
00000080: 10b6 013e 700a 0d3f bf90 4bbf 95b0 bb3e
00000090: 7691 873e 9281 273f 1309 b73e 8a24 223f
000000a0: 062a 80bf 1d2f bcbe 4c7a 07bf 1208 3abf
000000b0: 603d 06bf a313 063f 4390 223f 98c8 1abf
000000c0: 6d5d 903e 7f4d e53e 159d 4abf f2dd 0a3e
000000d0: e27d 4abf 37f8 1d3f cadb 18bc 7c3d f2be
000000e0: 659b 033f d153 ebbe c1d5 bd3e c4d8 51be
000000f0: 3c2e 353e 24fd 2bbf 6ab4 f43e 39ca 663e
00000100: 8d4f 70bf 3b71 023e 125d df3e 8ace 113f
00000110: 04d9 403f 2d8d 053f bee6 853e af67 d63e
00000120: 4651 0c3f 7c66 3abf 961e 223f f64a a83e
00000130: f6d8 2cbf fce4 ff3e adc3 95be d080 d23e
00000140: 596c 083e 4bfb 45bf fdb4 80bf 7937 71bf
00000150: 8a63 20bf 9565 81bf 8377 68be 12ef 1fbf
00000160: c3ae 89be be6a 2dbf 5192 91be 1590 9b3e
00000170: 0157 963e efaf a43e 8aa5 fbbe da52 31bf
00000180: ceec 1abc 6be5 2c3f 14ec 37bf 41d4 fc3e
00000190: e580 503e af57 85be 5b87 2cbe fa3f ad3e
000001a0: 8f52 69bf 885c 253e 1431 93bd f35f 0d3f
000001b0: 5bba 93be 2f7a 3bbf 4d27 97be 60e1 d63e
000001c0: 5c13 263e 7694 0c3f 1c8b 52bf 69aa cc3e
000001d0: 0297 a53e 74a6 2d3f 815d da3e 5507 273f
000001e0: 496d 79bf b03f bdbe 5e02 07bf a85b 3cbf
000001f0: e170 febe 7957 063f 5e1a 1b3f 38bf 11bf
00000200: 9303 863e 845e 033f aa3f 4bbf 21b3 223e
00000210: 8099 4dbf edc5 083f e11d f8bc d6fc 01bf
00000220: 7383 fb3e 92af f9be e45f e43e 0016 30be
00000230: 3baa 223e 3ada 2dbf 9f24 083f 216d 9d3e
00000240: 384d 64bf 353f 3b3e 6aec ed3e 8e3b 0a3f
00000250: 14db 2b3f 5580 f63e b5fd 923e 23eb e23e
00000260: 4542 033f 7949 34bf a90b 0c3f 88b5 a43e
00000270: 405a 1fbf f415 ee3e d6dd 97be 7dba b73e
00000280: 3208 113d e448 4abf 0aa0 8dbf e9c5 6bbf
00000290: f268 2dbf e807 87bf 9093 4ebe 3a8e 28bf
000002a0: c925 67be 62e5 1fbf 4355 90be 45c4 833e
000002b0: f99f 9c3e ae57 7d3e 5cd7 e4be 87c7 3cbf
000002c0: b347 58bd c726 2e3f a691 1dbf 6780 123f
000002d0: b199 1d3e 8d87 8bbe b46b 32be 7ec7 ad3e
000002e0: b516 6abf 3759 3c3e 306a 81bd 5de0 063f
000002f0: 8a90 90be ea35 1ebf 0fb4 a9be 265d f33e
00000300: 3124 003e a6e8 ec3e 7165 4abf a531 943e
00000310: 80a5 843e e6f3 2d3f ad43 cb3e 1dab 243f
00000320: 324a 7dbf ef9b c8be 09bc f8be 0ff8 3bbf
00000330: 4f2c febe 5723 0b3f 53fc 323f afbd 1fbf
00000340: 5b56 a93e a15b f13e 765f 4dbf 9fd9 053e
00000350: ef64 4fbf 9b0e 2a3f 4739 1f3d f527 e1be
00000360: 8273 023f 7cd1 c3be 4fc1 cb3e e2b1 5fbe
00000370: 8173 fa3d 68cf 37bf b688 053f 39d9 6a3e
00000380: 4d1a 64bf e0d9 213e a0ad f53e 10c4 0a3f
00000390: 69bc 3d3f eba5 0a3f 1145 a33e b05b f43e
000003a0: a22e 0f3f f39d 33bf 0a7a 193f 7890 973e
000003b0: 86e6 1dbf cab6 063f c942 a8be 9f02 d53e
000003c0: 27aa 053e adf1 48bf ce29 8abf 8bc4 61bf
000003d0: fd1d 1abf c91d 85bf 5b81 76be ff8d 21bf
000003e0: 307d 52be 3067 2fbf fc5d 84be 8a9a 963e
000003f0: 4688 993e cd1e 943e 18e4 e6be 9692 3abf
0.05081773 -0.73922724 -1.080271 -0.9420592 -0.68607366 -0.96995807 -0.23532057 -0.6079882
-0.19905479 -0.63866735 -0.2753757 0.31840768 0.30068406 0.33519617 -0.4263218 -0.76774085
-0.010351921 0.6689195 -0.6267025 0.51720047 0.20655312 -0.24046476 -0.17509368 0.4205342
-0.95403576 0.18554331 -0.012808336 0.5657588 -0.18712732 -0.6772598 -0.28567278 0.40642214
0.12667108 0.5509405 -0.7951774 0.3665816 0.26478165 0.65432084 0.3574911 0.63337004
-1.0012825 -0.36754695 -0.52920985 -0.72668564 -0.524374 0.52373713 0.63501376 -0.6046233
0.28196278 0.44785687 -0.7914594 0.13561228 -0.7909833 0.6170687 -0.009329746 -0.47312534
0.5140899 -0.45962384 0.37077144 -0.20492846 0.17693418 -0.67183137 0.47793895 0.2253808
-0.93871385 0.12738506 0.43625695 0.5695578 0.7533114 0.5216854 0.26152605 0.4187598
0.54811513 -0.7281263 0.6332792 0.3286969 -0.67518556 0.4997939 -0.2925085 0.411139
0.13322581 -0.7733657 -1.0055233 -0.9422527 -0.62651885 -1.0109125 -0.2270184 -0.6247417
-0.26891145 -0.67741 -0.28431943 0.30383363 0.29363254 0.32165477 -0.49149734 -0.69267046
-0.009455873 0.67537564 -0.718446 0.49380687 0.2036167 -0.2604346 -0.16848509 0.33837873
-0.911416 0.16148579 -0.07187095 0.5522453 -0.28853115 -0.7323331 -0.29522172 0.41968822
0.16218323 0.54914033 -0.82243514 0.39973763 0.32341772 0.6783211 0.42649463 0.6524556
-0.9743238 -0.36962652 -0.5273799 -0.73577356 -0.49695495 0.5247722 0.6058711 -0.569324
0.26174602 0.51316094 -0.7939402 0.15888645 -0.8031235 0.5342701 -0.030287685 -0.5077642
0.49123725 -0.48766762 0.4460441 -0.17195892 0.1588525 -0.6791111 0.5318088 0.3074732
-0.89180326 0.1828583 0.46469432 0.53997123 0.6713116 0.48144785 0.28709188 0.4432002
0.51272994 -0.7042461 0.5470529 0.32169747 -0.62247086 0.46501124 -0.29661435 0.35884467
0.035408206 -0.7901747 -1.1064465 -0.9209886 -0.6773826 -1.0549288 -0.20173478 -0.6584202
-0.22573008 -0.62459385 -0.2819005 0.2573568 0.305908 0.24740478 -0.44695556 -0.73741955
-0.052802753 0.6802792 -0.61550367 0.57227176 0.1539066 -0.27251855 -0.17423898 0.33941263
-0.914409 0.18393408 -0.06319082 0.526861 -0.28235275 -0.61801016 -0.33145186 0.47532004
0.12513806 0.46271247 -0.7906104 0.28944126 0.25907516 0.67950284 0.3970007 0.643236
-0.9894134 -0.39181468 -0.4858096 -0.7342538 -0.4964318 0.543508 0.69916266 -0.6239881
0.33073696 0.4714022 -0.80223787 0.13071297 -0.8101339 0.66428536 0.038872983 -0.43975797
0.509575 -0.3824576 0.3979592 -0.218452 0.12229062 -0.7180085 0.5216173 0.22934426
-0.8910263 0.15805769 0.47984028 0.5420542 0.74115616 0.5415942 0.3188863 0.47726202
0.5593053 -0.70162886 0.5995184 0.29602408 -0.61679876 0.52622664 -0.32863453 0.41603562
0.13053189 -0.7849377 -1.0794008 -0.88190526 -0.6020201 -1.0399715 -0.24072783 -0.63107294
-0.20555568 -0.68516827 -0.25852954 0.2941478 0.2998678 0.2892975 -0.45095897 -0.7287992

fc2.bias f4 [4]
00000000: e1d0 94be f7d5 6abe ce8e 93be 5480 8bbe
-0.29065612 -0.22933184 -0.2881989 -0.27246344
