TDLv1e_4000.pt (torch, 12656 bytes, 4 tensors)

fc1.weight f4 [80, 28]
0.020929052 -0.030177083 0.026101595 0.0018193966 0.032752592 0.04627657 -0.018073453 -0.04513734
-0.037700266 0.0064828056 -0.0111860605 -0.042135183 0.04187214 0.006815974 -0.0040210565 -0.00016944308
0.0059015085 0.020548955 0.028328443 0.04437654 0.042297497 0.025505358 0.044411447 -0.042409115
0.10704411 -0.10026682 0.042540662 -0.096084066 0.021623919 -0.0012375244 -0.012489101 0.048513148
-0.029290246 -0.011889088 0.0065241735 -0.018137414 -0.031224705 -0.035096772 -0.0042826007 0.03999927
-0.019741597 -0.023402905 -0.014722392 -0.0018844251 -0.032218628 -0.019758774 -0.030591743 -0.031450674
0.014192559 -0.008130035 -0.038236387 -0.055790905 -0.38298038 0.41270083 -0.3663825 0.4074338
0.03305635 0.049851462 0.03348012 -0.008411304 0.034981474 0.0423849 0.035214923 -0.042395737
-0.026267499 0.020879546 0.024808155 -0.010855062 -0.031070562 0.021024993 0.040439826 -0.004367762
-0.0028134391 -0.022361673 0.01621583 0.0030660278 -0.008119332 0.038052376 -0.030959772 0.011737759
-0.3239744 0.4260998 -0.37467226 0.3517742 -0.033333883 -0.021438135 -0.068850935 -0.029226469
-0.044327583 -0.02277804 -0.005451668 0.007931919 0.005285854 -0.04342879 -0.038029727 0.021289725
0.0036770406 -0.010447337 0.001208691 0.027214667 -0.015462866 -0.020797802 -0.02434503 0.051630475
0.07876886 0.03361681 0.07377017 0.0422946 0.5715943 -0.62094104 0.59669966 -0.63616073
-0.03832043 -0.03849728 0.013856725 -0.038444024 -0.036040768 0.0077959034 -0.039302293 0.036090158
0.0014201208 -0.0039382246 -0.04098789 0.022583444 -0.014489909 0.0017401696 0.043025192 -0.030875005
-0.016222354 -0.040186718 -0.022699388 -0.037304774 -0.004732133 0.031040313 0.054925475 0.05178755
0.23027152 -0.27350506 0.23486614 -0.28822026 -0.022888541 -0.009304178 0.034549307 0.05278223
0.04120373 -0.048384547 0.015577969 -0.004393759 0.034761246 -0.029472051 0.0069353506 0.036529865
0.010882084 -0.030409211 0.0025722964 0.036066096 -0.034905724 0.014089764 -0.05073733 -0.032539133
-0.009381427 -0.05098087 -0.017893787 -0.026646761 -0.47454798 0.51122147 -0.45754844 0.49531525
-0.06645251 0.014580715 -0.055793114 0.017370196 -0.023960734 -0.028233876 0.0045871153 -0.0066344854
-0.030065797 0.03977721 -0.011284434 -0.02779832 -0.00018590236 -0.031537868 0.013457853 0.03957993
0.015609574 0.05005702 0.026895583 0.035463568 0.06522703 -0.017395237 0.0053727115 0.0021780373
0.513793 -0.55642194 0.48492372 -0.52877766 0.064782776 0.0074480926 -0.0052009546 -0.0033951332
0.03593871 -0.032405622 -0.03413506 -0.030932331 0.039378855 -0.022494178 0.025513679 0.028537134
0.031572755 0.005097603 0.022279542 0.047628354 0.00849761 0.026335372 -0.02879168 -0.04185164
-0.04229873 -0.03928536 -0.032079343 -0.013231956 -0.52974194 0.5479661 -0.53241295 0.5941889
0.035596352 0.012961852 -0.032387707 0.015670039 0.017399944 0.014155201 0.046865996 0.033044413
0.008322937 -0.0033139398 -0.00624878 -0.012729995 -0.039106347 -0.007625172 0.036229394 0.047862418
0.03335922 0.047018174 0.040587507 -0.025847908 8.958255e-05 0.0032606712 0.03148351 -0.0431852
-0.38406396 0.394577 -0.345586 0.41235211 -0.0126128765 0.020584283 0.015441971 0.006774564
00000000: 6773 ab3c ee35 f7bc 03d3 d53c d278 ee3a
00000010: 9527 063d 808c 3d3d c70e 94bc eee1 38bd
00000020: 986b 1abd b76d d43b bd45 37bc f195 2cbd
00000030: 1f82 2b3d 8958 df3b 11c3 83bb 88ac 31b9
00000040: 7161 c13b 4856 a83c 0d11 e83c 2dc4 353d
00000050: 2440 2d3d 9df0 d03c c7e8 353d 2eb5 2dbd
00000060: f139 db3d b158 cdbd 1e3f 2e3d b9c7 c4bd
00000070: a524 b13c 6e34 a2ba 169f 4cbc b9b5 463d
00000080: 19f2 efbc 73ca 42bc bcc8 d53b ea94 94bc
00000090: f4ca ffbc a2c1 0fbd 0f55 8cbb 46d6 233d
000000a0: 21b9 a1bc 73b7 bfbc 3036 71bc d0fe f6ba
000000b0: aef7 03bd 27dd a1bc 899b fabc 6cd2 00bd
000000c0: e887 683c d733 05bc c29d 1cbd 0185 64bd
000000d0: 0116 c4be 864d d33e 7d96 bbbe 2a9b d03e
000000e0: 1866 073d 0c31 4c3d 7322 093d 91cf 09bc
000000f0: bc48 0f3d ca9b 2d3d 863d 103d 27a7 2dbd
00000100: f02e d7bc 950b ab3c 793a cb3c 6ed9 31bc
00000110: b187 febc 9b3c ac3c 3ba4 253d 711f 8fbb
00000120: ad61 38bb d42f b7bc 0fd7 843c 69ef 483b
00000130: f206 05bc cfdc 1b3d 599f fdbc bb4f 403c
00000140: f9df a5be c129 da3e 0bd5 bfbe bf1b b43e
00000150: 1c89 08bd 079f afbc b801 8dbd 596c efbc
00000160: d790 35bd 0399 babc e8a3 b2bb e1f4 013c
00000170: f534 ad3b 63e2 31bd 0fc5 1bbd ca67 ae3c
00000180: 81fa 703b 4f2b 2bbc f16c 9e3a 4bf1 de3c
00000190: f657 7dbc 2760 aabc 3a6f c7bc 7a7a 533d
000001a0: 9151 a13d c8b1 093d d114 973d 1a3d 2d3d
000001b0: 0154 123f fef5 1ebf 4fc1 183f 6edb 22bf
000001c0: e2f5 1cbd 53af 1dbd 5107 633c 7b77 1dbd
000001d0: 7c9f 13bd c774 ff3b 71fb 20bd 46d3 133d
000001e0: 5923 ba3a 390c 81bb ebe2 27bd ea00 b93c
000001f0: 1567 6dbc 6716 e43a 2f3b 303d 94ed fcbc
00000200: bee4 84bc d49a 24bd 11f4 b9bc e4cc 18bd
00000210: 0210 9bbb 4148 fe3c 89f9 603d 2f1f 543d
00000220: 4ccc 6b3e db08 8cbe c080 703e 9b91 93be
00000230: c080 bbbc 8d70 18bc 9383 0d3d 2e32 583d
00000240: 3ec5 283d e02e 46bd bd3a 7f3c 86f9 8fbb
00000250: cf61 0e3d 5f6f f1bc f041 e33b 57a0 153d
00000260: c54a 323c bd1c f9bc f993 283b 0bba 133d
00000270: 4ef9 0ebd c1d8 663c f2d1 4fbd c147 05bd
00000280: 8fb4 19bc 51d1 50bd fe95 92bc 4f4a dabc
00000290: f4f7 f2be 69df 023f ca43 eabe f699 fd3e
000002a0: 4118 88bd f4e3 6e3c 5287 64bd f14b 8e3c
000002b0: 4d49 c4bc bb4a e7bc 834f 963b 1966 d9bb
000002c0: 8c4c f6bc 6eed 223d 59e2 38bc 4db9 e3bc
000002d0: c9ee 42b9 da2d 01bd 547e 5c3c 911e 223d
000002e0: 4cbf 7f3c 9708 4d3d 2054 dc3c 3f42 113d
000002f0: c095 853d 7580 8ebc 920d b03b 67bd 0e3b
00000300: f087 033f ab71 0ebf ec47 f83e f95d 07bf
00000310: d5ac 843d 210f f43b c56c aabb e280 5ebb
00000320: 7834 133d c2bb 04bd 34d1 0bbd cd65 fdbc
00000330: b94b 213d b645 b8bc 1002 d13c b5c6 e93c
00000340: 6f52 013d cb09 a73b 9683 b63c f315 433d
00000350: 8f39 0b3c 47bd d73c 87dc ebbc a06c 2bbd
00000360: 6f41 2dbd b0e9 20bd a165 03bd d9ca 58bc
00000370: 2b9d 07bf 8247 0c3f 374c 08bf c41c 183f
00000380: 7bcd 113d f35d 543c f9a8 04bd 745e 803c
00000390: 548a 8e3c 37eb 673c 8ff6 3f3d 9459 073d
000003a0: ee5c 083c af2e 59bb 91c2 ccbb 7891 50bc
000003b0: fa2d 20bd 94dc f9bb 4665 143d 620b 443d
000003c0: ada3 083d 2196 403d 163f 263d febe d3bc
000003d0: 44de bb38 fcb0 553b daf4 003d f7e2 30bd
000003e0: 08a4 c4be ff05 ca3e a6f0 b0be d11f d33e
000003f0: 3da6 4ebc 5fa0 a83c 5200 7d3c 29fd dd3b

fc1.bias f4 [80]
0.060574353 -0.054800916 -0.10194547 0.14931157 0.011276187 -0.10567361 0.14631616 -0.1202387
-0.10346061 -0.040176585 -0.01930768 0.006379659 -0.037172195 0.018946722 0.00417592 0.1157577
-0.035881195 -0.009510453 -0.109047316 0.096045345 -0.030939776 -0.064979255 0.07692083 0.0736647
0.09017329 0.045676176 -0.14960983 -0.0019640967 0.08268337 -0.16409458 -0.13152838 -0.067939565
0.14135708 0.045198552 0.07312821 -0.15091161 0.06962396 -0.10262505 0.00032567338 -0.08145861
0.09750421 0.011911054 0.13481414 -0.08622894 0.014811375 0.054065473 0.01829083 -0.08055945
-0.09209242 -0.02081561 0.12169302 0.040635772 0.009804808 -0.12893432 -0.034824714 0.14862394
-0.006636017 0.03486283 0.0932653 0.023861282 0.09557738 0.04640347 -0.027054826 0.05668023
0.10630494 -0.12041026 -0.10389203 0.18522756 -0.055019367 0.21411194 0.18363845 -0.16038288
0.05387203 0.17475913 -0.018113991 -0.15960367 -0.038246322 -0.14668687 -0.059685823 0.10353239
00000000: d01c 783d ed76 60bd c9c8 d0bd 22e5 183e
00000010: c2bf 383c 686b d8bd e7d3 153e b53f f6bd
00000020: 28e3 d3bd 3490 24bd 242b 9ebc 750c d13b
00000030: df41 18bd 2836 9b3c 28d6 883b 5f12 ed3d
00000040: 29f8 12bd bbd1 1bbc 3354 dfbd 6cb3 c43d
00000050: 6a75 fdbc d813 85bd ab88 9d3d 85dd 963d
00000060: c6ac b83d f116 3b3d 5233 19be 13b8 00bb
00000070: e655 a93d 6908 28be 60af 06be e623 8bbd
00000080: e9bf 103e 1e22 393d 3ec4 953d 9388 1abe
00000090: 0297 8e3d 152d d2bd 24bf aa39 c6d3 a6bd
000000a0: 4ab0 c73d 9526 433c b80c 0a3e cc98 b0bd
000000b0: 69ab 723c c273 5d3d a7d6 953c 5afc a4bd
000000c0: f39a bcbd 8085 aabc 313a f93d b271 263d
000000d0: 58a4 203c 5c07 04be 5ca4 0ebd e030 183e
000000e0: f272 d9bb 54cc 0e3d e101 bf3d bc78 c33c
000000f0: 13be c33d 9111 3e3d 15a2 ddbc 8729 683d
00000100: 68b6 d93d a899 f6bd 58c5 d4bd 4bac 3d3e
00000110: fd5b 61bd 2940 5b3e b80b 3c3e 693b 24be
00000120: eba8 5c3d 0ff4 323e cb63 94bc 256f 23be
00000130: 2da8 1cbd 1535 16be 1f79 74bd ca08 d43d

fc2.weight f4 [4, 80]
0.16735266 -0.3212125 -0.36570084 0.7104408 0.32763028 -0.48931706 0.59250146 -0.59105057
-0.3122047 0.1236169 -0.0038966408 -0.1726899 -0.054227047 0.45311686 0.06256648 0.5410276
-0.40532315 -0.19816098 -0.48118848 0.4699257 0.14989516 -0.124976195 0.5676038 0.57815444
0.59874475 0.29342917 -0.55051625 0.024025202 0.35419717 -0.6342539 -0.52972364 -0.27619454
0.5798794 0.13831912 0.242445 -0.47239763 0.37951067 -0.5472362 -0.097628236 -0.42060184
0.42518607 0.18641916 0.5699001 -0.3755366 0.045883212 0.20071468 0.08260865 -0.49377877
-0.5355602 -0.21926883 0.6479813 0.11541898 0.24315964 -0.49690846 -0.24819691 0.6407165
0.2348565 0.3895062 0.3747201 0.2987037 0.3896482 0.10285825 -0.31734586 0.24456678
0.5747337 -0.44298592 -0.41440317 0.82757014 -0.41635394 0.7703173 0.739008 -0.5176204
0.3938992 0.82674223 -0.34407875 -0.5630228 -0.091278024 -0.5774405 -0.3929807 0.44848457
-0.12730873 0.38013625 0.31721517 -0.74629056 -0.2505238 0.47171065 -0.62142473 0.53775054
0.37157091 -0.080685966 -0.024679579 0.20071177 0.056864146 -0.375726 0.0034394206 -0.5058809
0.42048547 0.0942309 0.52753353 -0.44378975 -0.16617379 0.1474983 -0.6570964 -0.5765499
-0.57703876 -0.23201497 0.4941928 -0.014028666 -0.3193668 0.5940996 0.4815529 0.21121308
-0.6381382 -0.07247121 -0.29918212 0.52245295 -0.47194713 0.55766165 0.18098524 0.4291372
-0.41546318 -0.19139571 -0.51193 0.33090267 -0.009989895 -0.24787442 -0.15619564 0.42603487
0.45513046 0.20519577 -0.63658774 -0.102466196 -0.3005267 0.5507107 0.25031847 -0.6770623
-0.27933767 -0.30209446 -0.34865955 -0.28226224 -0.38354567 -0.014189416 0.3188885 -0.27375892
-0.5771341 0.46765578 0.46481982 -0.84301245 0.45580035 -0.8389991 -0.7491293 0.509211
-0.3662336 -0.8585885 0.2911266 0.6216849 0.10443905 0.5772202 0.33747754 -0.48782328
-0.1265642 0.32258958 0.3465123 -0.721711 -0.29282784 0.46609047 -0.6013465 0.5909697
0.3459333 -0.11972892 -0.052643873 0.12991086 0.027553596 -0.45867184 -0.017897647 -0.5160376
0.4301688 0.15906662 0.46421728 -0.46894047 -0.13196291 0.1031679 -0.57283366 -0.60636646
-0.54215515 -0.2768415 0.56979764 -0.011634788 -0.36382657 0.6345182 0.53295183 0.231232
-0.6427332 -0.07547488 -0.30327937 0.53635657 -0.38281643 0.5481676 0.11590927 0.36686882
-0.41906676 -0.1824009 -0.5510692 0.38673326 -0.018109804 -0.22556022 -0.13810311 0.46724704
0.5267805 0.23327492 -0.6309178 -0.052342884 -0.32228646 0.59434056 0.27038002 -0.6088649
-0.20734803 -0.34821603 -0.35134265 -0.37315223 -0.36350688 -0.10458736 0.3228171 -0.18348387
-0.5401923 0.43162388 0.4546003 -0.8320057 0.4637843 -0.8070831 -0.7951918 0.48771983
-0.44386932 -0.8888239 0.26423493 0.62742877 0.05698248 0.5840747 0.3640622 -0.44558793
-0.14432278 0.4164188 0.3122711 -0.7254431 -0.39099362 0.44242594 -0.659055 0.47518417
0.37864053 -0.12531476 0.03422452 0.22078228 0.03078843 -0.4685856 0.039952222 -0.45523024
00000000: 7f5e 2b3e f775 a4be 243d bbbe 73df 353f
00000010: 28bf a73e c487 fabe 2dae 173f 174f 17bf
00000020: 4bd9 9fbe db2a fd3d c95e 7fbb 9fd5 30be
00000030: 2e1d 5ebd effe e73e db22 803d c980 0a3f
00000040: 8486 cfbe b6ea 4abe 565e f6be 1a9a f03e
00000050: 1e7e 193e 85f3 ffbd 7c4e 113f ee01 143f
00000060: 5647 193f 593c 963e a2ee 0cbf 80d0 c43c
00000070: 5559 b53e 775e 22bf f89b 07bf 5f69 8dbe
00000080: fa72 143f 87a3 0d3e 8143 783e 1ade f1be
00000090: 394f c23e ac17 0cbf 50f1 c7bd 2059 d7be
000000a0: fdb1 d93e aae4 3e3e f9e4 113f 5546 c0be
000000b0: 09f0 3b3d 2688 4d3e b92e a93d 92d0 fcbe
000000c0: 791a 09bf 0288 60be 1ae2 253f c960 ec3d
000000d0: d7fe 783e c96a febe 5527 7ebe ff05 243f
000000e0: 397e 703e 5b6d c73e 50db bf3e b1ef 983e
000000f0: f87f c73e 59a7 d23d 287b a2be b76f 7a3e
00000100: bf21 133f 0dcf e2be a72c d4be a3db 533f
00000110: 582c d5be 8433 453f a12f 3d3f c582 04bf
00000120: 28ad c93e 61a5 533f 172b b0be 4322 10bf
00000130: f9ef babd 24d3 13bf c434 c9be c59f e53e
00000140: 385d 02be 38a1 c23e 076a a23e e60c 3fbf
00000150: a844 80be 0f84 f13e b115 1fbf 05aa 093f
00000160: 8b3e be3e af3e a5bd d42c cabc 6387 4d3e
00000170: 61ea 683d 295f c0be e767 613b 6981 01bf
00000180: df49 d73e 21fc c03d 700c 073f 6938 e3be
00000190: 7629 2abe cb09 173e 7837 28bf c698 13bf
000001a0: d0b8 13bf 5595 6dbe d706 fd3e 7dd8 65bc
000001b0: 0c84 a3be e916 183f 1a8e f63e 3e48 583e
000001c0: 065d 23bf c96b 94bd 662e 99be 7abf 053f
000001d0: 0ea3 f1be eac2 0e3f 3254 393e dfb7 db3e
000001e0: 97b7 d4be 3dfd 43be d80d 03bf 136c a93e
000001f0: a8ac 23bc cbd2 7dbe c0f1 1fbe 3e21 da3e
00000200: dc06 e93e d71e 523e 6af7 22bf ccd9 d1bd
00000210: a3de 99be 60fb 0c3f be29 803e f453 2dbf
00000220: 5905 8fbe 20ac 9abe 8183 b2be ad84 90be
00000230: 1960 c4be b97a 68bc 5a45 a33e 212a 8cbe
00000240: 0fbf 13bf 9470 ef3e ddfc ed3e aacf 57bf
00000250: aa5e e93e a5c8 56bf f0c6 3fbf a75b 023f
00000260: f882 bbbe 75cc 5bbf 8c0e 953e be26 1f3f
00000270: 24e4 d53d b4c4 133f dbc9 ac3e f9c3 f9be
00000280: 0c9a 01be 762a a53e 0f6a b13e 0dc2 38bf
00000290: 88ed 95be 69a3 ee3e d8f1 19bf ca49 173f
000002a0: 2b1e b13e 7034 f5bd 1aa1 57bd 5a07 053e
000002b0: 14b8 e13c 09d7 eabe 169e 92bc 0a1b 04bf
000002c0: 163f dc3e 5ce2 223e e3ad ed3e f718 f0be
000002d0: 4921 07be b149 d33d 3aa5 12bf d53a 1bbf
000002e0: aeca 0abf 2bbe 8dbe 42de 113f d69f 3ebc
000002f0: 7a47 babe c96f 223f 886f 083f 15c8 6c3e
00000300: 2a8a 24bf 9392 9abd 6f47 9bbe aa4e 093f
00000310: 8400 c4be b654 0c3f d761 ed3d 3bd6 bb3e
00000320: eb8f d6be 4dc7 3abe df12 0dbf e701 c63e
00000330: 035b 94bc 42f9 66be e76a 0dbe 013b ef3e
00000340: 16db 063f 9fdf 6e3e d483 21bf 7e65 56bd
00000350: bb02 a5be b426 183f 406f 8a3e 92de 1bbf
00000360: 0b53 54be 5f49 b2be 2fe3 b3be cf0d bfbe
00000370: 931d babe e631 d6bd 4848 a53e 32e3 3bbe
00000380: 0b4a 0abf cefd dc3e 5fc1 e83e 53fe 54bf
00000390: 2375 ed3e ff9c 4ebf b191 4bbf 6ab6 f93e
000003a0: d742 e3be f789 63bf cd49 873e 2c9f 203f
000003b0: 7666 693d eb85 153f 5c66 ba3e 1a24 e4be
000003c0: 5ac9 13be d834 d53e ffe1 9f3e a4b6 39bf
000003d0: 5130 c8be a785 e23e d4b7 28bf 574b f33e
000003e0: 2cdd c13e 8352 00be 032f 0c3d c014 623e
000003f0: 0438 fc3c 74ea efbe f1a4 233d f013 e9be

fc2.bias f4 [4]
0.20176968 -0.18900391 -0.2125367 -0.17655157
00000000: b69c 4e3e 3e8a 41be 38a3 59be efc9 34be
