models/MCv1e_10000.pt (torch, 12664 bytes, 4 tensors)

fc1.weight f4 [80, 28]
0	0xbd3aedc0	-0.045636892
1	0xbce3242c	-0.027727209
2	0x3d04aea3	0.03239311
3	0xbd149c4b	-0.036281865
4	0xbd43c64e	-0.04779654
5	0x3cedde42	0.029036645
6	0x3ce0e978	0.027455077
7	0x3c55844e	0.013032032
8	0xbcc1b18a	-0.023644228
9	0x3d41c04d	0.047302533
10	0xbc2d43b5	-0.010575225
11	0x3cea4110	0.028595477
12	0xbcc7e254	-0.024399914
13	0x3d226d02	0.03965474
14	0x3ca3d295	0.019997874
15	0xbd015117	-0.031571474
16	0xbb674e27	-0.0035294385
17	0xbd439427	-0.04774871
18	0xbd1dd3b2	-0.038531967
19	0xbd404b66	-0.046946906
20	0x3d22407b	0.039612275
21	0xbd1e6237	-0.038667884
22	0x3ca906c2	0.020633105
23	0xbc24c2ec	-0.010056239
24	0xbcb30700	-0.021853924
25	0x3d59648c	0.053074405
26	0x3c10dfea	0.008842448
27	0x3d53796c	0.05162947
28	0xbd80419f	-0.06262516
29	0x3cbb7155	0.02288119
30	0x3d236d5a	0.039899208
31	0xbd224f07	-0.039626148
32	0xbcf73270	-0.030175418
33	0x3cc8f4ed	0.024530852
34	0xbc57d2cb	-0.013172816
35	0xbd3f9f43	-0.046782743
36	0xbd1b34c5	-0.03789212
37	0xbd11aec7	-0.03556707
38	0x3ce50198	0.027954862
39	0xbd149831	-0.036277954
40	0xbd0b0c76	-0.03394743
41	0x3d241c83	0.040066253
42	0x3cf625f5	0.030047396
43	0x3c1b65a1	0.009484679
44	0x3c5afd7b	0.0133660985
45	0xbc9f73b1	-0.019464346
46	0xbc6d42b6	-0.014481237
47	0x3cfcf4c1	0.030878427
48	0x3cf650d9	0.030067848
49	0x3b678224	0.0035325373
50	0x3bd5e8c9	0.0065279943
51	0x3cbcb78f	0.023036746
52	0x3a236f10	0.0006234506
53	0xbb225c4b	-0.002477425
54	0xbcdf33b5	-0.027246336
55	0x3d7dd8df	0.061974403
56	0xbb207263	-0.0024482242
57	0x3d0a565b	0.03377376
58	0xbd0bbef6	-0.03411766
59	0xbbbf8269	-0.0058444035
60	0x3be32fe7	0.0069332006
61	0x3cd01287	0.02539946
62	0xbb9d2691	-0.0047958572
63	0x3d1f9d1d	0.038968194
64	0xbd0557ba	-0.032554366
65	0x3d3ab13a	0.045579173
66	0x3d249c7c	0.040188298
67	0xbb5229e3	-0.0032068423
68	0x3c9557d0	0.018230349
69	0xbc7432f9	-0.014904731
70	0x3c344c5a	0.011004532
71	0x3a09105d	0.00052285736
72	0x3d35b260	0.044359565
73	0xbc5c6536	-0.013451865
74	0xbd04a4fc	-0.032383904
75	0x3cb920ff	0.022598742
76	0xbd107ddc	-0.03527628
77	0xbc9f801a	-0.019470263
78	0x3cca5841	0.024700286
79	0xbc4dbcd7	-0.01255723
80	0xbb68bde7	-0.0035513581
81	0x3c7d2b28	0.015452184
82	0x3d66e941	0.056374792
83	0x3d7c10f4	0.061539605
84	0xbc9e52d7	-0.01932661
85	0xbce80448	-0.028322354
86	0x3d15c4e6	0.03656473
87	0x3c9e9e61	0.01936263
88	0xbd3b579d	-0.04573785
89	0xbd40718c	-0.046983287
90	0xbd2c6072	-0.042084165
91	0xbd3e6407	-0.046482112
92	0x3d3ed5b7	0.046590533
93	0xbd386a4f	-0.04502326
94	0xbd1d4a00	-0.03840065
95	0x3b55847b	0.0032580185
96	0xbd217545	-0.039418478
97	0x3ba53bc3	0.0050425245
98	0x3a859b70	0.0010193419
99	0xbcd6bf16	-0.026214164
100	0xbcd911ba	-0.02649771
101	0xbcaff109	-0.02147724
102	0xbd0f1cb5	-0.034939487
103	0xbd3baf43	-0.04582144
104	0x3d4bb9a0	0.049737573
105	0xbc831283	-0.016000038
106	0x3cd5d61d	0.026103074
107	0xbd0636b5	-0.032767016
108	0x3d4eb07a	0.05046127
109	0x3d158ac0	0.036509275
110	0x3c1f3556	0.009717306
111	0x3d65a9bf	0.056070086
112	0xbd1883d9	-0.037235115
113	0xbd215204	-0.039384857
114	0x3cce033a	0.025148023
115	0x3ce3100b	0.02771761
116	0xbc74a63c	-0.0149322115
117	0xbd4a5a3c	-0.04940246
118	0x3d2d6cef	0.042340215
119	0x3d0c57cf	0.03426343
120	0x3c63ab88	0.013895877
121	0x3d3b7d01	0.04577351
122	0xbc9dc2c4	-0.01925791
123	0x3d231220	0.039812207
124	0xbd4cd8d3	-0.050011467
125	0x3c00a2e4	0.007851336
126	0x3cbfcdbe	0.023413535
127	0x3c91053e	0.017702695
128	0x3d4ee3be	0.05051016
129	0xbd313faf	-0.043273624
130	0xbc8a2804	-0.016864784
131	0xbc2ebfe1	-0.010665865
132	0x3cadd8df	0.021221576
133	0xbc121f87	-0.0089186495
134	0xbbc189f5	-0.0059063383
135	0x3d34765f	0.0440582
136	0x3caf0824	0.021366186
137	0x3d4e9a93	0.050440382
138	0x3d36de5d	0.044645656
139	0x3d2b5a2f	0.041834053
140	0xbd85c257	-0.06531208
141	0xbc4bf32c	-0.012448113
142	0x3c550238	0.013001017
143	0x3c9deb23	0.019277161
144	0xbc889644	-0.016673215
145	0x3c23d505	0.009999518
146	0xbd250dcc	-0.04029636
147	0xbd246237	-0.040132727
148	0xbcb6461c	-0.022250228
149	0x3be901eb	0.0071108243
150	0x3bd2898d	0.0064250887
151	0xbc02ac4e	-0.007975651
152	0x3d1ea581	0.038732056
153	0xbd282b0e	-0.041056685
154	0xbd489f7e	-0.04898023
155	0x3d07160f	0.03298002
156	0x3d233069	0.03984109
157	0x3c18a0a7	0.009315646
158	0x3b04e610	0.002027873
159	0x3b9709a3	0.004609303
160	0xbd0a4d9f	-0.03376543
161	0x3cf385e2	0.029726926
162	0x3d4f90c5	0.050675172
163	0x3bb86f74	0.0056285206
164	0xbb525042	-0.0032091294
165	0x3d27f292	0.041002817
166	0x3d4ca201	0.049959186
167	0x3d695f35	0.056975562
168	0x3ce1fe99	0.027587222
169	0x3c9b71c8	0.018975154
170	0x3d1c2382	0.0381198
171	0x3d109f4c	0.035308167
172	0x3c46a643	0.012124601
173	0xbbde37ad	-0.0067815394
174	0x3c9a456f	0.018831937
175	0x3cb74be3	0.022375053
176	0x3d1bf0fa	0.03807161
177	0xbce56072	-0.02800009
178	0x3d07df4c	0.033171937
179	0xbc0ad4d3	-0.008473593
180	0xbd0fa1f1	-0.03506655
181	0xbce13057	-0.02748887
182	0xbcbf289d	-0.023334796
183	0xbc70e6ac	-0.014703434
184	0x3cdf8556	0.02728526
185	0x3b656822	0.0035004695
186	0x3b528057	0.0032119954
187	0xbcda7a0e	-0.026669528
188	0xbc6c20a4	-0.014412079
189	0xbc8793e6	-0.016550016
190	0x3d32238d	0.043490935
191	0x3cf7cc00	0.030248642
192	0x3b0a746d	0.0021126524
193	0x3d91a6d5	0.07111899
194	0xbb432fca	-0.0029783123
195	0x3d043f4f	0.03228694
196	0xbb1cb4ef	-0.0023911556
197	0xbc951294	-0.018197335
198	0x3d173842	0.036918886
199	0xbcfa325a	-0.030541588
200	0xbd21ed7b	-0.03953312
201	0x3c89c203	0.016816145
202	0x3d39645c	0.045261726
203	0xbbf38646	-0.007431778
204	0x3c3cb737	0.011518291
205	0x3cf807c2	0.030277137
206	0x3d0a9d82	0.033841617
207	0x3d2120c1	0.039337877
208	0x3764364d	1.3602502e-05
209	0xbd43c5cb	-0.047796052
210	0xbc32c99f	-0.010912328
211	0xbd0336e1	-0.03203476
212	0x3c2269e0	0.009912938
213	0xbcb9b7f0	-0.022670716
214	0x3c166c98	0.009181164
215	0xbc95403c	-0.018219106
216	0x3cadf3cd	0.021234417
217	0xbd235f71	-0.039885942
218	0xbd0153f7	-0.031574216
219	0xbb89f2ee	-0.0042098677
220	0x3d739b32	0.059474178
221	0xbcee0c0c	-0.029058479
222	0xbc559944	-0.01303703
223	0xbc2b3714	-0.010450143
224	0xbcd4a85e	-0.02595919
225	0x3c86ff1b	0.016479066
226	0x3b83819c	0.0040132534
227	0xbb0cb0a0	-0.0021467581
228	0x3cce3d92	0.025175843
229	0x3ce040e7	0.027374698
230	0x3cebeead	0.028800333
231	0xbd2a8db8	-0.04163906
232	0xbd19c803	-0.03754426
233	0x3d4643e8	0.048404604
234	0x3c90dfa7	0.01768477
235	0x3afdd31d	0.0019365285
236	0xbd592cb3	-0.053021144
237	0xbd13e83a	-0.03611014
238	0x3ceae75b	0.028674772
239	0x3d0b2142	0.033967264
240	0xbc9ca2ea	-0.019120652
241	0xbce59bf6	-0.02802847
242	0x3ca79aea	0.020459611
243	0x3cbbe71e	0.022937354
244	0x3c913bc7	0.0177287
245	0x3d15d124	0.036576405
246	0x3d19af17	0.037520494
247	0xb962c44f	-0.0002162617
248	0x3c90b618	0.017664954
249	0x3d603118	0.05473432
250	0x3be8e1da	0.0071070017
251	0xbca64df7	-0.020300848
252	0xbd8aa762	-0.06770207
253	0xbd166f96	-0.03672751
254	0xbb575d6f	-0.0032862087
255	0x3d071a1a	0.032983877

fc1.bias f4 [80]
0	0x3d408a73	0.047007035
1	0x3d3df495	0.04637583
2	0x3bc10833	0.00589087
3	0x3c41cf44	0.011829201
4	0x3d467561	0.048451785
5	0x3dcdc28a	0.10046871
6	0x3cb66320	0.022264063
7	0x39b9b81e	0.00035423128
8	0x3d9aeb16	0.0756437
9	0x3d4cd068	0.05000344
10	0x3d3e3b3d	0.046443213
11	0x3d8ea5ed	0.069652416
12	0x3d232957	0.039834347
13	0x3d586c63	0.05283774
14	0x3cad9805	0.021190653
15	0x3d8960e5	0.06707934
16	0x3d786871	0.060646478
17	0x3d72454d	0.05914812
18	0x3d30a526	0.043126248
19	0x3d9599e8	0.07304746
20	0x3ca23aa8	0.01980336
21	0x3cbf8841	0.0233804
22	0x3d2c3e32	0.0420515
23	0x3cc33df0	0.023833245
24	0x3d98ea25	0.074665345
25	0x3cbcc280	0.023041964
26	0x3d852d44	0.06502774
27	0x3d91d834	0.071213156
28	0x3c9f2615	0.019427339
29	0x3d13cff6	0.036087
30	0x3ce99805	0.028514871
31	0x3c2fe7e8	0.010736443
32	0x3c892bf1	0.016744586
33	0x3d8a2752	0.06745781
34	0x3b2c5179	0.0026293679
35	0x3dcd574e	0.10026418
36	0x3d9a8218	0.07544345
37	0x3d99c672	0.075085536
38	0x3ddd1352	0.10794701
39	0x3d73c050	0.059509575
40	0x3d541de5	0.051786322
41	0x3d2dfe33	0.04247875
42	0x3c58d4c3	0.01323432
43	0x3dc8b38c	0.09799871
44	0x3c97bf71	0.018523904
45	0x3bcc3a54	0.006232539
46	0x3c12509c	0.008930352
47	0x3d536025	0.051605362
48	0x3d484a40	0.048898935
49	0x3d0d7d50	0.034543335
50	0x3d26b09a	0.040695764
51	0x3d0a56a0	0.03377402
52	0x3d9be602	0.0761223
53	0x3da17b3e	0.07884835
54	0x3acde6c9	0.0015709038
55	0x3d8e4504	0.069467574
56	0x3c2cdff7	0.010551444
57	0x3d035a07	0.03206828
58	0x3d86273b	0.06550451
59	0xb9b7cdb9	-0.00035057755
60	0x3d92cef3	0.07168379
61	0x3d9f79a3	0.07786872
62	0x3db3a806	0.08772282
63	0x3dbcd9d2	0.092212334
64	0x3c95cdd4	0.018286623
65	0x3c157762	0.009122701
66	0x3ce17ed7	0.027526302
67	0x3c815c34	0.015791036
68	0x3ccf7f8b	0.025329372
69	0x3c85c9e1	0.016331615
70	0x3d233ede	0.039854877
71	0x3d90b31d	0.07065413
72	0x3dad2802	0.084548965
73	0x3c1b5608	0.009480961
74	0x3d751bff	0.059841152
75	0x3d6408c1	0.05567241
76	0x3c54d922	0.012991222
77	0x3c8303bd	0.015992993
78	0x3d0dccb5	0.034619052
79	0x3dadb996	0.08482663

fc2.weight f4 [4, 80]
0	0x3e816fcc	0.25280607
1	0x3e58839c	0.21143955
2	0x3e7a36fe	0.2443504
3	0x3e547b69	0.20750202
4	0x3e56c90c	0.20975131
5	0x3e656103	0.22400288
6	0x3e7b097d	0.24515338
7	0x3e2fcf20	0.17168856
8	0x3e789c41	0.24278356
9	0x3e537bf0	0.20652747
10	0x3e6fcb12	0.23417309
11	0x3e6f038b	0.23341195
12	0x3e873713	0.26409206
13	0x3e32d689	0.17464651
14	0x3e412882	0.18863109
15	0x3e83a1e1	0.2570944
16	0x3e67c183	0.22632413
17	0x3e47b172	0.19501284
18	0x3e3ede83	0.18639569
19	0x3e553d66	0.20824203
20	0x3e85e1e9	0.26148918
21	0x3e75da6b	0.24009101
22	0x3e80af35	0.25133672
23	0x3e88db21	0.26729682
24	0x3e3a8a17	0.1821674
25	0x3e3f035e	0.18653628
26	0x3e6aa383	0.22913937
27	0x3e2fcbe3	0.1716762
28	0x3e5c2b59	0.21500911
29	0x3e3949b0	0.18094516
30	0x3e30b427	0.17256223
31	0x3e482678	0.19545925
32	0x3e730abe	0.23734567
33	0x3e64ba77	0.22336756
34	0x3e4d8b82	0.2007275
35	0x3e899793	0.26873454
36	0x3e7a0774	0.24416906
37	0x3e3e1d9a	0.1856598
38	0x3e804085	0.25049224
39	0x3e54c40b	0.2077791
40	0x3e3fdee8	0.18737376
41	0x3e4ba035	0.19885333
42	0x3e5aa556	0.21352133
43	0x3e66f946	0.22556028
44	0x3e71b682	0.23604777
45	0x3e81eb12	0.25374657
46	0x3e52e59a	0.20595399
47	0x3e4a5643	0.19759469
48	0x3e888778	0.26665854
49	0x3e87963c	0.26481807
50	0x3e68abf7	0.2272185
51	0x3e4b9bcb	0.19883649
52	0x3e6cfede	0.23144099
53	0x3e5262cc	0.205455
54	0x3e733255	0.23749669
55	0x3e833ddf	0.2563314
56	0x3e3145cb	0.1731178
57	0x3e493a89	0.19651236
58	0x3e2f9ffc	0.17150873
59	0x3e82aee9	0.2552407
60	0x3e8291d3	0.2550188
61	0x3e776e24	0.24163109
62	0x3e4be6a6	0.19912204
63	0x3e8c6aee	0.2742533
64	0x3e628e4c	0.22124594
65	0x3e32a34a	0.17445102
66	0x3e898597	0.26859733
67	0x3e3746b8	0.17898071
68	0x3e85c325	0.26125446
69	0x3e74ccbf	0.2390623
70	0x3e453c1e	0.19261214
71	0x3e7bd66b	0.24593513
72	0x3e905014	0.28186095
73	0x3e7a2730	0.24429011
74	0x3e8248aa	0.25446063
75	0x3e67250f	0.2257273
76	0x3e7a3afb	0.24436562
77	0x3e6b26c9	0.22964014
78	0x3e47d367	0.19514237
79	0x3e8e8620	0.27836704
80	0x3e84eb1f	0.25960633
81	0x3e4dcbd0	0.2009728
82	0x3e5ddedb	0.21667044
83	0x3e4fe065	0.20300443
84	0x3e71520d	0.23566456
85	0x3e535da7	0.20641194
86	0x3e723ded	0.23656435
87	0x3e748439	0.23878564
88	0x3e5577ad	0.20846434
89	0x3e78b905	0.2428933
90	0x3e8d0230	0.2754073
91	0x3e6fce0a	0.23418441
92	0x3e467178	0.19379222
93	0x3e730c92	0.23735264
94	0x3e827d5a	0.2548626
95	0x3e8ba1a8	0.2727177
96	0x3e45e554	0.19325763
97	0x3e8a0ff8	0.26965308
98	0x3e86e8ba	0.2634943
99	0x3e894d88	0.26816964
100	0x3e3fef1c	0.18743557
101	0x3e51a960	0.20474768
102	0x3e5a92e5	0.21345098
103	0x3e805c51	0.25070432
104	0x3e71f2bb	0.2362775
105	0x3e57d7ab	0.21078365
106	0x3e517c2e	0.20457527
107	0x3e4efaf1	0.20212914
108	0x3e7e31a3	0.24823622
109	0x3e7a49cc	0.24442214
110	0x3e46dee2	0.1942096
111	0x3e35099c	0.17679447
112	0x3e4891d3	0.19586878
113	0x3e3ecad1	0.18632056
114	0x3e622e38	0.22087944
115	0x3e6b3346	0.22968778
116	0x3e7a19bc	0.2442388
117	0x3e3c0b3a	0.18363658
118	0x3e892440	0.2678547
119	0x3e45d12d	0.19318075
120	0x3e418c27	0.1890112
121	0x3e690ecb	0.2275955
122	0x3e80657e	0.25077432
123	0x3e6ce585	0.2313443
124	0x3e5351f5	0.20636733
125	0x3e68999f	0.22714852
126	0x3e543a6f	0.20725416
127	0x3e907f51	0.28222135
128	0x3e77d621	0.24202777
129	0x3e8cf24e	0.27528614
130	0x3e52af33	0.20574646
131	0x3e9312e6	0.28725356
132	0x3e460015	0.19335969
133	0x3e7d82b8	0.24756896
134	0x3e37f478	0.17964351
135	0x3e831f1f	0.2560968
136	0x3e7bf26d	0.24604197
137	0x3e68c278	0.22730434
138	0x3e8936c6	0.267996
139	0x3e43d73e	0.19125077
140	0x3e781dbd	0.24230094
141	0x3e468caa	0.19389597
142	0x3e522841	0.20523168
143	0x3e7dd7fe	0.24789426
144	0x3e81d852	0.25360352
145	0x3e5d196e	0.21591732
146	0x3e6168ec	0.22012681
147	0x3e37b5e0	0.17940474
148	0x3e71ff45	0.23632534
149	0x3e4b8ab0	0.19877124
150	0x3e8bff0e	0.2734303
151	0x3e50f3c0	0.20405483
152	0x3e79d92d	0.24399252
153	0x3e582f72	0.21111849
154	0x3e907f99	0.2822235
155	0x3e84d62b	0.25944647
156	0x3e907e6b	0.2822145
157	0x3e84f908	0.25971246
158	0x3e7420bf	0.23840617
159	0x3e8aa2ac	0.27077234
160	0x3e7191a7	0.23590718
161	0x3e4c2d5a	0.19939175
162	0x3e529f7e	0.20568654
163	0x3e56444a	0.20924488
164	0x3e663f2d	0.22485037
165	0x3e86665c	0.2624997
166	0x3e70e20b	0.23523729
167	0x3e2ef308	0.17084897
168	0x3e51ff15	0.20507462
169	0x3e8e5b75	0.2780415
170	0x3e681d93	0.22667532
171	0x3e5ef50e	0.21773168
172	0x3e3ee0b7	0.1864041
173	0x3e633d7d	0.22191425
174	0x3e40cc41	0.18827917
175	0x3e835d6b	0.2565721
176	0x3e88fd34	0.2675568
177	0x3e847de9	0.25877312
178	0x3e8cff6f	0.2753863
179	0x3e57379f	0.21017312
180	0x3e418c95	0.18901284
181	0x3e72b7da	0.23702946
182	0x3e62969b	0.22127764
183	0x3e88f880	0.2675209
184	0x3e81778f	0.25286528
185	0x3e88af92	0.2669645
186	0x3e3ff6c9	0.18746485
187	0x3e526672	0.20546892
188	0x3e8230aa	0.25427753
189	0x3e42787d	0.18991275
190	0x3e4f4b64	0.20243603
191	0x3e3c5776	0.18392739
192	0x3e81ddc0	0.25364494
193	0x3e87ed20	0.265481
194	0x3e8bcc26	0.2730419
195	0x3e911b3d	0.28341094
196	0x3e857de8	0.2607262
197	0x3e52a40d	0.20570393
198	0x3e918666	0.2842285
199	0x3e4afa97	0.19822155
200	0x3e3f6dfa	0.18694296
201	0x3e8b48b2	0.272039
202	0x3e3995f5	0.1812361
203	0x3e877398	0.2645538
204	0x3e405d92	0.18785694
205	0x3e54d1d9	0.20783176
206	0x3e6918a4	0.22763306
207	0x3e85d421	0.26138404
208	0x3e70e587	0.23525058
209	0x3e6d9f71	0.23205353
210	0x3e53bf40	0.20678425
211	0x3e4339e6	0.19065055
212	0x3e875a3e	0.26436037
213	0x3e5d0b55	0.21586354
214	0x3e75f94a	0.24020877
215	0x3e719eb7	0.23595701
216	0x3e40e6b3	0.18838005
217	0x3e7e6cd3	0.248462
218	0x3e3e7f6f	0.186033
219	0x3e38a7ea	0.18032804
220	0x3e8693e0	0.26284695
221	0x3e7d3549	0.24727358
222	0x3e7ae916	0.24502978
223	0x3e57edd2	0.21086815
224	0x3e7f8592	0.24953297
225	0x3e859d23	0.26096448
226	0x3e805a68	0.25068974
227	0x3e44bd44	0.19212824
228	0x3e5fa33a	0.2183961
229	0x3e5644a6	0.20924625
230	0x3e47e7da	0.19522038
231	0x3e4caf0d	0.19988652
232	0x3e80d1ff	0.25160214
233	0x3e3c96bf	0.1841688
234	0x3e51854d	0.20461006
235	0x3e5e11fb	0.21686547
236	0x3e832a89	0.2561839
237	0x3e5bed0c	0.21477145
238	0x3e3475ff	0.17623137
239	0x3e834ec7	0.2564604
240	0x3e3de344	0.18543726
241	0x3e73868e	0.23781797
242	0x3e39b3d8	0.18135011
243	0x3e435886	0.19076738
244	0x3e8929fd	0.26789847
245	0x3e933df0	0.28758192
246	0x3e740f1f	0.23833893
247	0x3e3d7ab8	0.18503845
248	0x3e8691c7	0.26283094
249	0x3e7b5ed8	0.24547899
250	0x3e46ff9e	0.19433448
251	0x3e7e6524	0.2484327
252	0x3e66ef55	0.22552235
253	0x3e867a2e	0.2626509
254	0x3e6c7c8e	0.23094389
255	0x3e869eb2	0.2629295

fc2.bias f4 [4]
0	0x3ee38699	0.44438627
1	0x3ed6080c	0.41803014
2	0x3ed51f50	0.41625452
3	0x3eea7f5c	0.45800292
