models/TDLv1e_35000.pt (torch, 12672 bytes, 4 tensors)

fc1.weight f4 [80, 28]
0.002688948 0.015626978 0.04978032 -0.025663836 0.018637862 0.05413152 0.01020137 0.03205421
-0.037672102 -0.022694852 -0.03829725 -0.0057392726 0.0013514939 -0.004494922 0.038165096 -0.0067432267
0.006560602 0.030958384 -0.03470215 -0.013024197 -0.065797746 -0.050257586 -0.006776213 -0.090100005
-0.5786306 0.5959037 -0.5911533 0.563656 0.022700842 0.059021555 0.051265787 0.020439802
0.01660147 -0.04199343 0.019857654 -0.021519782 -0.004287271 -0.0072961315 0.0058255806 0.045447495
-0.006894393 -0.016094984 0.046788104 0.031995006 -0.02714123 -0.02698809 -0.04081954 0.024381874
0.03158702 -0.04797651 0.025152676 -0.017861363 -0.28451556 0.3066914 -0.28130755 0.31317252
-0.0930635 -0.04803482 -0.06911723 -0.028844727 0.00537437 -0.0018890915 -0.03414446 -0.029313138
-0.011339065 0.02870279 -0.009217521 0.038695168 -0.0019776344 0.019216273 -0.010543452 0.00883667
-0.034856465 0.0067212656 -0.010553299 0.038483128 0.018555503 0.043525238 0.090448655 0.00774098
0.6755317 -0.63164294 0.65690285 -0.68644464 -0.11849551 -0.06424885 -0.09432337 -0.0020007426
-0.033559386 -0.01842015 -0.04364705 0.01841707 0.0042640143 0.014766075 -0.0055594947 0.029984191
-0.01695932 -0.008553547 -0.035655662 0.044011746 -0.034083426 0.046897702 0.0026370836 0.060303137
0.026205854 0.027730526 0.11047243 0.047755543 0.8979034 -0.8611877 0.84716374 -0.8593621
0.075156525 0.08105866 0.0067894277 0.03881446 0.04891258 -0.010223095 0.009335621 0.007452894
0.031746995 0.032724716 0.038165916 -0.040485255 0.04541097 -0.006362731 0.0024896464 -0.029238109
-0.04668347 -0.026848454 -0.052847862 -0.06406889 -0.038485944 -0.0100290105 -0.008172528 -0.06559934
-0.65068525 0.67742205 -0.7011699 0.66125894 0.017887978 0.0077446243 -0.009144156 0.037536122
0.0031562634 0.03552378 0.041009046 -0.046987966 0.03648892 -0.0031818426 -0.019178644 0.047109563
0.033857737 -0.037101958 0.011372956 0.010223559 -0.013074728 0.0019166376 -0.020743975 -0.0057083583
-0.049390543 -0.0051255887 -0.0016079965 -0.03400593 -0.6481622 0.66611534 -0.6646269 0.6271569
0.093829185 3.558757e-05 0.011688855 -0.008596058 0.008238581 -0.0046423133 -0.0107326 0.010100237
0.04696323 -0.0026113722 -0.024023779 0.026977126 -0.025941927 -0.0010983214 0.022050785 -0.03403724
0.023668904 0.010897699 0.024749465 -0.054312717 -0.07096805 -0.00015690783 -0.097114354 -0.026771449
-0.7433814 0.7210234 -0.6748841 0.67712635 0.07025348 0.08682041 0.053665534 0.020436632
0.049687494 0.037665274 0.010447849 -0.028423388 0.023922712 -0.041941512 0.020506328 -0.02682977
0.017707497 0.04937833 -0.03359812 -8.9641915e-05 0.033367075 0.0023723028 0.029247753 -0.040918116
-0.015806679 0.0073621823 -0.014641586 -0.012309989 -0.67013514 0.6688903 -0.61904097 0.6018613
0.05069697 0.025442978 -0.01762657 0.046163622 0.061204486 0.038731016 0.041106958 0.046991892
0.012130014 -0.015873631 0.012601439 0.004522306 0.04640757 0.030280836 0.025372963 -0.04087262
-0.0004920784 -0.023873327 0.009757749 -0.060933672 -0.018449895 -0.06973841 -0.057377994 -0.005868158
-0.5153029 0.54035336 -0.5796178 0.5466928 0.023101628 -0.027631504 0.022791855 0.015533575
00000000: 1039 303b 2604 803c 73e6 4b3d f73c d2bc
00000010: 6eae 983c 03b9 5d3d a623 273c 464b 033d
00000020: 104e 1abd 8eea b9bc 94dd 1cbd 8210 bcbb
00000030: 9c24 b13a 234a 93bb 0153 1c3d 49f6 dcbb
00000040: 52fa d63b 709c fd3c d723 0ebd 7163 55bc
00000050: f8c0 86bd e6da 4dbd ff0a debb 5a86 b8bd
00000060: 2321 14bf 258d 183f d355 17bf c24b 103f
00000070: 1ef7 b93c 96c0 713d 13fc 513d 5f71 a73c
00000080: ceff 873c 4e01 2cbd 85ac a23c 414a b0bc
00000090: 3c7c 8cbb 6314 efbb 83e4 be3b 2727 3a3d
000000a0: 5cea e1bb a1d9 83bc e2a4 3f3d 320d 033d
000000b0: 4957 debc 2016 ddbc 6432 27bd 7fbc c73c
000000c0: 6461 013d 0483 44bd fc0c ce3c fe51 92bc
000000d0: 06ac 91be a806 9d3e 8b07 90be 2658 a03e
000000e0: 1498 bebd 29c0 44bd 568d 8dbd c74b ecbc
000000f0: 7c1b b03b 649b f7ba 10db 0bbd 1b22 f0bc
00000100: 7cc7 39bc 1d22 eb3c 1605 17bc d37e 1e3d
00000110: 339b 01bb 726b 9d3c 71be 2cbc aec7 103c
00000120: a7c5 0ebd 103e dc3b bfe7 2cbc 7ca0 1d3d
00000130: b601 983c 8547 323d 253d b93d 0ca8 fd3b
00000140: a5ef 2c3f 5ab3 21bf c92a 283f d6ba 2fbf
00000150: c6ad f2bd e794 83bd 9c2c c1bd e41e 03bb
00000160: 9175 09bd dbe5 96bc 40c7 32bd 65df 963c
00000170: 25b9 8b3b 68ed 713c 6c2c b6bb 68a1 f53c
00000180: 46ee 8abc 2d24 0cbc ac0b 12bd a945 343d
00000190: 109b 0bbd ce17 403d ecd2 2c3b 6c00 773d
000001a0: a9ad d63c 212b e33c 5f3f e23d 519b 433d
000001b0: ffdc 653f cc76 5cbf b9df 583f 28ff 5bbf
000001c0: aaeb 993d 1502 a63d d979 de3b e9fb 1e3d
000001d0: 8f58 483d c57e 27bc 6ff4 183c 6837 f43b
000001e0: 2309 023d 5a0a 063d dd53 1c3d ded3 25bd
000001f0: da00 3a3d 757e d0bb 5629 233b c284 efbc
00000200: 2b37 3fbd 4af1 dbbc 0077 58bd 8d36 83bd
00000210: 70a3 1dbd b850 24bc 11e6 05bc f258 86bd
00000220: 4f93 26bf 886b 2d3f df7f 33bf 4448 293f
00000230: cf89 923c 9ec6 fd3b 5fd1 15bc 7abf 193d
00000240: 50d9 4e3b 6281 113d 1af9 273d 7476 40bd
00000250: 6875 153d 7686 50bb 881c 9dbc f5f5 403d
00000260: 69ae 0a3d 39f8 17bd a355 3a3c b780 273c
00000270: 6237 56bc b037 fb3a 45ef a9bc 2e0d bbbb
00000280: bd4d 4abd 8ef4 a7bb 69c3 d2ba cd49 0bbd
00000290: f5ed 25bf 8986 2a3f fd24 2abf 5b8d 203f
000002a0: 8429 c03d dd43 1538 9c82 3f3c 7bd6 0cbc
000002b0: 1dfb 063c 8c1e 98bb cad7 2fbc 777b 253c
000002c0: 845c 403d 8e23 2bbb 84cd c4bc 22ff dc3c
000002d0: 2a84 d4bc 8df5 8fba d9a3 b43c a26a 0bbd
000002e0: 4ae5 c13c 438c 323c 64bf ca3c 0377 5ebd
000002f0: b257 91bd a087 24b9 e4e3 c6bd cc4f dbbc
00000300: 3e4e 3ebf fd94 383f 34c5 2cbf 2758 2d3f
00000310: 0ee1 8f3d e6ce b13d 64d0 5b3d b96a a73c
00000320: 1d85 4b3d e746 1a3d 742d 2b3c 2ad8 e8bc
00000330: 90f9 c33c ddca 2bbd e3fc a73c 1bca dbbc
00000340: 500f 913c ef40 4a3d 2f9e 09bd 23fe bbb8
00000350: eaab 083d a378 1b3b fc98 ef3c c199 27bd
00000360: 027d 81bc 763e f13b 43e3 6fbc d6af 49bc
00000370: fa8d 2bbf 653c 2b3f 7879 1ebf 9513 1a3f
00000380: a0a7 4f3d cb6d d03c 9965 90bc 1116 3d3d
00000390: 8eb1 7a3d 6aa4 1e3d c55f 283d 927a 403d
000003a0: f7bc 463c 6b09 82bc 4476 4e3c da2f 943b
000003b0: dd15 3e3d 840f f83c f6da cf3c 0c6a 27bd
000003c0: d3fe 00ba ff91 c3bc f7de 1f3c 9695 79bd
000003d0: 3c24 97bc 03d3 8ebd 3005 6bbd ad49 c0bb
000003e0: e4ea 03bf 9954 0a3f d561 14bf 0ff4 0b3f
000003f0: a03f bd3c 775b e2bc fcb5 ba3c 8980 7e3c

fc1.bias f4 [80]
-0.14447954 -0.0120543055 0.21267864 0.3701316 -0.2302169 -0.1879542 -0.22442788 -0.16274193
-0.111776136 -0.06800365 -0.2125718 -0.17830844 0.06823904 0.45694274 -0.27701542 -0.037093673
-0.12150079 0.02725953 -0.1904138 0.0383489 0.21889019 0.32674587 -0.17241031 0.19911306
-0.111545734 0.09835689 -0.018299352 -0.00048578304 0.073018625 0.15567026 -0.09409435 0.37385783
-0.08901107 -0.07179569 -0.1707457 -0.00661843 -0.07987737 0.23359978 -0.19927348 -0.079828136
0.34680486 0.3824636 0.074816205 -0.18028416 0.23274153 -0.09595159 -0.2611653 0.055666666
-0.26827306 0.063215986 -0.25226521 0.25191313 0.3691385 -0.007929403 0.09364738 -0.28764352
-0.20700862 -0.16324504 0.19548063 -0.19004855 0.1556065 0.059808288 0.30216938 -0.1890167
-0.0029618337 0.02578276 0.32994452 -0.22054978 0.13123421 0.46415257 0.26177758 0.30547705
0.19086073 -0.2864535 0.061313964 -0.16688824 -0.14451423 0.06874389 0.106913865 0.123576045
00000000: 72f2 13be 6c7f 45bc 6ec8 593e e481 bd3e
00000010: fbbd 6bbe 1177 40be 6cd0 65be d2a5 26be
00000020: e3ea e4bd 7f45 8bbd 6cac 59be 7d96 36be
00000030: e9c0 8b3d 66f4 e93e f7d4 8dbe 89ef 17bd
00000040: 68d5 f8bd 614f df3c d6fb 42be bc13 1d3d
00000050: c024 603e 3c4b a73e 548c 30be 4be4 4b3e
00000060: 1772 e4bd 566f c93d 86e8 95bc b2b0 feb9
00000070: ca8a 953d 0668 1f3e 8ab4 c0bd 4b6a bf3e
00000080: 704b b6bd 9e09 93bd f6d7 2ebe 6adf d8bb
00000090: bf96 a3bd c834 6f3e 590e 4cbe ef7c a3bd
000000a0: 6890 b13e 45d2 c33e 3d39 993d 699c 38be
000000b0: cc53 6e3e 4482 c4bd 75b7 85be bb02 643d
000000c0: 165b 89be 6277 813d e828 81be c2fa 803e
000000d0: b9ff bc3e 54ea 01bc 33ca bf3d 0346 93be
000000e0: 11fa 53be b529 27be 132c 483e 169c 42be
000000f0: 4f57 1f3e 89f9 743d f2b5 9a3e 988d 41be
00000100: 531b 42bb 5e36 d33c 7dee a83e cdd7 61be
00000110: 4362 063e 68a5 ed3e b607 863e 7d67 9c3e
00000120: ff70 433e 08aa 92be 5a24 7b3d c0e4 2abe
00000130: 8afb 13be 99c9 8c3d a8f5 da3d 7015 fd3d

fc2.weight f4 [4, 80]
0.58014 0.23333295 -0.7526799 -1.0331117 0.6521726 0.6567084 0.7048174 0.6192843
0.52660996 0.1394114 0.56606835 0.5411481 -0.4058105 -1.202243 0.7172937 0.15964828
0.39503813 -0.13124378 0.6888352 -0.41745213 -0.8351705 -0.90817785 0.61445045 -0.8158327
0.25643972 -0.4090925 -0.17239553 0.1494207 -0.4737437 -0.602345 0.29287252 -1.0707384
0.42950875 0.33691183 0.56609404 0.085668914 0.18956055 -0.7582023 0.68715435 0.40951696
-1.043336 -1.0795394 -0.29930648 0.65985906 -0.7985086 0.42865315 0.7138491 -0.3457373
0.8193448 -0.26870152 0.7264563 -0.8537046 -0.99567074 -0.1721328 -0.5240028 0.73997283
0.6439759 0.4797043 -0.6534096 0.6277223 -0.6567905 -0.49746627 -0.9626085 0.70157295
0.18557945 -0.01011651 -1.0247496 0.5249561 -0.6049974 -1.2066715 -0.8957245 -0.87517095
-0.7766544 0.7684352 -0.41435736 0.49495745 0.42673662 -0.18309644 -0.4716916 -0.5908015
0.5710405 0.2561921 -0.75926125 -1.0491186 0.66212904 0.6014267 0.6558638 0.59508234
0.50612456 0.07355423 0.631883 0.49130422 -0.41690364 -1.2146196 0.76301455 0.15627901
0.4080912 -0.1228833 0.68210715 -0.44473338 -0.81161076 -0.9723347 0.61793447 -0.8107217
0.30204585 -0.4413105 -0.23020133 0.14131656 -0.47729722 -0.5591479 0.29991946 -1.0708926
0.4534015 0.36859533 0.5412668 0.079540476 0.26237762 -0.75883156 0.6673217 0.44548059
-1.099362 -1.0845597 -0.30153114 0.6679766 -0.794242 0.37470233 0.74868923 -0.3052608
0.8228363 -0.23646264 0.633303 -0.77994597 -0.9980482 -0.14107561 -0.5764063 0.7277232
0.6671281 0.51978517 -0.6850667 0.63682806 -0.7050794 -0.42994258 -0.8866261 0.65260786
0.12932329 0.0572595 -0.97735333 0.6248996 -0.607392 -1.1893842 -0.9144913 -0.94054013
-0.73076487 0.747973 -0.44004 0.51673955 0.37036607 -0.17533232 -0.48184988 -0.5826208
0.5290095 0.23849161 -0.80186474 -1.0167135 0.62993217 0.6396093 0.71120304 0.6261201
0.49696606 0.15064208 0.56712556 0.5082521 -0.47878218 -1.1797621 0.68776363 0.21549526
0.40779662 -0.10850392 0.7106733 -0.34314728 -0.80942845 -0.9666104 0.5732727 -0.77817357
0.3280003 -0.41007444 -0.2421488 0.21689932 -0.5168829 -0.58948934 0.2743314 -1.0996723
0.38232556 0.34101078 0.5060866 0.15990725 0.24936205 -0.7427135 0.6686817 0.420087
-1.1027563 -1.037747 -0.25225225 0.6678086 -0.75862616 0.40279514 0.7373782 -0.3590811
0.84337926 -0.26084667 0.6948156 -0.7932557 -1.0304608 -0.12649699 -0.58085907 0.7240452
0.6855546 0.41463497 -0.71136874 0.6329325 -0.7042891 -0.42999247 -0.96805257 0.62717015
0.12405696 0.014050488 -0.99988 0.5754734 -0.60268795 -1.1893213 -0.92876965 -0.90634125
-0.7529947 0.7825472 -0.49083892 0.59124327 0.40385947 -0.17986505 -0.3768818 -0.60764205
0.52889055 0.2373639 -0.7979876 -1.0207806 0.68559843 0.6332934 0.7117151 0.63794374
0.5129152 0.12790951 0.62910265 0.50207615 -0.47773916 -1.2229863 0.7626399 0.14289406
00000000: 0e84 143f d5ee 6e3e a1af 40bf 013d 84bf
00000010: c9f4 263f 0b1e 283f ea6e 343f 6a89 1e3f
00000020: e9cf 063f ddc1 0e3e dbe9 103f af88 0a3f
00000030: 65c6 cfbe 19e3 99bf 8fa0 373f d77a 233e
00000040: 7042 ca3e c564 06be 8157 303f 49bc d5be
00000050: bccd 55bf 587e 68bf a04c 1d3f 69da 50bf
00000060: 114c 833e 9274 d1be 7488 30be bd01 193e
00000070: 898e f2be 4833 1abf 63f3 953e f50d 89bf
00000080: 92e8 db3e b57f ac3e 8aeb 103f 2f73 af3d
00000090: 291c 423e 8c19 42bf 59e9 2f3f 35ac d13e
000000a0: 098c 85bf 592e 8abf b33e 99be 86ec 283f
000000b0: 0f6b 4cbf 6d78 db3e d1be 363f 7b04 b1be
000000c0: 95c0 513f 3f93 89be 0af9 393f 628c 5abf
000000d0: 47e4 7ebf 9543 30be 0c25 06bf dc6e 3d3f
000000e0: 9bdb 243f cd9b f53e da45 27bf 69b2 203f
000000f0: 6c23 28bf e6b3 febe 836d 76bf 499a 333f
00000100: 8a08 3e3e b8bf 25bc ff2a 83bf 8663 063f
00000110: 1ce1 1abf 3674 9abf 334e 65bf 340b 60bf
00000120: d3d2 46bf 2bb8 443f a626 d4be 106b fd3e
00000130: 397d da3e a27d 3bbe 9081 f1be c43e 17bf
00000140: b62f 123f 9c2b 833e f25e 42bf 8549 86bf
00000150: 4a81 293f 1af7 193f b1e6 273f 5157 183f
00000160: 6191 013f 9aa3 963d 16c3 213f 3a8c fb3e
00000170: 6574 d5be a878 9bbf ec54 433f 9b07 203e
00000180: 54f1 d03e 3daa fbbd 939e 2e3f 18b4 e3be
00000190: b9c5 4fbf edea 78bf f430 1e3f 758b 4fbf
000001a0: c1a5 9a3e 73f3 e1be e6b9 6bbe 4ab5 103e
000001b0: 4d60 f4be 5124 0fbf 0b8f 993e 0213 89bf
000001c0: 3e24 e83e 87b8 bc3e 7690 0a3f 1ee6 a23d
000001d0: 5c56 863e c942 42bf 98d5 2a3f 0816 e43e
000001e0: e5b7 8cbf dad2 8abf 4a62 9abe 8400 2b3f
000001f0: 7253 4bbf fcd8 bf3e 19aa 3f3f 254b 9cbe
00000200: 66a5 523f 4323 72be 2520 223f 8aaa 47bf
00000210: 1680 7fbf 2076 10be 5d8f 13bf 114c 3a3f
00000220: e8c8 2a3f a410 053f 8860 2fbf 2a07 233f
00000230: 1580 34bf 6f21 dcbe eef9 62bf 4f11 273f
00000240: 536d 043e f088 6a3d d433 7abf 6cf9 1f3f
00000250: 0b7e 1bbf be3d 98bf 1a1c 6abf 3dc7 70bf
00000260: 6813 3bbf 297b 3f3f ec4c e1be 0b49 043f
00000270: 9fa0 bd3e 518a 33be 07b5 f6be a326 15bf
00000280: 2b6d 073f 2537 743e 0247 4dbf ab23 82bf
00000290: 3c43 213f 6fbd 233f 6711 363f 6849 203f
000002a0: 5672 fe3e eb41 1a3e 242f 113f cf1c 023f
000002b0: f022 f5be 7202 97bf 4711 303f caaa 5c3e
000002c0: b8ca d03e 4e37 debd afee 353f 00b1 afbe
000002d0: b436 4fbf c773 77bf 00c2 123f 6236 47bf
000002e0: a8ef a73e 47f5 d1be dbf5 77be db1a 5e3e
000002f0: 7052 04bf c6e8 16bf 2a75 8c3e 10c2 8cbf
00000300: 2dc0 c33e f798 ae3e e48e 013f babe 233e
00000310: c458 7f3e 7922 3ebf b92e 2b3f a515 d73e
00000320: 1e27 8dbf e5d4 84bf 3527 81be 81f5 2a3f
00000330: 5335 42bf 2a3b ce3e d1c4 3c3f 7ad9 b7be
00000340: b4e7 573f b28d 85be 6fdf 313f ce12 4bbf
00000350: 24e6 83bf 6d88 01be 2eb3 14bf 075b 393f
00000360: 8280 2f3f 094b d43e 431c 36bf dd07 223f
00000370: 4a4c 34bf f927 dcbe 4bd2 77bf 398e 203f
00000380: 9311 fe3d 0534 663c 23f8 7fbf 3a52 133f
00000390: c249 1abf ae3b 98bf d9c3 6dbf fb05 68bf
000003a0: 43c4 40bf 0355 483f 3d4f fbbe b85b 173f
000003b0: abc6 ce3e 8b2e 38be a7f6 c0be 6e8e 1bbf
000003c0: 5f65 073f 860f 733e ea48 4cbf f0a8 82bf
000003d0: 6183 2f3f 841f 223f f632 363f 4850 233f
000003e0: 694e 033f b6fa 023e df0c 213f 1088 003f
000003f0: 3a9a f4be d18a 9cbf 5e3c 433f d252 123e

fc2.bias f4 [4]
-0.2665643 -0.25709987 -0.26407003 -0.30312228
00000000: 1e7b 88be 98a2 83be 3034 87be d832 9bbe
